trainedModels/1620279814/rnn.pt (torch, 22538 bytes, 6 tensors)

rnn_layer.weight_ih_l0 f4 [64, 12]
000000 80 5a fe 3b 48 7b a3 3d d4 f8 dd 3d f5 dd 58 bd
       0.0077622533 0.079824984 0.10838476 -0.05294605
000010 d0 d5 fa 3d 61 cd 6c bd 2a d7 e6 bd 80 3e b3 bb
       0.12247813 -0.057813052 -0.11271508 -0.005470097
000020 35 f3 8f 3d cd b2 8b bd 92 16 fa bd 89 51 25 bd
       0.0702881 -0.06821213 -0.12211336 -0.04036096
000030 9a 20 ee 3d b6 25 e5 bd a3 fe 04 bc 1a 2f a8 3c
       0.11627312 -0.111888334 -0.008117351 0.020530272
000040 b0 52 ba 3c a2 f9 a5 3c a0 3b 80 bb 0e e6 e1 3d
       0.022744507 0.020260636 -0.003913358 0.110302076
000050 ef 91 77 bd 8b 76 4d bd 1e 4c d1 3d 82 02 ef 3c
       -0.060441907 -0.05016188 0.10219596 0.029176
000060 48 15 a5 3c d1 a7 a5 bd c9 f5 10 bd 21 98 f2 bd
       0.02015175 -0.08088649 -0.03539065 -0.118454225
000070 ea ce ac 3d 23 bd ec 3d 40 58 b3 bd 16 af d0 bd
       0.08437903 0.115595125 -0.08757067 -0.10189645
000080 ae da 51 3d 5d c1 f1 3d ea ac 8d bd 0a eb 20 3d
       0.05123394 0.11804459 -0.06917746 0.03928665
000090 84 88 61 bd 0f b8 6c bd fd 9b 34 3d a3 e4 46 3d
       -0.055061832 -0.05779272 0.044094075 0.04855789
0000a0 68 c2 e6 bd 9b 5e 6c 3d 0e 3b e1 3d 38 78 9c bc
       -0.11267549 0.05770741 0.10997592 -0.019100294
0000b0 9d 37 6b bd b3 14 eb 3d bc 72 11 3d 89 50 75 bd
       -0.057426084 0.114785574 0.03550981 -0.059891257
0000c0 a0 4c 6e bc ff 94 6d bd 2a 19 86 bd 3e d9 88 3d
       -0.014544636 -0.058003422 -0.065477684 0.06682061
0000d0 2a a5 99 bd a6 bf a5 bd 60 2f 5b 3c 60 e9 77 3c
       -0.07502206 -0.08093195 0.013377994 0.0151313245
0000e0 4a a3 d3 bd 2c f0 4f bd 4c e0 c7 bd b0 35 e9 3d
       -0.10333879 -0.050766155 -0.09759578 0.11387193
0000f0 84 fc 5a bd e7 6b d7 bd 4f 2d 98 bd 27 f9 99 3d
       -0.053463474 -0.105186276 -0.07430517 0.07518225
000100 74 0e ef bd da b4 10 bd f8 ab 98 3c 78 35 e1 bc
       -0.116726786 -0.035328723 0.018636689 -0.027491316
000110 9e c8 27 bd 17 5a 42 bc ca b9 99 bd 29 8d c8 3d
       -0.040962808 -0.011862299 -0.075061396 0.09792549
000120 18 eb 63 bd d9 f8 f2 3c eb 59 4a bd af ed 41 bc
       -0.055644125 0.029659675 -0.04940216 -0.011836453
000130 16 66 f2 3d 2a fb d2 bd dc ea c9 bd 46 48 d1 bd
       0.118358776 -0.10301812 -0.09859249 -0.10218863
000140 8a d8 fb 3d 79 a7 d5 3c 72 2b fc 3d 4c 56 7f 3d
       0.12297161 0.026080834 0.12312974 0.06233816
000150 74 6c 05 3d 3e 62 bc 3d ec f0 83 bd cd 7a af bd
       0.032574132 0.09198426 -0.064424366 -0.08568344
000160 50 36 ca bc 4b 3f b8 bd 62 ed fa bd 50 bc 02 bd
       -0.024684101 -0.08996447 -0.122523084 -0.03191787
000170 81 24 95 3d c2 04 69 bd da 55 c2 bd e6 a5 2b bd
       0.07282353 -0.056889303 -0.09489031 -0.04190626
000180 94 39 01 3d 67 be 03 3c 99 c4 f0 3d 20 38 af bd
       0.03154905 0.008041001 0.11756248 -0.08555627
000190 4c 75 35 3d 37 c4 a8 3c 06 f9 96 3d 54 57 6e bd
       0.044301316 0.020601375 0.07371716 -0.05818875
0001a0 38 1d e3 3d 01 59 8e bc b8 99 ba 3c 0c 0a fa bd
       0.110895574 -0.017376425 0.022778377 -0.122089475
0001b0 44 57 db bd db 5b e7 bc eb 31 52 3d 85 57 b3 3d
       -0.10710004 -0.028242042 0.051317137 0.087569274
0001c0 50 1f 32 bd 46 ef 0f 3d 3e 23 ec bd d0 21 3d 3c
       -0.043486893 0.0351403 -0.115301594 0.011543706
0001d0 71 08 a2 3d e6 5f 07 3d a8 39 c5 bd 53 65 f5 3d
       0.07911766 0.03305044 -0.09630138 0.11982217
0001e0 a0 99 33 bd b7 a8 8d bd 2a 38 54 bd 00 2e b5 bd
       -0.04384768 -0.069169454 -0.051811375 -0.088466644
0001f0 c0 95 40 bc fc 56 a2 3d 50 ec bf 3c 94 c1 85 bd
       -0.011754453 0.07926747 0.023428112 -0.06531063
000200 6f 5b 0a bc b8 52 2b bd b8 87 38 3d 54 8e e8 bd
       -0.008444651 -0.041826934 0.045051306 -0.11355272
000210 c0 25 98 bc e1 e1 b9 3d 35 84 80 bd 6a 3a 63 3d
       -0.018572688 0.09076286 -0.062752165 0.05547563
000220 ee 73 e7 3d 20 82 75 3b 00 ce ef 3b ac c9 20 bd
       0.11301409 0.0037461594 0.0073182583 -0.03925483
000230 e8 93 35 3c 94 1f bd bc 78 ef e2 bc e9 28 ca 3d
       0.011082627 -0.023086347 -0.027702078 0.09871084
000240 d0 1c cb 3c 86 c3 a1 bd 6c e6 d7 ba c4 68 b8 3d
       0.024794012 -0.07898621 -0.0016471869 0.090043575
000250 88 5a 07 3d 48 13 78 3d 80 ee e4 3a 1c 55 5c 3d
       0.03304532 0.060565263 0.0017466098 0.053792104
000260 e6 d7 ec 3d a0 fd e9 bd 64 cc ad bd c8 20 aa bd
       0.11564617 -0.11425328 -0.0848625 -0.08307034
000270 94 4c 02 bd 2e 1b a0 bb 7a 66 16 3d ff df 96 bc
       -0.03181131 -0.0048860526 0.036718823 -0.018417357
000280 f0 66 e0 bd 51 6b e9 3c d6 45 8f bd 24 e7 a6 bd
       -0.10957134 0.028493555 -0.06995742 -0.08149555
000290 3a 27 6a bb 7a 73 ba 3d cc ce 03 3d d0 26 4c 3d
       -0.0035728947 0.09104057 0.03217964 0.049841702
0002a0 f8 00 ba 3d a3 69 bc 3c 75 62 94 bd 2e 04 f2 bd
       0.09082216 0.02299959 -0.07245342 -0.118172035
0002b0 86 31 ec 3d 46 28 ff bd f6 1c 92 3d 5c 16 23 3d
       0.11532883 -0.124588534 0.0713443 0.039816245
0002c0 08 06 eb 3d 15 21 42 3d dc c2 b1 3d ad a6 38 bc
       0.1147576 0.04739483 0.086797446 -0.011270207
0002d0 f0 d7 13 3c 37 35 ad bd ee 37 16 3d 2a b7 ee 3d
       0.0090236515 -0.084574156 0.036674432 0.116560295
0002e0 5e 5a b4 bd 04 df d5 3d 48 56 47 bd 0c 23 7c bd
       -0.08806299 0.104429275 -0.04866627 -0.06155686
0002f0 d4 8b 95 bd 98 bf ac bc 80 3d e6 bc a0 2d 10 3d
       -0.07302061 -0.021087453 -0.028105497 0.03519976
000300 5e ad 81 3d e6 cc b5 bc cd 5b 31 3d b9 bc 4e ba
       0.06331895 -0.02219243 0.04330044 -0.0007886398
000310 b0 87 53 bd 63 9a 58 bd 94 3c 56 3d 2a 6a 8f bd
       -0.051643074 -0.05288161 0.052303866 -0.07002671
000320 d6 64 ed bc 51 0b 80 bd d8 c5 86 bc e7 e6 a5 bd
       -0.028978746 -0.062521584 -0.016451761 -0.08100682
000330 ac e3 8c bd d4 a8 8f 3d 98 9e d9 3d d0 b7 59 3d
       -0.068793625 0.07014623 0.106259525 0.053153813
000340 f8 00 dc 3d 40 c8 a9 3c b6 da b0 3d 0a 64 9a 3d
       0.10742372 0.02072537 0.08635466 0.07538612
000350 28 04 af 3c e8 04 3d bd 90 20 e7 3c 31 04 6a 3c
       0.021364287 -0.046147257 0.02821377 0.014283226
000360 c0 e7 bb bc 3d f4 86 3d 57 62 f0 3d 8e 57 69 3d
       -0.022937655 0.065895535 0.11737507 0.056968264
000370 f0 fa 3a 3d cf f4 9c 3d 94 4d a2 bd 46 ee c0 bd
       0.04564947 0.07663881 -0.07924953 -0.09420447
000380 e3 b6 ac 3d 22 e9 75 3d 18 03 fb 3c cf 3a ab 3d
       0.084333204 0.060036786 0.030641124 0.08360826
000390 20 5b 8f 3c dd a7 68 3d c3 19 48 bd d5 71 ff 3c
       0.017499506 0.056800712 -0.048852693 0.031182209
0003a0 e0 56 8d 3d 19 06 86 bd 20 de 39 bc 14 fc 08 bd
       0.06901336 -0.06544132 -0.011344463 -0.033443525
0003b0 f9 d7 9e 3d b9 0e 9f 3d f8 11 dd bc 73 aa db 3d
       0.07756037 0.0776648 -0.026986107 0.1072587
0003c0 88 65 90 3d 81 94 86 3d 8f 82 ec bd ad 46 f6 bc
       0.070506155 0.065712936 -0.115483396 -0.030062998
0003d0 ac 9f b2 3d 7b 57 ec 3c 30 9a 24 3d d0 d0 fe 3c
       0.08721861 0.028850308 0.040186107 0.031105429
0003e0 21 74 8f 3d e3 bb a7 3c 42 88 d1 3d 15 20 a5 bd
       0.07004572 0.020475334 0.10231067 -0.0806276
0003f0 9c 23 b5 3d 7b 1b 52 bd 35 56 61 3d 59 8c 4b 3d
       0.088446826 -0.05129574 0.055013854 0.049694393

rnn_layer.weight_hh_l0 f4 [64, 64]
000000 38 7b b7 bc 9a ae 6b 3d 02 92 86 bc 4c 36 a1 3c
       -0.022397622 0.05753956 -0.016427044 0.019679211
000010 4b c4 a3 3d 56 3e 8f bd fb 25 d0 3d 3d 98 2e bd
       0.07996424 -0.069943115 0.10163494 -0.042625654
000020 d9 f0 1e 3d ba 97 c8 bd 76 5f a5 bd ed 41 15 3d
       0.03880391 -0.097945645 -0.08074848 0.036439825
000030 6c 7d eb bd e6 f5 a5 3d ed d7 ab 3d fa 35 94 bd
       -0.11498532 0.08103542 0.08390794 -0.07236858
000040 74 63 df 3d d7 e9 a2 3d 34 54 a2 bd 51 65 21 3d
       0.10907641 0.07954758 -0.07926217 0.039403263
000050 2e f6 1c bd 26 6b 47 bd d5 35 b1 bd f5 ec f9 3d
       -0.038320713 -0.04868617 -0.08652846 0.12203399
000060 00 2a ff 3d 22 e6 1b bc 16 91 a7 bd d8 8a 98 3d
       0.12459183 -0.009515317 -0.0818197 0.07448357
000070 00 e6 e1 3d a3 fc 88 bd b8 cb c6 3d 9f b0 9e bd
       0.11030197 -0.06688812 0.09706825 -0.077485316
000080 c0 d6 99 bd 67 75 f7 3a b7 61 31 3d 57 2a f8 bc
       -0.075116634 0.0018879593 0.04330608 -0.030293627
000090 e5 d2 31 bc e3 81 ae bc 6f fc da 3c 62 bd fd 3d
       -0.010853504 -0.02130217 0.026731698 0.123896375
0000a0 f8 30 41 bc 57 a1 b3 3c 54 c4 cb bd 90 64 81 3c
       -0.01179146 0.021927519 -0.09949556 0.015795022
0000b0 ba 93 55 bd 8f 73 87 3d 22 41 7e 3d 08 e5 68 3c
       -0.052142836 0.06613838 0.062073834 0.014214762
0000c0 85 8f 8f 3d 49 41 cb bd 23 c9 c0 3d 35 60 79 bd
       0.07009796 -0.099245615 0.09413364 -0.060882766
0000d0 3a 5a 43 3d 93 c7 51 bd 81 b4 3e bd aa c1 e8 3d
       0.04769347 -0.05121572 -0.04655886 0.113650635
0000e0 00 2c 41 3d 38 06 82 3d db ee 88 bd 8a 78 6e bd
       0.047161102 0.063488424 -0.06686183 -0.058220424
0000f0 c3 1c e8 bc 39 31 5d bd bb 67 88 3d 09 e3 ba bd
       -0.028334027 -0.05400202 0.0666041 -0.09125335
000100 4c f0 7a bb 19 a8 d4 bd 94 e6 92 bd c3 d6 19 bc
       -0.00382902 -0.103836246 -0.071728855 -0.009389582
000110 26 1f bf 3c b1 c2 0b bc d0 05 38 3d e2 12 94 3a
       0.023330282 -0.008530305 0.04492742 0.0011297131
000120 9e ce 9d 3d 92 b3 e7 bd 36 78 04 3d ce fe db 3d
       0.07705425 -0.11313547 0.032341205 0.107419595
000130 1d 01 df 3d b0 ac a6 3b 20 f6 c6 bd b7 5b 49 3d
       0.10888884 0.005086504 -0.09714913 0.04915973
000140 f4 b9 ad 3d 62 c7 9b bd 1e 2a 01 bd 00 e7 b3 bc
       0.08482733 -0.07606389 -0.031534307 -0.021960735
000150 ea 7b cf bd dc 8b ae 3d d2 57 8f 3d 69 62 95 3d
       -0.101310566 0.0852277 0.06999172 0.07294161
000160 d3 09 6d b7 1b 6d d6 bd 3c 20 29 3d b1 71 9d bc
       -1.4128588e-05 -0.10470029 0.041290507 -0.019219251
000170 bb ef a7 3c ae fb 68 3d 6f 64 6f 3c bf a7 08 bb
       0.020500055 0.056880645 0.014611348 -0.0020851938
000180 c8 73 d3 3d b2 49 c9 bd cc eb 98 bd b7 fa dd bd
       0.10324818 -0.098285094 -0.0746685 -0.10838836
000190 f3 d1 ca bd 06 fe 4e bd d7 e4 bc 3d 74 ee cc bd
       -0.09903326 -0.050535224 0.09223335 -0.10006419
0001a0 64 d8 d7 3d 0a c3 00 be 9c 5e 5d bd f0 e0 3e 3d
       0.1053932 -0.12574401 -0.054045305 0.046601236
0001b0 9a c7 bd bd c6 8c d5 38 47 c8 c2 3b b9 03 6a 3d
       -0.092665866 0.000101828526 0.005944285 0.057132456
0001c0 cd ad 24 3d a9 06 8a 3d 51 d8 cf bd d6 92 7a bd
       0.04020481 0.067395516 -0.10148681 -0.06117519
0001d0 19 e3 59 3c d2 08 45 bd 81 69 ab bd da 7d a7 bd
       0.013298773 -0.048104115 -0.08369733 -0.08178301
0001e0 ef d0 05 bd f8 60 44 bd 23 4b 01 3c 9f db 9b bd
       -0.032669958 -0.04794404 0.007891449 -0.07610249
0001f0 b1 c3 1f 3d 33 67 df bd de 10 71 bc 80 a1 ac 3c
       0.039004985 -0.109083556 -0.014713494 0.021073103
000200 d6 d0 49 3d 95 2f 91 3b 45 c1 b7 3d a9 2b 63 bd
       0.049271427 0.004430721 0.0897241 -0.05546156
000210 f5 ee ce bc af 2f 55 bc 1b 53 a0 3d ad dd 92 3d
       -0.025260428 -0.013011857 0.07828351 0.071711875
000220 f0 0a 2e 3d 96 bf 49 3d 50 be 8c bd f1 4d 9f 39
       0.0424909 0.049254976 -0.06872237 0.00030384914
000230 f8 a9 3c bd c4 7f e7 bc 1d 8e b2 bd eb aa 7b bc
       -0.046060532 -0.028259166 -0.08718512 -0.015360574
000240 1e e0 58 bd 0d d5 a0 bd 7d c0 c5 bd 2a c9 7f bc
       -0.05294811 -0.07853136 -0.09655855 -0.015611926
000250 30 41 00 3d a5 de 64 bc c6 5d b0 bc 9d ae ec bc
       0.031312168 -0.013969098 -0.02152909 -0.028891856
000260 8c 7f 2a bd 97 4d 77 bd 8a 70 08 bd 5d 0f fa 3d
       -0.041625544 -0.06037673 -0.03331045 0.122099616
000270 42 e0 cc bd cc 6e 70 ba f4 f0 f1 3d d5 8f 60 3d
       -0.10003711 -0.00091717835 0.11813536 0.05482467
000280 98 92 3e 3d 5d a6 da 3c 23 28 65 3c 39 be bb bd
       0.04652652 0.026690656 0.01398662 -0.091671415
000290 c2 93 d2 bd ad 3a a4 3d 17 79 19 bc 15 0e 15 bd
       -0.10282089 0.08019004 -0.009367249 -0.036390383
0002a0 29 62 ce 3d 5d cb ee 3d af ec ab 3d 23 47 ba bd
       0.10077316 0.11659882 0.08394753 -0.090955995
0002b0 d4 fc 4c bd a3 59 fb 3d b4 51 2e ba 65 a3 2d bd
       -0.050045803 0.12272956 -0.0006649748 -0.042392153
0002c0 9b b2 c2 3c 05 2a 1e 3d d7 c9 1f 3d 10 fe db 3c
       0.023766806 0.03861429 0.03901085 0.026854545
0002d0 97 0b ea 3d ad 91 c4 bd b0 04 b9 bd 75 ac e9 3d
       0.11427992 -0.09598098 -0.09034097 0.11409847
0002e0 43 f1 99 bd 5f d7 1e bd ac 2f a5 3c 07 c3 fb bd
       -0.0751672 -0.038779613 0.020164333 -0.12293058
0002f0 ad 8c f6 bc 19 21 c9 bd c7 33 dd 3c f0 e5 9c 3d
       -0.030096376 -0.09820766 0.027002228 0.076610446
000300 db f8 10 bd f8 8e 24 3d c9 ec 60 bd 9d e2 10 bd
       -0.035393577 0.040175408 -0.054913316 -0.035372365
000310 a2 48 c0 3d f0 22 8d bd 2a c7 d8 bd 35 e4 31 3d
       0.093888536 -0.068914294 -0.105848625 0.043430526
000320 2e f7 6d 3c 51 a9 0f 3d 84 1c 09 3d 05 c9 9f 3d
       0.014524264 0.035073582 0.03347446 0.07802013
000330 fd fa 96 bd 0a 20 f8 3d ec 57 f6 3d 71 24 e5 3d
       -0.07372091 0.12115486 0.120284885 0.11188591
000340 b1 fc db 3c 17 f9 e6 bd 68 23 9b 3d b6 aa c6 3d
       0.026853891 -0.11277979 0.075751126 0.09700529
000350 a3 ca 8a bc 34 f8 6e 3d 11 0d be 3d 1c 40 ac 3d
       -0.016942328 0.058342174 0.09279836 0.084106654
000360 27 57 49 bd a9 d9 35 bd bd 56 19 3c d7 03 2a bd
       -0.04915538 -0.04439703 0.009359059 -0.04150757
000370 8d 0c ec bd f2 33 83 3d 83 d7 ba bd af d4 25 3c
       -0.11525831 0.06406392 -0.09123137 0.0101215085
000380 dc 44 ef bd e4 61 a8 3d b2 65 88 bd c2 09 c5 bc
       -0.11683056 0.08221796 -0.06660022 -0.024052504
000390 01 b9 93 3d 8a 19 b7 bd 80 1b d8 bd 68 da f9 3d
       0.07213021 -0.08940418 -0.1055212 0.12199861
0003a0 ed 54 39 bc 6d 2e ad bd 33 b1 0c 3c 0c 4c 66 3d
       -0.011311752 -0.08456121 0.008587169 0.056224868
0003b0 22 a0 bd 3d e5 cd f0 bd 30 3d b4 3b c8 a7 08 3d
       0.092590585 -0.11758021 0.005500458 0.033363134
0003c0 41 e9 ab bd 90 45 58 3c 71 3e d5 bb 82 b5 e6 3c
       -0.08394099 0.013200179 -0.0065076877 0.028162722
0003d0 e2 69 8a bd ed a3 e3 3a 63 7a 50 bd 31 30 fd 3d
       -0.06758477 0.0017367579 -0.050897967 0.123627074
0003e0 b7 da 08 bd 10 03 83 3d 69 2a 40 3d 80 0a fc bc
       -0.033411708 0.063970685 0.046915445 -0.030766726
0003f0 8d 92 d2 bd d8 fc 5d bd fa 5f 09 3d d2 55 65 3d
       -0.102818586 -0.05419621 0.033538796 0.055990048

rnn_layer.bias_ih_l0 f4 [64]
000000 e1 f2 cb bd d0 08 01 3d ea 34 44 bd 21 93 cf 3d
       -0.09958435 0.031502545 -0.047902025 0.101354845
000010 c8 52 29 3c 6b 3d 76 3d 38 a3 23 3c fb 02 cc 3d
       0.010334678 0.060117166 0.009987645 0.09961506
000020 ab 75 7e 3c bf 95 fa 3d c3 04 af bd e3 f5 04 bd
       0.015530984 0.12235593 -0.0854583 -0.03246106
000030 2c 31 ff bc 1b f1 eb 3d 1a 47 b8 bc e7 3d 91 3d
       -0.031151377 0.115205966 -0.022494841 0.07091885
000040 93 e9 44 3c f9 d0 df bd 7e 3a ce bd 16 f9 a6 bd
       0.012018579 -0.1092853 -0.1006975 -0.08152978
000050 30 d5 c4 3d 12 50 70 bd f5 55 a9 bd b2 35 df 3c
       0.09610975 -0.05867011 -0.08268348 0.027247284
000060 6e ce 63 3d 7a e8 c8 bc 23 28 91 3d bb e6 7c bd
       0.05561679 -0.024524916 0.070877336 -0.06174348
000070 94 0b 43 bc 48 f4 8e bd 5c 36 e7 bd 21 0a b8 bd
       -0.011904616 -0.06980187 -0.11289665 -0.08986307
000080 c5 97 92 bd 68 7c 93 bd cf b4 68 3d 92 6b a4 bc
       -0.07157854 -0.07201463 0.056813058 -0.020070825
000090 32 94 90 bd ea 00 b9 3c b7 ac af bd 23 5a 8e 3d
       -0.07059516 0.022583444 -0.085778646 0.06950786
0000a0 d6 d3 43 3c dc 79 f0 bd bf ab ae 3d 3e 94 01 bd
       0.011952361 -0.11741993 0.08528852 -0.031635515
0000b0 de e3 4c 3d 18 73 96 bd 73 59 a4 bd b8 07 ba bd
       0.050022 -0.07346171 -0.080248736 -0.090835035
0000c0 23 0f a4 3d 37 f6 e8 3d 33 f8 b6 bd 37 2e 79 bc
       0.080106996 0.11375087 -0.08934059 -0.015208772
0000d0 6d bc c3 bd 21 a1 e5 3d 23 22 7c bd c6 c3 19 bd
       -0.09557424 0.112123735 -0.061555993 -0.03754022
0000e0 77 4a 7c bd d5 61 be 3d e6 50 86 bd 4f 8d e8 3d
       -0.061594453 0.09296004 -0.06558399 0.113550775
0000f0 52 09 f7 bc ca f6 9d bd 13 de af 3c 88 a8 bb bd
       -0.030155811 -0.07713087 0.021468198 -0.09163004

rnn_layer.bias_hh_l0 f4 [64]
000000 aa 10 60 3d b8 c1 94 3c 0e 72 61 3d 73 10 d9 bd
       0.054703392 0.018158779 0.05504041 -0.105988406
000010 16 83 65 3d b2 07 9c bc 22 11 4a bd ed 0a fa 3d
       0.056033216 -0.019046638 -0.049332745 0.12209115
000020 e5 fd 50 bd 13 26 af bd 47 dc 45 bd ce 7c 87 3d
       -0.051023383 -0.08552184 -0.048305776 0.066156015
000030 1f c7 89 bd df a9 1b 3d 0e f6 e7 3d f1 f3 98 bd
       -0.067274325 0.0380038 0.11326228 -0.07468403
000040 fa 7d d0 bd 2c 29 ae bc e4 32 f1 3d 0a 56 dd 3d
       -0.10180278 -0.021259867 0.11777285 0.10807426
000050 42 bb c1 bd 6a 66 59 3d 71 65 45 bd c6 79 9f bd
       -0.09459545 0.053076185 -0.048192445 -0.07786898
000060 2d 46 c1 bd 86 b9 87 3d bd 71 d8 3d 67 61 bb 3d
       -0.09437213 0.06627183 0.10568569 0.091494374
000070 b3 95 41 3d af 12 64 bd 7f 43 4d 3d ee 88 c2 bc
       0.047261905 -0.05568188 0.050113197 -0.023746934
000080 95 98 d6 bd ad b5 1b 3d 21 10 0d bd e4 f8 b6 bd
       -0.104783215 0.038015056 -0.03443921 -0.08934191
000090 ce 7c 32 39 d7 33 da bb 0b 13 ed 3d 93 3d 22 bb
       0.00017021896 -0.006659012 0.11575898 -0.002475594
0000a0 96 13 4e 3d 67 f3 e2 3a 7d 86 fe 3c 8d d6 89 bd
       0.050311647 0.0017314971 0.031069988 -0.067303754
0000b0 23 f1 8f bd 66 7a e0 bd ea d3 e2 bc d3 8b 6e 3d
       -0.07028415 -0.10960846 -0.02768894 0.058238816
0000c0 5e 12 65 bd 07 31 cb bd a1 24 90 3d f2 0e 59 3d
       -0.05592572 -0.099214606 0.070382364 0.05299277
0000d0 09 71 f6 3d 43 07 85 bd c3 ff f7 3c dd 47 b7 bc
       0.120332785 -0.06495526 0.030273324 -0.022373134
0000e0 69 e0 63 3d 86 11 3a 3d 8d 9f 03 bd bb 2a 25 3d
       0.055633936 0.045426868 -0.03213458 0.040323954
0000f0 42 8d bd 3d 6a 15 bb bc 93 93 91 3c 6a a9 cc bc
       0.092554584 -0.02283736 0.017770564 -0.024983127

fc.weight f4 [3, 64]
000000 c1 88 b1 3d bd d7 67 3d df 11 91 bd b7 89 7e 3d
       0.08668662 0.05660223 -0.07083487 0.062143054
000010 a3 a6 9f 3d 2c 7c 36 3d 99 35 e8 3d a6 bc ec 3d
       0.07795455 0.044552013 0.11338348 0.11559419
000020 f0 aa c5 bd 97 24 86 bd aa cb 63 3d 91 ce cf 3d
       -0.09651744 -0.06549948 0.05561415 0.10146821
000030 83 74 30 bd a0 3b 04 3d cb 2a 9c 3d a5 9a b3 bd
       -0.043079864 0.032283425 0.076253496 -0.087697305
000040 19 75 62 bd 95 84 60 3d cd fd f0 3d 3b f5 de 3c
       -0.055287454 0.05481394 0.11767159 0.027216544
000050 6d e5 05 3d 3a 25 d6 3d f1 cd 05 3d 13 aa ea 3c
       0.0326895 0.10456319 0.032667104 0.02864555
000060 e6 03 e3 bd fa 08 69 bc 0b f6 76 3b 86 ce f6 bc
       -0.11084728 -0.014223332 0.0037683274 -0.030127775
000070 ee d5 04 3d 19 ac b4 bd d1 38 9b 3d df de b8 3d
       0.03243058 -0.088218875 0.07579196 0.09026884
000080 08 42 1e bc 41 ca a0 bd 1b 74 fe 3d be 5b 1c bd
       -0.009659298 -0.07851077 0.12424489 -0.03817343
000090 41 da cd 3d 93 ad 95 3d 63 86 51 3d 35 a6 04 bd
       0.10051394 0.07308497 0.05115355 -0.03238507
0000a0 8f 25 d3 bc ba 40 d0 3d 4b 4f 00 bd 34 a8 b8 3d
       -0.025774745 0.101685956 -0.03132562 0.09016457
0000b0 74 2e 83 bd 7b 56 5e 3d 0b 9e db 3b 13 1b fa bd
       -0.064053446 0.054281693 0.00670219 -0.12212195
0000c0 45 78 c0 3d 6e 58 75 3d 55 e6 92 bc 5b 42 2b bd
       0.093979396 0.059898786 -0.017932096 -0.04181133
0000d0 ad 9d aa 3c e0 20 1f bc e5 05 94 3d 46 09 f3 3d
       0.020827139 -0.009712428 0.07227687 0.11867003
0000e0 b2 f7 9d 3b b4 aa dc bd e7 35 49 3d ab 5f bc bd
       0.0048207873 -0.107747465 0.04912367 -0.09197935
0000f0 fd 82 ff 3b 23 45 e8 bd f2 8f a1 bd 44 57 ae 3d
       0.0077975974 -0.11341312 -0.078887835 0.08512738
000100 09 70 13 3b 5d c5 8a bd 1a c4 69 bd 15 c2 2e bd
       0.0022497198 -0.06775925 -0.057071783 -0.04266556
000110 4f de 29 3d f3 43 5a 3d 6d 86 ae 3d ab b2 54 3d
       0.041471776 0.053287458 0.085217334 0.051928204
000120 d8 71 a3 3b 0a 17 f1 bc 5a 30 a4 bb f0 9e df bd
       0.0049879365 -0.029429931 -0.005010647 -0.10918987
000130 63 8c e0 3c d3 64 55 3d 01 a0 ea bd 39 fd b9 3d
       0.027410692 0.052098107 -0.114562996 0.090815015
000140 fd ef 0f bc 6c bd c3 3c ca 72 9c bd 36 4a b5 3c
       -0.008785245 0.023894034 -0.07639082 0.022130113
000150 61 3e 18 3d 7c c0 67 bc 52 5d fc bd b1 63 c4 bd
       0.037168864 -0.014145013 -0.12322487 -0.09589327
000160 db 9f 04 bd 50 f3 dc 3d 30 b2 c8 3d 2d aa 23 bd
       -0.032379013 0.10788596 0.097996116 -0.039957214
000170 3f e6 a5 3d 17 b0 f8 bd ad d8 bd 3d b9 11 84 3d
       0.081005566 -0.121429615 0.09269843 0.06448693
000180 94 0a 7d 3c 9a fb 6c bd ff 5d 9e 3d dd 2c 25 3d
       0.015444417 -0.057857133 0.07732772 0.040325988
000190 fb 0e 72 bd 23 71 9f bd 95 8c fb 3d 5f 15 aa 3d
       -0.059096318 -0.07785251 0.12282673 0.083048575
0001a0 e3 78 99 bd c4 26 86 3d 74 b4 f0 3d a1 53 14 3d
       -0.074937604 0.06550363 0.11753169 0.036212567
0001b0 cd 15 ef 3d 3b 11 da bb 3c d6 4e bc 55 52 df 3d
       0.1167408 -0.006654886 -0.01262432 0.109043755
0001c0 74 0c ef bd ec 39 ce bc b1 cd ff 3c 5e 10 84 bd
       -0.11672297 -0.025174104 0.031226011 -0.06448434
0001d0 9f 15 d2 3d 8f eb 28 bd 2a 4a 55 3c d1 8f dd bd
       0.1025803 -0.04124027 0.01301817 -0.108184464
0001e0 03 bd aa bd ea cc 9f bc 0f 46 ab 3d 47 da 56 3d
       -0.083368324 -0.01950689 0.08362972 0.05245426
0001f0 64 8a 1e bc 2d 6f de 3d 4c b2 7b bd a9 8b 28 3d
       -0.00967655 0.10861049 -0.061449334 0.041148815
000200 6a d7 95 3d 29 18 db bd 45 94 d2 bd d5 28 9b 3d
       0.073164776 -0.106979676 -0.102821864 0.075761475
000210 77 2c a5 3d ab de f9 bd 8d 8b d1 3d 7d bf 5c 3d
       0.080651216 -0.12200674 0.10231695 0.053893555
000220 22 c9 95 bd 4a 72 fa 3c 90 2d 8a 3d 2d 25 20 3d
       -0.07313754 0.030572075 0.067469716 0.039097954
000230 0b b4 82 bc ae b5 9a bc c0 d7 0a bd fb be 90 3c
       -0.015954992 -0.01888546 -0.03389716 0.017669192
000240 58 0a 93 3d 89 b6 b9 3d 44 b3 af 3d 08 37 a0 3d
       0.07179707 0.09068019 0.08579114 0.078229964
000250 bd cb 05 bd 79 e4 7a bd 4c 8b c3 bd 29 c9 d5 3d
       -0.032665003 -0.061253045 -0.09548053 0.10438759
000260 70 c0 ee bd aa 54 de bd 12 3f d8 3c ae aa 88 3d
       -0.11657798 -0.10855992 0.026397262 0.066731796
000270 e3 9b 92 bd a9 29 fa 3d 8b 3b d8 bd 21 8a 9d 3d
       -0.07158639 0.12214977 -0.10558232 0.076923616
000280 de 58 b7 3d 2d 71 fc 3d 4f cd 39 bd 89 0b 6a bd
       0.08952497 0.12326274 -0.045361813 -0.057139907
000290 23 7a fe 3d 8d a7 d2 3b cd 4f d9 3d 0b 63 e4 3b
       0.124256395 0.006428665 0.10610924 0.0069698147
0002a0 b8 31 26 bc a1 52 44 bd 9a 02 d4 3d 62 7b da bc
       -0.01014369 -0.047930364 0.10352059 -0.026670162
0002b0 72 a9 1e bd 08 fe cf bd 0d 74 62 bd e9 f9 cb bd
       -0.038735814 -0.101558745 -0.055286456 -0.09959776
0002c0 00 63 f9 bd 02 b9 03 bd c9 99 5f 3d a2 48 cb bd
       -0.12177086 -0.03215886 0.05459002 -0.09925963
0002d0 6d 61 a9 3c 91 e9 c0 3d 15 9d a4 3d 97 ff ee bd
       0.020676339 0.09419549 0.080377735 -0.11669844
0002e0 54 41 11 3c 3d 0f 37 bc 6d c6 d3 bd 54 3b aa 3d
       0.008865673 -0.011173067 -0.10340581 0.08312097
0002f0 bc 90 fc bd 38 78 68 bd 03 a7 b2 3c 7d f7 78 bd
       -0.123322934 -0.056755275 0.021808153 -0.0607829

fc.bias f4 [3]
000000 97 f7 bf 3d d1 a9 61 bd 0c e6 91 3d
       0.09373396 -0.05509359 0.07123956
