rnn.pt (torch, 22538 bytes, 6 tensors)

rnn_layer.weight_ih_l0 f4 [64, 12]
000000 dd db b8 3d 70 5a a8 3d 43 67 bd 3c 03 57 97 3c
       0.090263106 0.082203746 0.023120528 0.018474108
000010 24 0b 77 3d 8d 19 43 bd 2e 0c ae bd da a3 c2 bd
       0.06031336 -0.04763179 -0.08498417 -0.095039085
000020 40 34 9e bc 55 8d 26 3d 7c 49 96 bd b4 e8 49 bc
       -0.019312024 0.04066213 -0.07338235 -0.012323547
000030 6a ca b9 3d 08 34 e3 bd 53 b5 33 bc 0a a9 7a 3d
       0.090718105 -0.110939085 -0.010968524 0.061196364
000040 f2 08 d8 bd 30 b2 e5 3d 5b 7c d1 3d d3 08 c3 bd
       -0.10548581 0.11215627 0.10228797 -0.095231675
000050 6f 99 40 ba 95 82 b7 3d e1 8d 97 3b fd 76 0c 3d
       -0.0007347082 0.089604534 0.0046250676 0.034293164
000060 27 69 21 3d 17 42 33 bc c7 df de 3c 48 1b 85 bd
       0.03940692 -0.01094105 0.027206315 -0.06499344
000070 2a 41 ee bd bd cb 45 bd d5 02 22 bd db a5 d0 3c
       -0.11633523 -0.048290003 -0.039553482 0.025469711
000080 3b e5 ac 3b e8 70 2a 3c f6 a0 76 3c fc c6 d2 3c
       0.00527635 0.0104028955 0.0150530245 0.025729649
000090 ec dc 32 3d ec 35 0a 3b e5 2e c9 3d 5a d8 8c 3d
       0.04366772 0.002108927 0.098233975 0.06877203
0000a0 83 eb 11 bd 98 bb d7 bd 20 1c 88 bb e6 ca 2c bd
       -0.035624992 -0.105338275 -0.0041537434 -0.042185687
0000b0 5b 7a 0f 3d e6 31 85 3d 9f 2d 81 3d 28 8e ef 3d
       0.035028797 0.06503658 0.0630753 0.11697036
0000c0 06 ca d7 3c eb f8 d8 3d f6 e0 ab 3d 53 4b b3 bc
       0.02634145 0.10594352 0.08392517 -0.021886503
0000d0 b7 d7 e3 3c e6 70 f7 bd 5a 40 7a 3d 92 68 b1 3c
       0.027812822 -0.120820805 0.061096527 0.021656308
0000e0 bb 15 79 bd f5 91 ff bc 54 df 05 bd d2 ec 0f bd
       -0.06081174 -0.031197527 -0.032683685 -0.03513796
0000f0 de 55 1e 3c 89 89 b4 3d 57 d0 fb bd d4 33 db bd
       0.009664027 0.08815295 -0.12295597 -0.10703245
000100 f8 79 a1 3d 74 2b 51 39 dc d6 70 3d 2b f8 2f 3d
       0.07884592 0.00019947981 0.058798656 0.04296128
000110 ac 88 56 bb 62 88 03 3d 82 91 bf 3d 8e 2c 8e 3d
       -0.0032735271 0.032112487 0.09353925 0.06942092
000120 74 15 d5 bc ab cb 8b bd 78 14 de bb 37 ad 02 bd
       -0.026011206 -0.06825956 -0.0067773424 -0.03190347
000130 97 11 0f bd 34 00 a2 bd 53 9a 93 3d 8a ab cf 3d
       -0.034928884 -0.07910195 0.072071694 0.1014014
000140 70 bb 7d 3d 0d 6f 42 3d da a9 ea 3c e4 3e a9 bd
       0.061946332 0.047469188 0.028645445 -0.082639486
000150 44 9e d0 3d 98 b0 e3 bc 32 27 f6 bd 89 e0 03 3e
       0.10186437 -0.027794167 -0.12019195 0.12878622
000160 67 d5 ba bd fa c8 8f 3d 6c f0 c0 bd ad f8 f0 bc
       -0.091227345 0.07020755 -0.09420857 -0.029415453
000170 2a be 44 bb 8b d5 7c 3d c3 f5 59 3b dc 40 9a 3d
       -0.0030020573 0.061727088 0.0033258058 0.07531902
000180 30 6a 8b 3d 84 01 8d 3c 39 f0 92 bd d2 1c d8 3c
       0.06807363 0.017212637 -0.07174725 0.02638093
000190 8e 53 dd bd c6 91 01 bc a1 14 3e 3d 70 71 92 bd
       -0.108069524 -0.00790829 0.046406392 -0.07150543
0001a0 be 25 97 3d 6f b1 47 bd 46 ad d3 3d d4 ce 97 bd
       0.073802456 -0.0487532 0.10335784 -0.07412496
0001b0 2a 23 25 bd 20 83 41 3d e2 f2 b3 3b 30 d5 f9 3d
       -0.04031674 0.04724419 0.0054916004 0.121988654
0001c0 49 c4 91 bd 7f af 52 bd b6 b7 b2 3c 60 d9 bd bd
       -0.071175165 -0.051436897 0.021816116 -0.092699766
0001d0 4e af ac bb 71 b2 c3 3c 08 62 f3 3c 99 46 e7 3d
       -0.0052699214 0.023888798 0.02970983 0.11292762
0001e0 a7 c5 ac bd 3a c1 1d 3d 61 35 5f 3d 55 d6 9f 3d
       -0.08436137 0.038514353 0.054494265 0.078045525
0001f0 c6 09 b0 3c 81 56 c9 bd 10 f6 ca bd 94 95 2b 3d
       0.021489035 -0.098309524 -0.09910214 0.041890696
000200 80 b0 69 3d 4d 73 bf 3d 17 8b f1 3d 5f b3 e9 3d
       0.05705309 0.09348164 0.117941074 0.114111654
000210 7c bd 05 3d a4 0f c2 bd 0c 8c 7c bd 9d 14 30 3d
       0.03265141 -0.094756395 -0.061656997 0.04298841
000220 bc 00 96 3d e8 c2 0a bc 33 ff f0 3c 23 12 8c bd
       0.07324359 -0.008469321 0.029418563 -0.06839397
000230 2e 6a b7 3d a5 cb e3 bd 1e 4b 33 3c 26 4e 21 3d
       0.08955799 -0.111228265 0.010943202 0.03938117
000240 de c9 70 3d 2d 8b 92 bd d5 55 8a 3d f0 bd 97 bd
       0.058786266 -0.07155452 0.067546524 -0.074092746
000250 e8 f0 86 bd f6 c9 33 3d db a6 11 bd ed 20 dd 3d
       -0.06588918 0.043893777 -0.035559516 0.10797296
000260 2f ce 8f 3d 8c 0a 3d bd 4a be b9 bd af 84 e8 3d
       0.07021748 -0.046152636 -0.09069498 0.113534324
000270 0a 14 d0 3d 09 a3 68 bd f9 b9 43 3d 80 e6 8d 3c
       0.10160072 -0.056796107 0.04778478 0.017321825
000280 1e b4 d4 bd 76 f9 71 bd 50 3d 22 3b 4f 10 00 3e
       -0.10385917 -0.059075795 0.0024755783 0.12506221
000290 14 4c 57 3d 61 00 a0 bd 7a 41 94 bd 86 50 59 bd
       0.052562788 -0.07812572 -0.07239051 -0.05305531
0002a0 26 bd 9e b9 18 01 84 3d 9e a2 34 3d 19 79 ec bc
       -0.00030277035 0.06445521 0.044100396 -0.028866338
0002b0 6b 89 19 3d d8 50 81 bd ec e3 97 3d bd af ae 3d
       0.037484568 -0.06314248 0.074165195 0.08529613
0002c0 95 24 1a bd b1 b6 61 bb 19 17 35 bd 5c 4f aa 3d
       -0.037632544 -0.0034441168 -0.04421148 0.08315918
0002d0 35 35 9b 3d 5f 25 d0 bd 61 42 39 3d 67 2b fe 3d
       0.07578508 -0.10163378 0.04522932 0.12410622
0002e0 0f 2d f8 bc ab fd 7b bb 4d 2b de bd 05 ab a6 bd
       -0.030294923 -0.0038450758 -0.10848103 -0.08138088
0002f0 a2 cf 21 bd 86 fa be bd 57 57 d2 3c e6 2f 07 3d
       -0.039504655 -0.09325127 0.025676413 0.033004664
000300 29 c0 69 3d d9 45 97 3c 36 b8 f8 3d 6b 46 9d bd
       0.057068024 0.018465923 0.121445104 -0.07679447
000310 34 20 34 3d a8 cf 00 3e 56 36 bc b9 25 d1 b7 bd
       0.043976024 0.12579215 -0.00035898638 -0.08975438
000320 47 3c fd 3d 42 b2 66 3d 0b 54 87 3d 2c fa a9 bd
       0.123650126 0.056322344 0.06607827 -0.082996696
000330 ae ef 82 bd da d8 9a bd 50 21 8d bc f3 e7 b0 bd
       -0.063933715 -0.075608924 -0.017227799 -0.08637991
000340 f3 aa e9 bc 0c ca 38 bd f0 ae 07 bd 93 b0 e8 3c
       -0.028523898 -0.045114562 -0.033125818 0.02840451
000350 88 2e c1 3d 18 ae 75 bd d5 6c ba bd 1c 01 9b 3c
       0.09432703 -0.059980482 -0.09102789 0.018921427
000360 05 37 c6 3d 5e 8e ad bc f3 a7 eb 3d c1 63 b7 bd
       0.09678463 -0.02118605 0.11506643 -0.089545734
000370 c8 0d 86 3c 63 1a 9a bd 24 d9 07 3d 11 22 a2 bd
       0.016363993 -0.07524564 0.033166066 -0.07916654
000380 b1 70 bc bd 52 15 73 bc eb a0 df bc b0 2b 74 bd
       -0.09201182 -0.014836626 -0.027298411 -0.059611976
000390 1b c9 53 bd 32 0a 1d bd 3d a4 b9 3d 50 bd f7 3c
       -0.05170546 -0.0383398 0.09064529 0.030241638
0003a0 67 2d d3 3d 36 6d d5 3d cf 09 8e 3d 31 31 cf bd
       0.10311394 0.10421221 0.069354646 -0.101168044
0003b0 b2 0f ed bd e1 a6 b8 3d dd 29 90 bd 0a 6a c4 3d
       -0.11575259 0.090162046 -0.07039235 0.09590538
0003c0 5f c1 24 3d 22 85 5f 3d 15 dd de 3d 8e 0d fc bd
       0.040223476 0.054570325 0.10882012 -0.12307273
0003d0 2d 47 73 3d 99 03 c5 bd 69 80 af 3d dd d4 90 3d
       0.05939405 -0.09619827 0.08569414 0.070718504
0003e0 a7 7f b9 3d 65 ed 83 bc a1 a8 f1 bd 91 12 e9 bc
       0.09057551 -0.01610441 -0.117997415 -0.028451236
0003f0 7c 58 48 3d d2 0b 5e ba 02 f5 b8 bd 71 5f 10 bd
       0.04891251 -0.00084703893 -0.090311065 -0.03524727

rnn_layer.weight_hh_l0 f4 [64, 64]
000000 c2 f3 ad bc 25 5a ea bd b9 d5 be 3d 52 d6 9c 3d
       -0.021234397 -0.11442975 0.09318108 0.07658066
000010 7e 28 b6 bd db cc 9e bd d4 cf 3d 3d 93 cf 49 bc
       -0.08894442 -0.07753917 0.04634078 -0.012317556
000020 90 e4 f5 3d 56 66 6e bd d5 12 cb bd ed 4e eb bc
       0.120064855 -0.058203064 -0.09915701 -0.028724158
000030 6e f0 20 bd 33 b4 11 3d a9 1f 39 3d 6d f2 fe bb
       -0.03929179 0.035572242 0.04519621 -0.0077803642
000040 96 da e0 bd ce 83 0c bd 31 fb 66 bd c4 fa fd 3c
       -0.10979192 -0.034305386 -0.0563919 0.031003363
000050 44 dc 3a 3d 1a 13 f7 3d e1 3d 84 3d 25 d0 2e 3d
       0.045620218 0.1206419 0.06457115 0.04267897
000060 4d 85 71 3d 90 cc 4e bd 43 d9 2f bd c6 76 27 3d
       0.058965016 -0.050488055 -0.042931806 0.040884756
000070 66 a8 71 bd f6 83 02 3e b7 a8 eb 3c 61 4f e3 bd
       -0.058998488 0.12745652 0.028766973 -0.11099125
000080 e1 7c ef bd 32 ca 05 be 88 4b cf bd 82 55 e3 3d
       -0.11693741 -0.13065413 -0.10121828 0.11100294
000090 44 74 9f bd 97 68 23 bd 2b 19 fc 3d 73 4d f6 bd
       -0.07785848 -0.039894667 0.12309488 -0.12026491
0000a0 60 b0 15 bd 5b b9 e3 bc 1e 55 c0 bd 4e cb e6 bd
       -0.036545157 -0.027798345 -0.09391235 -0.11269246
0000b0 a7 9d db 3d 3d 5c b7 3d 0c c8 c3 3d 0d ff 71 bd
       0.10723429 0.0895314 0.0955964 -0.059081126
0000c0 d1 05 b0 bd c2 eb c0 bc 72 f7 ab 3d be ab c0 bd
       -0.085948594 -0.023549918 0.08396806 -0.09407757
0000d0 85 10 cc 3d 58 90 84 3c 0f 90 86 bd 4c 46 28 3d
       0.09964088 0.01618211 -0.06570446 0.041082665
0000e0 95 b4 93 3d 40 6a 22 3d 75 0a 2f 3d 72 3d a5 3d
       0.07212178 0.03965211 0.042734582 0.080683604
0000f0 d1 f7 df bc 5f 1d 57 3d ad ca a2 bd 19 18 d8 bd
       -0.027339848 0.052518245 -0.079488136 -0.10551471
000100 45 8f 30 bd 4b bd ed 3d 01 25 de bc b2 ea 7a 3d
       -0.043105382 0.116083704 -0.027117254 0.06125898
000110 67 3b e0 bd be ea ce bc b7 10 5c 3d 40 cf c0 bd
       -0.1094883 -0.025258418 0.053726878 -0.0941453
000120 66 86 4f bd bf 80 7d bd 81 25 a5 bd c7 ad df 3d
       -0.05066528 -0.06189036 -0.08063794 0.10921817
000130 9d 1c 80 bd 38 d3 ca bd 16 40 be bb b0 10 ef 3b
       -0.062554576 -0.09903568 -0.0058059795 0.0072956905
000140 b6 79 a0 3d c4 0f 1b bc b4 ec 92 3c c4 cf fa bc
       0.078357145 -0.009464208 0.017935134 -0.030616648
000150 39 1f f1 3d d7 c7 63 3d bc b6 e9 bd 0a 1a e4 bb
       0.117735334 0.055610504 -0.11411807 -0.006961112
000160 93 36 2a 3c 94 95 09 bd 0f a0 98 bd c9 d0 cb 3d
       0.010388988 -0.033589914 -0.07452404 0.09951932
000170 16 c8 03 bb c1 4f d0 bd b1 17 28 3d d8 df bf 3c
       -0.0020108274 -0.10171462 0.04103822 0.023422167
000180 16 dc 90 bd 10 fa bb 3d 27 21 d5 bd 8e 4a f3 3d
       -0.07073228 0.09178555 -0.10406714 0.118794546
000190 9e 9d 66 3d 55 b9 a2 bc bb 52 e1 3c 52 3a e3 3d
       0.05630266 -0.019863764 0.02750527 0.11095108
0001a0 16 5a f1 bd e0 23 d3 3d f9 c3 d0 3d f7 59 27 bd
       -0.11784761 0.10309577 0.10193629 -0.04085728
0001b0 64 5a dc bd 2f 66 93 3d 13 27 6d bd b9 d1 dd bd
       -0.10759428 0.07197224 -0.057898592 -0.10831017
0001c0 8b 67 c9 3d f1 5c 63 3d 59 22 cb 3d 8e 94 e5 bd
       0.098342024 0.055508558 0.09918661 -0.11209975
0001d0 16 70 d4 bd d3 6f 23 3d 4e b0 e8 3d e4 f8 d4 bc
       -0.10372941 0.039901566 0.113617525 -0.025997587
0001e0 8c 5e 88 bd 32 64 c4 bd 31 9a 5c 3c c9 6f 85 bc
       -0.066586584 -0.09589423 0.0134644965 -0.016288655
0001f0 3e 31 99 3d b3 eb 22 bd 11 8f b8 3d 76 16 72 bc
       0.07480095 -0.03977556 0.09011663 -0.014775863
000200 bb 1a 29 3d fd ff 38 bd d8 74 54 bd 72 a9 c1 3c
       0.041285258 -0.045166004 -0.051869243 0.023640368
000210 e6 57 c9 bd 8c b6 37 3d 7e 7c d5 bd cd 70 6b bd
       -0.098312184 0.044851825 -0.104241356 -0.057480622
000220 10 86 46 bd 08 df b6 bd 5a 39 21 bd e0 c8 f6 3d
       -0.048467696 -0.089292586 -0.039361335 0.120500326
000230 97 8b 20 3c 95 e2 33 bd 6a 21 9e 3d 87 93 e5 3d
       0.009798906 -0.043917257 0.07721217 0.11209779
000240 7b 55 87 3d c8 2a e7 3c e8 52 92 bd a7 f2 19 bc
       0.06608101 0.028218642 -0.07144719 -0.009396232
000250 01 92 f6 3d 3f 5c ea 3d 08 ff a3 3c 37 33 e7 bd
       0.12039567 0.11443376 0.02001907 -0.11289065
000260 ca f2 3e bd e8 a5 a6 bc 74 95 44 3d cc f6 f0 bd
       -0.04661826 -0.020342782 0.047994092 -0.11765823
000270 d6 9c 73 3d 5b 04 f2 bd 4b 77 00 bd f7 56 97 3d
       0.059475742 -0.11817237 -0.031363767 0.07389634
000280 b6 cd f0 3d 3e 9f f8 3b 9b 9a 7c 3d 65 c9 86 bd
       0.11757986 0.0075873425 0.06167088 -0.06581382
000290 bd 10 94 3d 50 ff 68 3d ad 37 ee 3d 7d 3a 91 bd
       0.07229755 0.05688411 0.11631713 -0.07091234
0002a0 20 ac e2 3d a9 0a 64 3d a6 b4 d1 3a 97 2a c8 3d
       0.110679865 0.05567423 0.0015999272 0.09773748
0002b0 61 45 72 bd 9e 72 38 bd ea 2e 38 bc 80 2e a9 bd
       -0.059148196 -0.045031182 -0.011241654 -0.08260822
0002c0 8c 3c ea bd 9b cd ce 3d aa 01 8e 3d 06 68 f0 3d
       -0.1143733 0.1009781 0.06933911 0.11738591
0002d0 a8 94 14 ba e8 d1 c6 3d e8 b1 8f 3d 30 09 58 bd
       -0.00056679035 0.09708005 0.07016355 -0.052743137
0002e0 fe b1 cd bd aa f4 41 bd 0f 0a bc 3d a6 e1 f5 3d
       -0.10043715 -0.04735247 0.09181606 0.1200593
0002f0 2e 66 35 3d 02 53 2b 3d 92 72 b3 3c bc a5 63 bb
       0.0442869 0.04182721 0.021905217 -0.0034736237
000300 88 0a ad bd 1f 90 96 bc 4c 74 d2 bd ef dd 18 bd
       -0.08449274 -0.01837927 -0.10276088 -0.037321027
000310 9f 14 ae bd 73 5d c6 bd f6 27 16 3d 0e c1 ef bd
       -0.08500027 -0.09685793 0.036659203 -0.11706744
000320 47 89 e7 3d 88 a5 3e bd 3f 9f 96 3c 93 36 17 3d
       0.113054805 -0.04654458 0.018386481 0.03691728
000330 da a5 16 bd e0 58 9e 3d b5 39 8c bd ef 04 e2 3d
       -0.036779262 0.07731795 -0.06846944 0.11036097
000340 f7 f3 e9 bd c1 46 b5 bd 6c ee 11 3d 9c 81 ca bc
       -0.11423486 -0.08851386 0.035627767 -0.024720006
000350 b8 b9 a8 bd 22 90 95 bb 10 a3 a6 bc 00 43 9e bc
       -0.08238548 -0.004564301 -0.020341426 -0.019319057
000360 55 8a 89 3c fa 82 95 3d 34 f1 e3 bd 0a 7b 0a 3c
       0.016789595 0.073003724 -0.1112999 0.008452186
000370 39 fe 9d 3d 15 18 4d bd 07 d3 73 bd 4f a6 1e 3c
       0.07714505 -0.050071795 -0.059527423 0.009683206
000380 5e 2c bd bd c3 5d 53 bd cb 72 e4 bd c7 82 d6 3c
       -0.09236978 -0.05160309 -0.111547075 0.026185406
000390 fa ea d9 3d 10 50 a4 bd ca 2a 59 bd f5 f8 a5 bd
       0.10640521 -0.08023083 -0.053019322 -0.081041254
0003a0 98 b2 be bc c1 4e 12 3d 8d b2 34 bc 94 e6 1f bd
       -0.02327852 0.035719637 -0.011028898 -0.039038256
0003b0 62 9c 01 bc 65 14 cb bd a1 20 ea 3d b2 fd f2 3d
       -0.00791082 -0.09915999 0.11432005 0.11864795
0003c0 3b d4 08 3d 13 5a a8 3b e8 17 98 3c 5c 4c e4 bc
       0.033405524 0.005137691 0.018566087 -0.027868442
0003d0 45 73 27 bd 08 b7 99 bd 90 16 ff bc 75 bc 72 bd
       -0.040881414 -0.075056136 -0.031138688 -0.059261758
0003e0 68 5d ce 3d cf d0 e4 3d a1 bc e3 3d cf 52 20 3c
       0.100764096 0.111726396 0.111199625 0.009785368
0003f0 0b 6e 8a bd 0e 21 69 bd 06 b4 f1 bc 40 6e 4b 3d
       -0.0675927 -0.05691629 -0.029504787 0.04966569

rnn_layer.bias_ih_l0 f4 [64]
000000 46 9a aa 3d 4c 5a 95 bc 16 76 be bd 33 78 1c bc
       0.083302066 -0.018231533 -0.09299867 -0.009550142
000010 81 c8 5a 3d 1d cc 3a bc 26 83 a9 bd 91 6b f6 bd
       0.05341387 -0.011401203 -0.08276968 -0.120322354
000020 75 dd 5c bd c6 57 02 3e 68 1c e9 bd ce 92 7e bd
       -0.053922135 0.12728795 -0.11382371 -0.062151723
000030 cf 37 74 3d 15 41 57 ba 6e ca 02 bd 72 66 bb bd
       0.059623536 -0.0008211297 -0.031931333 -0.09150399
000040 7b da ef 3c 5d 90 40 bd 6d 1c 22 bd ab 8e dd bd
       0.029278984 -0.047012676 -0.03957789 -0.108182274
000050 67 ff c9 bc 9e 5e 0c 3d 7f 66 af bd 86 07 89 bd
       -0.024657918 0.03426992 -0.085644715 -0.06690888
000060 32 fc 7a bd cd c5 95 bd e2 2f 7a bc 4a 87 46 3a
       -0.06127567 -0.07313118 -0.015270205 0.000757326
000070 e6 87 c6 3d 2a a5 a7 bd 1d 43 f9 3d 57 26 eb 3d
       0.09693889 -0.081857994 0.12171004 0.11481922
000080 81 8f e4 3d b2 61 0a bd 89 5b 87 bd 31 4d 57 3d
       0.11160184 -0.033784576 -0.06609256 0.05256385
000090 14 55 f4 bd 2c 37 e2 bd cc 0a 69 bd 44 c4 9c 3c
       -0.1193029 -0.110456795 -0.056895062 0.019136555
0000a0 96 54 ea 3d fc 19 f2 bc 0e fd 89 bd d8 f1 98 bd
       0.11441915 -0.029553406 -0.067377195 -0.07468003
0000b0 d3 a6 41 ba d5 0a 55 3d 58 57 9b bd 14 f5 e7 bd
       -0.00073872245 0.052012283 -0.07585019 -0.11326042
0000c0 3b c3 bb 3a 1e e8 6f 3d e6 21 88 bd 27 31 d0 3d
       0.0014325151 0.058570974 -0.066470906 0.10165625
0000d0 fc a1 b5 3d d3 67 e8 3d 58 69 b9 3d 8a 86 b7 bd
       0.08868787 0.11347928 0.09053296 -0.08961208
0000e0 3a b6 cf 3d c9 ac 8b 3c a6 a1 10 bd 87 c9 a1 3d
       0.10142179 0.017050164 -0.03531041 0.078997664
0000f0 16 80 30 3b f7 d0 f8 3d 51 43 ce bd cb b3 c4 bc
       0.0026931814 0.12149232 -0.10071433 -0.024011513

rnn_layer.bias_hh_l0 f4 [64]
000000 72 1c fb 3c 7c 7c d2 3d 36 26 e0 bd b5 5e ad 3d
       0.030653212 0.1027765 -0.10944788 0.084653296
000010 08 f2 99 bb 2c b6 af 3d 98 44 f4 bd e5 f1 9e 3d
       -0.004698042 0.085796684 -0.11927146 0.077609815
000020 05 80 65 bd 93 b4 fb 3d d6 01 31 bd 96 ee 47 3d
       -0.056030292 0.12290301 -0.04321464 0.048811518
000030 4d 55 17 bd 39 bf 98 bc ac 9d 50 3d 8c 22 c7 bd
       -0.036946584 -0.01864587 0.050931618 -0.09723386
000040 91 ec 65 bd 29 5b 17 bd 77 d4 3f 3d 7b e8 9e bd
       -0.05613381 -0.03695217 0.04683348 -0.07759186
000050 2e 22 8c 3d 64 d9 87 bc dd c8 76 3c 3c 41 cc bd
       0.06842457 -0.016583152 0.015062538 -0.0997338
000060 7d 6f 33 bd 15 0f 88 3c 5b d7 c4 3b 2c 90 84 3c
       -0.043807495 0.016608754 0.0060071177 0.016182028
000070 6a d2 5c 3d 40 d5 c2 3d d3 a2 81 bd b5 87 96 bd
       0.053911604 0.095133305 -0.063298844 -0.07350103
000080 6c 4b 78 39 c8 64 cd bd 8b 9f bf bd c7 55 94 bd
       0.0002367922 -0.10028988 -0.09356602 -0.07242923
000090 8c 07 e0 3d 7a 61 09 bd 79 9e 8d 3c 37 e2 d0 bd
       0.109389395 -0.033540227 0.01728748 -0.10199397
0000a0 00 00 ee bd c7 7b ac 3d 53 ba d5 3d 2b 93 96 bc
       -0.11621094 0.08422046 0.10435929 -0.018380722
0000b0 a9 3b ff b9 d8 3e ce 3d a2 07 71 bd ee 8f 2d 3d
       -0.0004868184 0.1007058 -0.05884517 0.04237359
0000c0 3e cd 9e bd 7a 20 49 3d 70 fb cf bd 97 10 00 3e
       -0.077539906 0.049103238 -0.1015538 0.12506329
0000d0 4d 37 03 bd 3f 46 ba 3d 2c b3 61 3c 14 4e f5 bd
       -0.03203516 0.0909543 0.013775628 -0.11977783
0000e0 65 d9 51 bd 9b 29 ad 3d da bf 10 3d d0 84 11 3d
       -0.051232714 0.08455201 0.035339214 0.03552705
0000f0 a0 b9 12 3d 71 d9 74 3d ea ce ab 3c 2d f8 50 bd
       0.035821557 0.05977768 0.020972688 -0.05101793

fc.weight f4 [3, 64]
000000 b3 51 db bd 19 a2 8d bd fe 8f f0 bc 30 b6 fd bc
       -0.10708942 -0.06915683 -0.029365536 -0.030970663
000010 96 79 21 bd 8b 76 c5 bd cf 6a fc 3b b5 ec 33 bd
       -0.039422594 -0.09641751 0.0077031623 -0.043926913
000020 94 dc 8c bd 87 9e fc 3d 6e 40 9c bd ea e8 aa bd
       -0.068780094 0.12334924 -0.076294765 -0.08345206
000030 82 d4 89 3d ed ca 9b bc d2 08 4e bd f0 d4 f1 3d
       0.06729986 -0.019017661 -0.05030138 0.11808193
000040 d0 bf c9 3d 66 e1 f4 bc e8 d6 0a bd a9 07 f0 3c
       0.098510385 -0.029892635 -0.033896357 0.029300528
000050 76 71 38 3d 34 c0 64 bd 92 f2 c8 bd 9b 55 7d 3d
       0.04503008 -0.05584736 -0.098118916 0.061849218
000060 90 db 84 3d f1 f0 bd bd 02 c6 88 3d b9 13 33 3d
       0.06487191 -0.092744716 0.06678392 0.04371998
000070 7f e6 fa 3d b0 d8 9e 3d 11 3d ba bd cf 33 da bc
       0.12250995 0.077561736 -0.09093679 -0.026636032
000080 f5 6c 1b 3d e0 3c b4 3d 2a 5f b3 3d 44 cf 04 bd
       0.037945706 0.088006735 0.087583855 -0.032424226
000090 fc b2 ad bd 18 65 61 bc 9a dd b1 bd b6 54 9f 3c
       -0.08481404 -0.013757013 -0.08684845 0.019449573
0000a0 82 07 bd 3d fb 41 ec bd cd cc f0 bd d9 55 cd bd
       0.092299476 -0.11536022 -0.11757813 -0.1002614
0000b0 06 30 cd 3d 78 12 4e bc 58 e6 58 bd 98 2b bc bc
       0.10018925 -0.0125776455 -0.052954048 -0.022970006
0000c0 a3 42 05 3d e9 c1 cb 3d a4 72 ef bd 26 86 8b 3d
       0.032534253 0.09949095 -0.11691788 0.06812696
0000d0 6e c0 e0 3c 37 13 2b bd 5d e2 63 3d 11 20 a3 3d
       0.027435508 -0.04176637 0.0556358 0.079651006
0000e0 67 61 e2 bd ab 43 9b 3d 40 c8 c7 bd 6f 58 fd 3c
       -0.11053734 0.07581266 -0.097549915 0.030925957
0000f0 3e 5b 22 3d 86 c5 83 3c f4 f7 55 3d 8a 61 e2 3c
       0.039637797 0.016085397 0.05223842 0.0276344
000100 99 81 bd bd 37 32 eb 3d 16 9d 2d 3d f4 56 96 3d
       -0.092532344 0.11484187 0.042386137 0.07340804
000110 14 4c f9 3c 0e 41 91 3d e6 3c 18 3d fd 02 3d 3d
       0.030431785 0.07092486 0.037167452 0.046145428
000120 86 5b ca bd a4 ee 92 bb 77 9f 86 bd 5e 41 b1 bc
       -0.09880738 -0.0044840146 -0.06573384 -0.021637615
000130 27 d6 7c 3d e7 36 e3 bd a5 62 30 bd 64 56 f4 3d
       0.06172767 -0.11094456 -0.043062825 0.1193054
000140 0b 26 be bd 8c cb d0 3c 4b 39 83 ba fa 32 1b 3d
       -0.092846 0.025487684 -0.0010011581 0.037890412
000150 f8 fe 3b 3c f6 e7 c8 bc ca 04 4e bd d0 03 04 bd
       0.0114743635 -0.02452467 -0.050297536 -0.0322302
000160 44 06 1e bb e4 3c 88 3d 49 43 0a 3d ff 44 db bd
       -0.0024112621 0.06652239 0.033755574 -0.10706519
000170 21 a7 99 bd 40 b1 24 3d d4 58 1c 3d 89 1a 87 bd
       -0.075025804 0.0402081 0.03817065 -0.06596858
000180 d4 e0 b7 bc 19 55 6d bd 86 89 d8 3b 03 85 e9 bc
       -0.022446074 -0.057942484 0.006608191 -0.028505808
000190 fa 8b 2d bd 47 12 83 bd 38 02 95 3d 8f 7d 88 3d
       -0.04236982 -0.063999705 0.07275814 0.066645734
0001a0 d8 d0 19 3c ba 41 de bd ef b5 a8 bd 88 15 2c 3d
       0.009388171 -0.1085238 -0.08237826 0.04201272
0001b0 26 33 a4 3b f7 5d a0 bd 61 85 0d 3d d3 12 9a 3d
       0.00501098 -0.07830422 0.03455103 0.07523122
0001c0 c0 ee 80 3d 76 1d e4 bb 19 20 e8 3c 5e e9 0d 3c
       0.06295538 -0.00696152 0.028335618 0.008661596
0001d0 30 53 9d 3c 0f a8 a1 bc 2a 17 ba bc 4d 9b a6 3d
       0.019204706 -0.019733457 -0.022716124 0.0813509
0001e0 b6 11 eb bd 9d 49 49 bd cc 73 a2 bd 4d db f5 3c
       -0.114779875 -0.04914247 -0.07932243 0.030011797
0001f0 16 d7 d8 bd 9c f4 c5 3b f3 09 83 3d 63 2c 7a bd
       -0.105878994 0.0060411226 0.06398382 -0.061077487
000200 cd e6 51 bd 85 e5 aa bd 39 ab cc bd 10 91 f1 3d
       -0.0512455 -0.083445586 -0.09993596 0.117952466
000210 73 06 1a 3d 69 d8 e7 3d 07 64 e4 bd f5 09 5f bd
       0.037603807 0.11320574 -0.11151891 -0.054452855
000220 53 41 fd bc 78 1c b1 bd 1d a3 bf bd c8 80 44 bd
       -0.030914938 -0.08648008 -0.09357283 -0.047974378
000230 86 e4 8c 3d 4c 19 fe 3d aa e1 b3 3c 94 f1 cd bd
       0.06879525 0.12407169 0.021958191 -0.10055843
000240 f6 4b 1f 3d 49 16 9c bd 68 54 31 bd a0 c8 b6 3c
       0.0388908 -0.07621438 -0.043293387 0.022312462
000250 56 1b 5a bd 7a 36 b1 3b 5a 6d 8f 3c 57 ed b1 bc
       -0.053248726 0.0054081054 0.017508198 -0.021719618
000260 08 ff 59 bd c8 1e 25 bd 98 18 ad bd 57 95 32 bd
       -0.053221732 -0.04031256 -0.084519565 -0.043599453
000270 cc bb b0 bd ac 21 40 bd 54 da 02 3d dd a5 ed bd
       -0.086295694 -0.046907112 0.031946495 -0.116039015
000280 b0 13 cf 3d 86 45 d4 3d 94 cb a0 bd a8 2a 0d 3d
       0.10111177 0.10364823 -0.078513294 0.03446451
000290 71 76 05 bd 55 ad de 3d a7 2b d7 3c 94 28 10 3d
       -0.032583658 0.10872904 0.026265932 0.03519495
0002a0 7f 5f 86 3d 1d 14 a8 bc ef 37 91 3d e2 b3 dc bc
       0.06561183 -0.020517403 0.070907466 -0.026941244
0002b0 9c 68 c6 3d 3e 28 94 bc a9 f1 fd 3c e1 4c a0 bd
       0.096879214 -0.018085595 0.030999022 -0.078271635
0002c0 52 fc ba 3d 18 b9 07 bd f8 bb c3 bd d9 d5 77 bd
       0.091301575 -0.033135504 -0.095573366 -0.060506675
0002d0 98 49 37 3d 18 c5 72 3d d7 92 49 bd d1 f9 2a 3d
       0.04474792 0.059269994 -0.049212303 0.04174215
0002e0 10 b3 71 3d 3b f6 e6 3d 31 41 44 3d 69 02 9b 3d
       0.059008658 0.112774335 0.047913734 0.07568819
0002f0 a8 89 ba 3d 71 e9 7d bd a6 c8 ed bc d5 c9 3a 3d
       0.09108287 -0.061990205 -0.02902634 0.04560264

fc.bias f4 [3]
000000 b0 3c 8c bd 13 f7 80 3d 36 ae cb bd
       -0.06847513 0.06297126 -0.099453375
