rnn.pt (torch, 23077 bytes, 6 tensors)

rnn_layer.weight_ih_l0 f4 [64, 12]
00000000: d42b c43c 2559 9d3d 4a42 07bd 1013 e03d
00000010: 5834 33bd 5a0f 09bc c734 8d3d 048c b1bd
00000020: 7d3a 10bd 5c75 8f3d f86c 24bd 954a 6e3d
00000030: ef9e 423d 3f15 473d bb03 8d3a 5c82 f0bc
00000040: 238d 32bd fd76 6d3d 5601 7ebd d667 08be
00000050: 9d69 09bd ed8f ebbd 0a34 b3bd abb7 7b3d
00000060: b824 9bbd e474 87ba d727 273d 59f5 c53d
00000070: 02f5 cdbd 41a4 9fbd 705b 6d3d 3042 f43c
00000080: 6a88 1e3d c310 bc3d ed0c 033d 2373 ef3c
00000090: 2f4a 98bd 996a 98bd 1f24 f23b ee84 c43d
000000a0: 38d9 963d 9ca9 7bbd 8a5f e33d 7010 a13d
000000b0: 8bf2 a03d 2ab9 ac3d 25aa 9cbc a413 b23c
000000c0: 9c70 503d e487 7fbd f9f7 e0bc 4428 8ebd
000000d0: 8bec 883d 5cf6 cdbd 8fef a2bd 7cab a23d
000000e0: 27e4 943d d0dc 99bd b190 d23d 8c0e a93d
000000f0: 6fe1 8ebd 1e60 ffbc 9672 0b3d 1fc5 c8bd
00000100: 5c3e b0bd c196 4abc 1602 91bd a806 03bd
00000110: ba9f 043d 344d 7a3d e1a5 1b3d 8c53 f7bd
00000120: e685 88bd 5c94 acbd 40a9 c6bd ea6e b2bd
00000130: a356 fc3d e994 b33c 8158 163d fab0 c9bd
00000140: c12d a13d d106 d93c 3bac c23a f634 b4bd
00000150: 8dfe 9fbc 852f a9bd efb2 f63d f2d5 2d3d
00000160: 067a 71bd 2226 bdbc caec 5f3d 82a9 ba3c
00000170: 957b 1ebc 5e84 2fbb 391f 05bd e0e2 44bd
00000180: 58d4 de3d eeba f43d d5c5 a3bc a783 6ebd
00000190: d161 e1bd d17e 86bd 3c6c 983d 9543 b63d
000001a0: 3514 553d 4c1a b6bc 3b71 9ebc 86c4 723c
000001b0: 802e b0bd 038c ebbd 95e5 de3d b15e 57bd
000001c0: fc97 543d 5350 e1bd 6059 863d b11e 953d
000001d0: 07c0 1a3c 53d4 de3c ebc9 763a 6de5 993c
000001e0: f7c4 00be 2770 09bc 28cc fd3d 6022 95bd
000001f0: 5707 913d b195 83bd a521 09be 45c7 05bd
00000200: e460 0e3d 5dd4 d6bd d340 a03d a9a6 3ebd
00000210: 568d ccbd ee0e d3bd beae d5bd 5a7b 943d
00000220: 97f2 af3b 9252 a33d bff9 a9bd 9a74 143c
00000230: 4940 cabb 65cc 2ebd 4696 b03d d6d6 df3d
00000240: 5f38 453d 0147 dc3d 6440 2abd 3f11 9cbd
00000250: 223c 083d 9014 453d ba4d 52bd 47de 923d
00000260: 97fb 37bd 4be0 dabd d05c c6bc 1c4b f0bd
00000270: af4e d4bd c5c5 2bbd 9a1b 1dbd ad0a e33d
00000280: fd18 84bd a2c9 ab3c a3f6 c5bc 54b0 ac3c
00000290: 13d1 1dba 2dcc cbbd eb37 94bd 3603 e8bd
000002a0: bac4 ab3d d9aa f4bd 2e20 e0bd edc5 d7bd
000002b0: 1aaf 9b3d d565 b53d aef3 a73d f384 9bbc
000002c0: 4f77 dc3d a733 d1bd 3ad8 003d 5216 673d
000002d0: fd10 9dbd 8a7a 3c3d c102 41bd b7e0 f43c
000002e0: 0034 1f3d 27ec 9dbd f577 1d3d 61d3 81bd
000002f0: 908e 99bd 459b d7bd 8854 71bd 9cd4 413a
00000300: 93c1 3bbd 1d42 3abd 9b80 bd3c 22b5 a43c
00000310: dc76 cc3c 690a ab3d 4cec 0f3b 8118 1a3e
00000320: 52fa 933d a0d1 06bb 7f26 4d3d 6884 ee3b
00000330: 7add fd3d 7f9f cd3c 1168 d43d dc67 dfbd
00000340: c4ec c83d 5fe6 79bd e92e 273d c8c9 aabd
00000350: 4bf0 f7bd 3e9f afbc a8b9 e1bd ece4 cabd
00000360: 327d 0ebb d1ef 0ebd b2b1 f33d 5eaf dcbd
00000370: 431f f53d 59eb 9fbd 2234 243c 1d42 543c
00000380: e5e1 5a3d 1225 45bc 5afc 80bd 956b d5bd
00000390: 0a7a b7bd c590 6abc b06b 89bd ecf6 b4bd
000003a0: f878 fbbc 22f5 b0bd 162e f93b e550 5a3d
000003b0: d84b 49bd 1c4c 8b3d 0fcc 00be 604b 9e3c
000003c0: f7a0 be3d 1b42 b83d 1276 f43c ed80 e3bd
000003d0: 6d4f d73b 6da9 c33d b4a5 f5bd 51f7 b33d
000003e0: df50 c23d c117 ca3d 7b35 57bd 73d1 493c
000003f0: e49d 87bd d8d8 eb3d 3f16 8ebd 2a18 023d
0.02394668 0.076830186 -0.033022203 0.10941136 -0.04375109 -0.0083654765 0.06894832 -0.08669284
-0.03521203 0.070048064 -0.040142983 0.058176596 0.047514852 0.048604246 0.0010758558 -0.029359035
-0.04359163 0.057974804 -0.062012993 -0.1332086 -0.033547986 -0.11502061 -0.0875016 0.061454456
-0.07575363 -0.0010334519 0.04080948 0.09665937 -0.10056497 -0.07795001 0.05794853 0.029816717
0.038704313 0.091828845 0.03199475 0.029229706 -0.074360244 -0.07442207 0.00738956 0.09595667
0.0736565 -0.06144105 0.11102207 0.07864463 0.078587614 0.08433755 -0.0191241 0.021737881
0.050888643 -0.062385455 -0.027461993 -0.06941274 0.06685742 -0.10056755 -0.079558484 0.07942864
0.07270079 -0.0751282 0.10281504 0.08254728 -0.06976592 -0.031173762 0.034044825 -0.09803223
-0.08605644 -0.012365044 -0.07080476 -0.03198877 0.03237889 0.061108783 0.03799999 -0.12076482
-0.06666164 -0.08426735 -0.097002506 -0.087125614 0.12321212 0.021921592 0.036705498 -0.09848209
0.07870055 0.026492508 0.0014852354 -0.08799164 -0.019530559 -0.08261017 0.120458476 0.042440362
-0.05895426 -0.023089472 0.05466918 0.022785906 -0.009673019 -0.0026781778 -0.03250048 -0.048067927
0.10880345 0.119497165 -0.019991795 -0.058231022 -0.11004985 -0.06567157 0.07442519 0.08899609
0.052021224 -0.022229336 -0.019341102 0.014817363 -0.08602619 -0.115013145 0.10883633 -0.05258054
0.051902756 -0.11001649 0.06560016 0.072812445 0.009445197 0.027200853 0.00094142434 0.018786157
-0.12575136 -0.008388556 0.12392455 -0.07281947 0.07081478 -0.06425036 -0.1339174 -0.03266074
0.03476037 -0.10489724 0.07824864 -0.04654566 -0.09987895 -0.10305582 -0.1043372 0.0725009
0.005369495 0.079747334 -0.082995884 0.009061003 -0.006172214 -0.042675395 0.086224124 0.109296486
0.048149463 0.107557304 -0.041565314 -0.07620477 0.033260472 0.048115313 -0.051343657 0.07171302
-0.04491767 -0.10687312 -0.024214178 -0.11733076 -0.1036657 -0.041936655 -0.0383564 0.110860206
-0.06450079 0.02097017 -0.024165457 0.021080174 -0.0006020229 -0.09951053 -0.07237228 -0.113287374
0.08387132 -0.11946649 -0.10943638 -0.10535798 0.07601757 0.088573135 0.08200775 -0.018984294
0.10764944 -0.1021493 0.03145621 0.05641777 -0.07669256 0.0460153 -0.047121767 0.029892309
0.03886795 -0.07711058 0.038444478 -0.063391455 -0.07497895 -0.10527662 -0.058918506 0.0007394047
-0.045838904 -0.045473207 0.023132613 0.020105902 0.02495902 0.08351595 0.0021960912 0.1504841
0.07225479 -0.0020571724 0.05008554 0.0072789676 0.12395759 0.025100468 0.103714116 -0.109084815
0.098107845 -0.061010715 0.04081622 -0.08339268 -0.12106379 -0.021438237 -0.11021739 -0.09906945
-0.0021742103 -0.034896675 0.11899127 -0.10775636 0.11968853 -0.07808561 0.010022195 0.012955216
0.053438086 -0.012032764 -0.06298132 -0.1042091 -0.08958824 -0.014316742 -0.06709993 -0.08836159
-0.03069733 -0.086405054 0.007604371 0.053299803 -0.049144596 0.06801626 -0.12577842 0.019323051
0.09308045 0.089969836 0.029841457 -0.11108575 0.0065707476 0.095538 -0.11994496 0.08787406
0.09488081 0.09867812 -0.052541237 0.012318003 -0.06621912 0.11515969 -0.06937837 0.031761326

rnn_layer.weight_hh_l0 f4 [64, 64]
00000000: 0c81 d13d 4cd5 2f3d 592b 213b 35e2 b3bd
00000010: 10b1 16bd a40b f6bd adf8 d1bd ea56 f5bd
00000020: 80db 063d 7e5d 3abd c75e 303d 3762 913d
00000030: 82cd eb3d 5ad9 273c 97c5 b33d 5d23 84bd
00000040: 63a9 28bd 18b9 93bd 8fac 6cbd 89bc cd3d
00000050: 466f 783d aa93 a5bd 49df 87bd 427e e03c
00000060: f6a6 ce3d 0352 a2bd e800 f7bd d049 6ebc
00000070: bfb9 0b3d 6b0e df3d 9840 fcbd 441d cbbc
00000080: 0ee2 ebbc 4471 d1bd bb9f b7bc ef0a 633d
00000090: 27a7 52bc f934 aabd 79b4 2e3d 536f d13d
000000a0: 2874 46bd 29df c0bd a992 d6bd 4b60 e03d
000000b0: f740 d3bd 7b7d 02be 8b8a 9f3c f40f ba3d
000000c0: 494b d23d 5579 ecbd 41ce 273d b730 8ebc
000000d0: b07d 29ba b463 3bbd b7ed 9ebd 31a3 d1bc
000000e0: 6959 aa3c 4d94 e63d d1a4 ccbd e421 c73d
000000f0: 0764 eabc 4f16 eb3c ca36 713d 0915 d1bd
00000100: 9bf9 353d 926e 0d3d 9c1c 9abc 4275 bebd
00000110: f4c3 b53d c3f1 ed3d 7531 f2bd 1fc4 e5ba
00000120: 8fa8 933d 2736 1abd 0269 1abd 9b08 d13d
00000130: f3dc 343c 7856 353c b863 f93d 6b1f c43d
00000140: 2c42 96bd 266a e2bd f919 9e3d f2d1 bfbd
00000150: 7167 e73d 8722 063b 0a0a e73d 67f5 d93d
00000160: 6ff3 c3bd 068b ed3d 4121 a83d 36f8 d4bd
00000170: 8ae9 acbd 5a75 453d c12c 713d b459 683c
00000180: bd53 12bd 8d5a ccb9 2c80 003e 428e 7f3d
00000190: 4d32 80bd f61f cabd 7d25 ea3d da62 a1bd
000001a0: 1a80 1c3d 8b8a 4fbd 7921 ee3d 872b ba3d
000001b0: 50eb 88bd 4a26 193d 27a4 f23d dcd3 a1bb
000001c0: 88b6 b43d bf60 cfbd 6d25 c33d 2471 103d
000001d0: ab7f 9cbd 507a eb3d cb53 063d 5312 d4bd
000001e0: 6ec1 c63d 5a46 84bd af5d d9bd 6949 853d
000001f0: 40cf 6fbc 2118 bebd 9314 e13d 2450 66bd
00000200: 5101 9bbc 1358 9d3d e5e3 9fbd 8292 aa3d
00000210: 9c6c 91bd d794 89bb 549d 9a3b 0ae4 5a3d
00000220: 41f3 9abb c8d7 ac3d d396 da3d 04f7 0dbc
00000230: 854b aa3d ef06 873c 97e6 6ebc e4d8 d7bd
00000240: 923d 453d 9c50 a93c 70b6 d9bb 5925 c33d
00000250: fc8c 553d 1daa 483d a97b 9f3d 6573 9abd
00000260: fc6f 94bd 38b4 90bd d82f f0bc f3be e0bc
00000270: 6387 4dbc 136f 97bc 83fb b1bd 2034 85bd
00000280: 223c eebd fc23 e2bc e1c3 193d 6f70 d0bc
00000290: 0fc5 8cbc 0b78 b0bb a72d 80ba c60c cbbd
000002a0: 99b0 b1bd 57c5 003b 6479 973c 2455 68bd
000002b0: 47b2 c73d 0087 aabc 9a97 01be 130e b1bd
000002c0: a9da c0bc 5862 b9bd a6df 753d 50a5 c83d
000002d0: fedf f2bc 3ae2 c3bc edc0 9cbd 6fe7 22bc
000002e0: ba01 c3bd eda0 cdbd 8caf dbbd 6cd0 7cbd
000002f0: e7ae 0c3c 1683 653d 3d19 883d 5112 46bd
00000300: f3d6 5c3d 2536 8fbd e582 c23c 1b4a abbc
00000310: 1496 6fbc 22e8 fcbc 8e14 cabd 06fc cc3d
00000320: d9d7 c83b 5052 17bd f8e7 1c3d 9ded d8bc
00000330: 691a b3bd 3084 89bc 3254 cf3d cb63 a73d
00000340: 5652 103d 35f5 a73d 82fb 353d 5631 b0bd
00000350: 5401 9d3b 09d7 99bd 650a 6ebd 5005 ed3d
00000360: 84f6 a7bd 933a 4d3d 551c 95bd b40c 603b
00000370: bc20 d9bd d0ea eb3d 936e 87bd 4fbb 973d
00000380: 8af8 c5bd a7f9 d73d 006d 2dbd 9688 c5bd
00000390: 3f98 0a3d a270 e93c 4643 cdbc 3e62 ca3c
000003a0: 9516 f5bd 8ff7 de3c b283 ea3d 7cff 363d
000003b0: b619 7abd e752 e33d 900a 0cbd ddb8 323d
000003c0: 9d9a 783d 9e36 8d3c 0bfd 53bd 9304 e83d
000003d0: 9acd b4bd 1b1e cd3d 4228 12bd a7fc b83c
000003e0: 9092 823d 5e31 b3bd 10e2 e0bd a02f f23d
000003f0: 87e0 f13d a047 fb3c d01a 05bc ee1d de3c
0.10229692 0.042928025 0.0024592488 -0.0878338 -0.036789954 -0.12013939 -0.10252509 -0.11979468
0.032924175 -0.045499317 0.043059137 0.07098811 0.11513807 0.010244692 0.08777922 -0.064520575
-0.041177165 -0.07213038 -0.057781752 0.10045726 0.060652994 -0.08084805 -0.06634385 0.027403954
0.10090439 -0.07925799 -0.1206072 -0.014543965 0.03411269 0.10891422 -0.12317008 -0.024794228
-0.028794315 -0.10226682 -0.022415033 0.05543035 -0.012857235 -0.08310885 0.04265258 0.102263115
-0.04845062 -0.094175644 -0.10477192 0.109558664 -0.103151254 -0.1274318 0.019475242 0.09085074
0.10268266 -0.1154658 0.040968183 -0.017357213 -0.0006465567 -0.04574938 -0.07760184 -0.025590511
0.020794587 0.11258755 -0.09992374 0.09723261 -0.02861215 0.028697161 0.05889014 -0.1020909
0.044427495 0.034529276 -0.01881247 -0.09299709 0.08875266 0.11618378 -0.118258394 -0.0017529762
0.072098844 -0.0376493 -0.0376978 0.102067195 0.0110390065 0.011067979 0.12177223 0.09576305
-0.0733684 -0.110554025 0.07719798 -0.09366216 0.11299027 0.0020467357 0.11281212 0.1064251
-0.09567916 0.11598782 0.08209468 -0.10398905 -0.084429815 0.04820762 0.05888057 0.014181543
-0.03572439 -0.00038977378 0.12548894 0.062391527 -0.06259594 -0.09869377 0.114329316 -0.078801826
0.038208105 -0.050669234 0.11627478 0.090903334 -0.06685507 0.03739003 0.11847716 -0.0049385857
0.088238776 -0.10125875 0.09528623 0.03526415 -0.07641538 0.11497939 0.032794755 -0.103550576
0.097048625 -0.06458731 -0.10613572 0.065081425 -0.014636815 -0.09281946 0.10990252 -0.05622877
-0.018921526 0.076828144 -0.07807139 0.083287254 -0.07100794 -0.0041986513 0.004718462 0.05344013
-0.004728705 0.084395945 0.10673299 -0.00866485 0.083151855 0.016482798 -0.014581344 -0.105394155
0.04815442 0.02066832 -0.0066440627 0.09528608 0.052136406 0.048990358 0.07787258 -0.07541541
-0.07247922 -0.07065624 -0.029319689 -0.027434802 -0.012544486 -0.018485582 -0.0869055 -0.06504083
-0.11632563 -0.02760505 0.03754032 -0.025444238 -0.017183809 -0.005385404 -0.000977923 -0.09914546
-0.086762615 0.0019648874 0.0184905 -0.05672182 0.097508006 -0.020816326 -0.12655488 -0.086452626
-0.023541765 -0.09051961 0.06002774 0.09797156 -0.029647823 -0.023911584 -0.07653985 -0.009942873
-0.09521814 -0.1004046 -0.10726842 -0.061722204 0.008586622 0.056033216 0.06645439 -0.04835731
0.05391593 -0.06992749 0.023744056 -0.02090936 -0.014623184 -0.030872408 -0.09867202 0.10009007
0.0061292467 -0.036943734 0.03830716 -0.02648049 -0.08745272 -0.016786665 0.10123481 0.08173331
0.03523477 0.082010664 0.04442931 -0.0860316 0.004791418 -0.07511718 -0.05811538 0.11573279
-0.08201316 0.05010469 -0.072807945 0.003418726 -0.10601947 0.11519396 -0.06612887 0.07408773
-0.09666546 0.10545664 -0.04234028 -0.09645192 0.0338366 0.02849609 -0.025056493 0.024705049
-0.11967198 0.027217655 0.114509 0.044677243 -0.061059676 0.11099797 -0.03418976 0.04363333
0.060694326 0.017237958 -0.051754992 0.113289975 -0.08828278 0.10015508 -0.035682924 0.022581412
0.06375611 -0.087496504 -0.10980618 0.1182549 0.11810403 0.030673802 -0.008124068 0.027113881

rnn_layer.bias_ih_l0 f4 [64]
00000000: 3477 bfbd 2a6c 463d b4c3 8d3d 049a a6bb
00000010: e338 ad3d 2165 d83d f5aa a43d dd9b 893d
00000020: 49d4 cf3d daa0 003d 55fc 5dbd 65a2 503d
00000030: 5259 cfbd 3d19 f1bc cb27 b93d 66c0 f43a
00000040: 273c ec3c 3daa 9bbd bd65 b73d 4019 adbd
00000050: fa9d 2ebd f098 a3bd 44be 82bd 0e0e 42bd
00000060: 5443 33bd 1ebc aebd 5a4b 0bbd c4f5 b0bc
00000070: ff10 ca3d d546 94ba 7213 cfbd d519 68bd
00000080: 7696 9c3d b940 f2bd 8e9c a2bd 9441 0dbd
00000090: b7de cfbd 1941 ec3d 87f3 a23c 80d2 ecbd
000000a0: 102f fbbc 6691 eb3d aa2d 90bd 0a09 a5bd
000000b0: 4b6c ab3d ea8e 3f3d 320a 87bc 7cd1 00be
000000c0: df75 d8bc eaef 963c 4bfc 64bd 9440 3b3d
000000d0: c267 ca3d 952d 653d ea01 4dbd 060a 863d
000000e0: 1e25 ccbd 80df 5dbd c1e6 e03d 6d41 aa3d
000000f0: 14c0 ac3d cf37 443b 05b3 ad3d 49ea eebd
-0.09348908 0.048442997 0.06922093 -0.005084278 0.08458116 0.10566164 0.0804042 0.06719182
0.10147912 0.0314034 -0.05419572 0.05093612 -0.101244584 -0.02943098 0.09040793 0.0018673062
0.028837277 -0.0760083 0.08954952 -0.08452082 -0.042631127 -0.07988155 -0.063839465 -0.047376685
-0.04376538 -0.08531974 -0.034007408 -0.021601565 0.09866523 -0.0011312613 -0.10111131 -0.05666526
0.07645886 -0.11828751 -0.07940017 -0.03448637 -0.10149901 0.11535854 0.019891514 -0.11563587
-0.03066209 0.11502342 -0.0703996 -0.08058365 0.083702646 0.046767153 -0.016484354 -0.12579912
-0.026423393 0.018424947 -0.055904668 0.045715883 0.098830715 0.055951674 -0.050050654 0.065448806
-0.09968017 -0.054168224 0.10981513 0.0831326 0.084350735 0.002994049 0.08481411 -0.1166578

rnn_layer.bias_hh_l0 f4 [64]
00000000: 1bd2 6f3d 6662 a83d 2433 b7bd 311a ddbd
00000010: e311 febd d8a8 2a3d 1006 c5bd 662b 96bd
00000020: 66c8 5ebd 3189 8f3d eb4e 603d b6e4 b7bb
00000030: 024d b33d 0767 853d cf47 bb3d 3942 a6bd
00000040: 0856 b4bd 8b7f 9fbc 3344 fcbd a2c8 d1bd
00000050: 91c7 3abd aa6b 053d 4c45 b13d cfa8 8fbd
00000060: fb5b e93c 762e c7bd 8801 073d a0c2 943d
00000070: 33ee bcbd 88ae 663c b767 8dbd 5db1 16bd
00000080: aca3 e13c 9c26 8bbd c1d9 203d f7a5 9f3d
00000090: 95cd abbd 75ce b73d 06cf 38bd 8b5a 2a3d
000000a0: b03c bcbd 32ab e9bd 7cfa d43d 97ec 38bd
000000b0: 43b0 4cbd 0d48 89bd 86ed c839 e155 e63a
000000c0: 10f5 4bbd cc62 ec3c 146b 93bd e724 f0bc
000000d0: c3cc 493d 50ef ed3d 92fd ddbd ec69 fdbc
000000e0: 7a05 9bbc acda ea3c 02eb 01bd 7880 0f3d
000000f0: 1b68 4c3d 1232 383d 750d cc3d a9d8 98bd
0.05854998 0.08221893 -0.08945301 -0.10796011 -0.12405755 0.04166493 -0.09620297 -0.07332496
-0.054390334 0.07008589 0.054762762 -0.0056119813 0.087549224 0.065137915 0.09144556 -0.081181
-0.08805472 -0.019469997 -0.123176955 -0.10243346 -0.045600478 0.03257338 0.086557955 -0.070146196
0.028486243 -0.097256586 0.032960445 0.07263684 -0.092251204 0.014079697 -0.06904548 -0.03679024
0.027543865 -0.067944735 0.039270166 0.07795327 -0.08388821 0.089749254 -0.045119308 0.041590255
-0.09191263 -0.11409606 0.103993386 -0.045147505 -0.049972784 -0.06703196 0.0003832394 0.0017573201
-0.049794257 0.028855704 -0.07198158 -0.029314471 0.04926754 0.11617911 -0.1083938 -0.030934297
-0.01892351 0.028668724 -0.03171826 0.035034627 0.04990397 0.044969626 0.09963504 -0.074632

fc.weight f4 [3, 64]
00000000: 9549 dbbd 9de6 c53c 07ba abba 47d1 b23d
00000010: 8599 e7bb a407 523d 97be e33d a0b5 323d
00000020: 1046 dc3d 4c32 71bd 1eb7 ae3d 14c2 b83d
00000030: 2d3e c43c 3efa 8dbd 005e edbd 70f9 47bd
00000040: e3eb b0bd fba6 bcbd d8f6 d2bc 7de0 ca3d
00000050: ce00 c83d 76f8 803d 6c59 d63b fd4f 78bd
00000060: 3e03 49bc 7041 533d 22e4 813d 86aa 3339
00000070: 40c0 b93c b7e4 683d e4f3 a03d 0b6f bcbd
00000080: d117 ffbc 6986 983d b45c 6bbd 0c30 833d
00000090: 41fd 083c 7566 b9bb 2433 29bb 64bd 84bd
000000a0: 94a8 893d b2ed cfbb 299f 273d 52b9 79bd
000000b0: bf17 d8bd a9af 593d d308 a03c 0ca4 8fbd
000000c0: fc22 c4bd 8e49 513d 45e2 87bd 5102 f93d
000000d0: 531d c3bd 3bc3 05bd c691 fdbd 0525 af3d
000000e0: 70f8 01bd 8282 e7bd 3c78 16bc d84e 9bbd
000000f0: 232c b8bd 3819 003e 4c95 49bd 7d02 c33d
00000100: 0b03 cf3d 5cab 723d 7dbc 50bd 67d9 50bd
00000110: bc1e 013e f5eb a6bd ea42 cbbd 7125 96bd
00000120: c545 a5bd 345f 1cbd 9994 ba3d 91b9 23bc
00000130: 768a b53d b759 e13d d69c 9fbd f9fa 753c
00000140: e2e2 b9bd b714 e23d 85bf 00ba d359 b7bd
00000150: a265 963c da21 79bd 5365 0cbd 61d7 07bd
00000160: 66a4 c6bc 0529 c6bd 1a77 8d3d 8e91 9b3d
00000170: 3099 ccbc 9f1a 02bd f63a d93d afaa 593c
00000180: f75e 323d 56d6 babd 348d a8bd 32cc 823c
00000190: 12d3 b93d f296 4fbd 2ba3 ddbd 0fb6 0bbd
000001a0: 4a22 79bc dbae 43bd 0f39 ef3c abaa a83d
000001b0: fb4b a2bd 5e7d 293d 6c93 a2bd 3d1e 1d3d
000001c0: cc4d 873d 8063 813d 6bb0 10bd 80eb 96bd
000001d0: 48a9 6b3d 40b2 b8bd c960 b2bd 3d99 8c3d
000001e0: 23ef d43d a9cd 983c e84e a5bd e91a b0bd
000001f0: a7dd 91bd 7918 c9bd 1d6b 8ebd fcb1 dd3d
00000200: 0021 9d3c 06f8 a9bd 4f16 d2bd edc2 95bd
00000210: c3d2 a73c 7118 f0bd dbbe ce3b e1c3 87bc
00000220: e107 0b3d 583f d3bc 7caa e73d dce1 da3d
00000230: 565d d43d b35e 833d 4df5 2cbd 9acf e53d
00000240: acd0 13bc 4487 9abd 19e5 2fbd 43ec d03d
00000250: 6aa5 92bc 98f7 a4bd 0fd8 a8bc 680d fbbb
00000260: cdd3 f63c caad 93bd b7e7 2e3d bffb 01bd
00000270: 78e4 ed3c 2d54 d53d eab9 043d d562 47bc
00000280: 8541 363c 2717 ccbd 8f60 e13d 9787 0a3d
00000290: b04b 25bd f614 cfbd eecc 2bbc 86cf 853d
000002a0: d798 653d 69a5 d43d dcbc 5dbd b49d 8e3d
000002b0: 6ca5 053c 6390 acbd e969 b2bd 78c1 97bd
000002c0: 5f2f bc3b 4d31 b13d bcc8 f03d d341 e33d
000002d0: fbf2 473d ea95 903c 651a 2abd fe77 763d
000002e0: af6d 9e3c 2ad3 50bc f468 133d 97e9 cdbc
000002f0: 554c 5abd 04c0 8fbd f674 f03c 29e7 68bd
-0.10707394 0.024157817 -0.0013101705 0.08731323 -0.0070678615 0.051276818 0.111203365 0.043630242
0.10755551 -0.058885857 0.085310206 0.090213925 0.023955429 -0.069324955 -0.11590195 -0.048821867
-0.08638742 -0.092115365 -0.02575247 0.09906099 0.097657785 0.0629739 0.0065414216 -0.060623158
-0.012268839 0.051576078 0.06342341 0.00017134295 0.02267468 0.056858744 0.078590184 -0.09200867
-0.031139286 0.07447512 -0.057461455 0.064056486 0.008361162 -0.005657966 -0.0025817836 -0.06481436
0.06721607 -0.006345474 0.04092327 -0.06096775 -0.10551404 0.05314604 0.019535458 -0.07013711
-0.09576985 0.051095538 -0.06634954 0.12158645 -0.095270775 -0.03265689 -0.1238132 0.08551983
-0.03173107 -0.11304189 -0.00918394 -0.075833976 -0.089927934 0.1250962 -0.049214646 0.09521959
0.10108002 0.059245452 -0.050961006 -0.05098858 0.1260938 -0.08150474 -0.09924872 -0.0733136
-0.08069948 -0.03817673 0.09110374 -0.009992973 0.088643 0.1100344 -0.07793586 0.01501345
-0.090764776 0.11039107 -0.0004911351 -0.089526795 0.01835901 -0.0608233 -0.034276318 -0.033164386
-0.024248313 -0.096757926 0.069074824 0.07596122 -0.02497539 -0.03176367 0.10606949 0.013285323
0.043547597 -0.091229126 -0.08230057 0.015966509 0.090734616 -0.050681062 -0.108221374 -0.03410917
-0.015205929 -0.047774177 0.029202012 0.08235677 -0.079246484 0.041379325 -0.07938275 0.038358916
0.066066355 0.06317806 -0.035324495 -0.07369137 0.057534486 -0.090183735 -0.087098666 0.068651654
0.10397174 0.018652754 -0.08071691 -0.08598883 -0.07122355 -0.09819121 -0.06954024 0.108249635
0.019180775 -0.0829926 -0.10258161 -0.0731257 0.020486241 -0.11723412 0.006309373 -0.016572895
0.03394306 -0.02578704 0.11311814 0.106876105 0.10369365 0.06414547 -0.042226125 0.112212375
-0.009021919 -0.07545331 -0.042943094 0.10201313 -0.017901141 -0.08055037 -0.020610837 -0.0076615103
0.030130291 -0.07210882 0.04270145 -0.031734224 0.029039606 0.10416446 0.032403864 -0.0121695595
0.0111240195 -0.099653535 0.11004745 0.033820715 -0.040355384 -0.1011142 -0.010485871 0.065337226
0.056053963 0.10383112 -0.05413519 0.06963673 0.008157115 -0.08425977 -0.08711607 -0.07409948
0.0057429518 0.086519815 0.11757037 0.11096539 0.04881571 0.01764961 -0.041529078 0.060173027
0.01933941 -0.012745658 0.035988763 -0.025135798 -0.053295452 -0.07019046 0.029352646 -0.056861077

fc.bias f4 [3]
00000000: eef0 aabd bb51 233d 6e2b 45bd
-0.08346735 0.039872866 -0.04813712
