trainedModels/1619582580/rnn.pt (torch, 22538 bytes, 6 tensors)

rnn_layer.weight_ih_l0 f4 [64, 12]
0.13142054 -0.025716051 -0.013646451 0.06689576 -0.048648573 0.06125483 0.02634957 0.14633277
0.08288381 0.098358564 -0.022736026 -0.105014354 0.04809023 0.008768024 0.0014323372 0.096641205
-0.035418455 -0.071983255 0.031505022 -0.049239207 0.114562064 -0.041574597 -0.049732476 0.119459696
-0.030462112 0.0014432842 0.079275936 -0.015407912 0.056229744 0.120110296 0.041748405 -0.043765254
-0.08855141 0.11309249 0.012453345 -0.09402455 0.099922895 -0.106086396 0.009865062 -0.014081903
0.10724395 0.05864336 -0.03236737 -0.11727849 0.06627405 -0.094328016 -0.039361164 0.056513805
0.017884271 0.09471558 0.10971499 -0.036903907 -0.1102251 -0.09581601 -0.028363127 -0.10582713
-0.087477446 -0.05755805 0.04079447 0.08511282 0.02298637 0.09311289 0.016741607 0.0080689145
-0.0067132814 0.10776435 0.020618973 0.026673224 0.018229617 0.050066654 -0.007299479 -0.029971384
0.007001485 0.06696536 -0.092511624 0.05965708 0.06045448 -0.10847723 0.07112348 -0.12653117
-0.04347931 0.05946898 -0.038742892 0.013032865 0.08171842 0.028927948 0.009787251 0.07999339
-0.08945241 -0.009650087 -0.13204297 0.00014053668 -0.011212846 0.0012572916 0.039042473 -0.12732758
-0.023438409 0.11083182 -0.11766324 0.02704182 0.0014493528 0.11682281 0.10808989 -0.012023235
0.0744209 -0.043464564 -0.0069877743 -0.107409 0.07537821 -0.003550606 0.052181367 -0.0025069832
0.11354521 0.031145155 -0.10379521 -0.015342108 -0.07488714 0.008086908 0.07288146 0.03438376
0.10881615 -0.07267619 -0.064448506 0.009640627 -0.032423604 -0.11061163 0.116005 0.12912202
0.09141365 0.0020537586 0.032562222 0.066964604 -0.088212885 -0.010834656 -0.083696336 -0.0073923105
-0.09677301 0.12997355 -0.013369476 -0.067730494 0.0924474 0.07898303 -0.066388816 -0.082400985
-0.05892304 -0.017630382 0.07874553 -0.08974667 0.02353418 -0.085734546 0.048161067 -0.09439663
-0.1234398 0.105724394 -0.09283737 -0.112399906 -0.10381651 -0.024608575 -0.023270877 0.09211507
0.004196563 0.010159976 -0.026389172 -0.051881414 0.109304935 -0.053967267 0.13748753 0.1298786
0.0183627 -0.04010893 -0.004770744 -0.047378354 0.020931745 -0.049972128 0.047563132 -0.04555464
0.11580671 0.050612934 -0.05582954 -0.059978854 0.11905067 0.12581581 0.023474647 -0.07852575
0.109032296 0.08523122 -0.056430012 0.07987448 0.011305369 -0.023425471 -0.005455928 -0.08960504
0.003627109 0.023410264 0.01073486 -0.10813918 0.084345065 -0.043381236 -0.032106865 -0.06601679
0.08938039 -0.04912619 0.09524872 0.0044468287 -0.08244014 -0.09618796 0.089570306 0.0565456
0.05732698 0.06730242 -0.015727567 0.014192905 0.118905 -0.03130555 0.109903865 0.082474455
0.033277627 0.03471666 0.053652197 -0.01536286 0.076863065 -0.04473088 -0.05222406 -0.095152
0.11311643 -0.09849869 -0.09971966 0.013030038 0.018141733 0.023931095 0.11289228 -0.08393561
-0.105943024 0.013999953 -0.094072565 0.057720058 0.033390444 0.0681499 0.08624354 0.08900006
-0.10212964 -0.07723908 -0.010969374 -0.0792138 -0.021612706 0.074138455 -0.11505837 -0.027304754
-0.04479171 0.04451099 0.060984146 0.095456615 0.07667983 0.013557613 -0.059948143 0.006106671
00000000: 1b93 063e 78aa d2bc 5d95 5fbc a500 893d
00000010: ba43 47bd 58e6 7a3d 0edb d73c 42d8 153e
00000020: fdbe a93d 3770 c93d e740 babc c411 d7bd
00000030: 43fa 443d c2a7 0f3c 43bd bb3a d3eb c53d
00000040: f112 11bd f56b 93bd 690b 013d 0daf 49bd
00000050: 849f ea3d 204a 2abd 48b4 4bbd 49a7 f43d
00000060: ae8b f9bc 952c bd3a 6c5b a23d 7871 7cbc
00000070: 2951 663d 63fc f53d 6000 2b3d 3243 33bd
00000080: 715a b5bd 099d e73d 1d09 4c3c f18f c0bd
00000090: 60a4 cc3d d343 d9bd 12a1 213c c8b7 66bc
000000a0: b7a2 db3d 0534 703d a693 04bd b42f f0bd
000000b0: b0ba 873d 0c2f c1bd 2c39 21bd 057b 673d
000000c0: 0982 923c 3efa c13d 41b2 e03d 8d28 17bd
000000d0: b2bd e1bd 2f3b c4bd ca59 e8bc e5bb d8bd
000000e0: 6027 b3bd fdc1 6bbd 1a18 273d a14f ae3d
000000f0: e94d bc3c f9b1 be3d b225 893c 7b33 043c
00000100: 16fb dbbb 8eb3 dc3d 1fe9 a83c ce81 da3c
00000110: 4756 953c b112 4d3d 7830 efbb 8c86 f5bc
00000120: b76c e53b 2225 893d bc76 bdbd fb5a 743d
00000130: 1e9f 773d 4f29 debd 30a9 913d 6391 01be
00000140: 5c17 32bd bf95 733d deb0 1ebd cc87 553c
00000150: fd5b a73d 4efa ec3c b55a 203c 93d3 a33d
00000160: d332 b7bd 661b 1ebc 4636 07be 075d 1339
00000170: 16b6 37bc b5cb a43a 00eb 1f3d 2962 02be
00000180: e801 c0bc cbfb e23d 6df9 f0bd cf86 dd3c
00000190: 36f8 bd3a cc40 ef3d 3b5e dd3d 1afd 44bc
000001a0: fc69 983d e607 32bd b3f9 e4bb 40f9 dbbd
000001b0: e45f 9a3d 49b1 68bb 21bc 553d 334c 24bb
000001c0: 648a e83d 2024 ff3c 9592 d4bd 775d 7bbc
000001d0: 6e5e 99bd f37e 043c e042 953d fcd5 0c3d
000001e0: 00db de3d 41d7 94bd 94fd 83bd b8f3 1d3c
000001f0: 9dce 04bd 5a88 e2bd 0894 ed3d 9038 043e
00000200: 1437 bb3d 5a98 063b f75f 053d bd24 893d
00000210: f5a8 b4bd d783 31bc fc68 abbd 323b f2bb
00000220: ee30 c6bd c917 053e a60b 5bbc 49b6 8abd
00000230: 1055 bd3d dbc1 a13d dcf6 87bd d9c1 a8bd
00000240: 4959 71bd 976d 90bc 5645 a13d 1acd b7bd
00000250: c1ca c03c 9895 afbd 8a44 453d 0553 c1bd
00000260: 02ce fcbd 0886 d83d 8521 bebd ec31 e6bd
00000270: c09d d4bd ec97 c9bc 91a2 bebc d3a6 bc3d
00000280: 5283 893b 0776 263c 1b2e d8bc 9b81 54bd
00000290: 44db df3d c80c 5dbd 88c9 0c3e e5fe 043e
000002a0: 5f6d 963c 4349 24bd e753 9cbb ce0f 42bd
000002b0: 0d79 ab3c 93af 4cbd 8fd1 423d 8197 3abd
000002c0: 122c ed3d 824f 4f3d 84ad 64bd 63ac 75bd
000002d0: d6d0 f33d dcd5 003e e74d c03c 1cd2 a0bd
000002e0: 534c df3d b58d ae3d 2823 67bd 3b95 a33d
000002f0: 283a 393c c6e6 bfbc a4c7 b2bb d982 b7bd
00000300: cbb4 6d3b e2c6 bf3c 44e1 2f3c 1378 ddbd
00000310: 1bbd ac3d 86b0 31bd 7d82 03bd d033 87bd
00000320: 110d b73d 8b38 49bd c311 c33d b4b6 913b
00000330: 60d6 a8bd 31fe c4bd a370 b73d 5c9c 673d
00000340: b2cf 6a3d dad5 893d 19d7 80bc 5c89 683c
00000350: 7784 f33d 403a 00bd 4715 e13d 5ee8 a83d
00000360: 1f4e 083d 0e33 0e3d 68c2 5b3d 81b4 7bbc
00000370: 626a 9d3d ba37 37bd e5e8 55bd 0ddf c2bd
00000380: 96a9 e73d aeb9 c9bd d239 ccbd f17b 553c
00000390: f99d 943c 250b c43c 1134 e73d 6fe6 abbd
000003a0: a8f8 d8bd 0f60 653c 1ea9 c0bd de6b 6c3d
000003b0: 6bc4 083d 2d92 8b3d 74a0 b03d aa45 b63d
000003c0: 5829 d1bd 862f 9ebd e4b8 33bc d83a a2bd
000003d0: 210d b1bc e7d5 973d b9a3 ebbd 38ae dfbc
000003e0: 8377 37bd 2851 363d 83ca 793d c27e c33d
000003f0: 510a 9d3d c020 5e3c 2f8c 75bd 781a c83b

rnn_layer.weight_hh_l0 f4 [64, 64]
0.057903357 0.061673447 0.030017845 -0.05341206 0.050751176 0.044158265 -0.10024714 0.09198333
-0.05461278 -0.10373551 0.0685057 0.11048293 0.066815704 0.12153833 0.055191413 0.10736747
0.11544531 -0.033094943 0.10424879 -0.08987472 -0.04902846 0.016687986 -0.025932096 0.04926237
0.1276052 0.064925775 0.041094154 0.07984293 -0.017772289 0.09372076 -0.0064603537 0.04404764
0.050215986 0.031067183 -0.040571634 -0.076876596 0.00848216 0.0036431497 -0.0806252 0.084037066
0.07356023 -0.05653046 0.01211956 -0.09258243 0.019172406 0.04228185 -0.09667658 -0.011889835
-0.015570472 -0.08640826 -0.083906 -0.10784206 -0.044466 -0.05517895 0.08918312 -0.07256999
-0.032178108 -0.005131153 -0.06696767 -0.09048443 0.040800296 0.020782582 0.0018473649 0.014836772
-0.034873005 -0.11928407 -0.09685825 0.12450529 0.07390641 -0.089475624 -0.028893577 0.02503973
0.024871144 -0.049719322 0.058485273 -0.0694277 0.04219949 -0.043303575 -0.11727997 0.07413047
-0.11883326 0.057633106 -0.030733617 0.001845271 -0.029554332 -0.047814086 0.01629358 -0.06403321
0.0040960493 0.12062067 -0.01216313 0.029311063 0.07754181 -0.02139778 0.11167865 0.04660262
-0.10070618 0.07614921 0.0474459 -0.12352708 -0.048612934 -0.06423578 0.016886277 -0.09366433
-0.06427267 0.011386534 0.030786572 -0.094086476 0.058450848 -0.10600781 -0.085929774 -0.006360581
-0.12404377 -0.06858889 -0.030496702 0.010065517 -0.103741236 -0.023581684 0.0753792 0.06863309
0.10720708 -0.091347866 -0.094531484 -0.009173048 0.04194147 -0.04366448 -0.011607901 -0.059720155
0.035470556 -0.079299256 0.114267915 -0.040336493 0.06556536 0.022263806 -0.065844916 -0.13378185
-0.12537512 0.11653018 -0.05439152 0.06549963 0.07917663 -0.048381165 -0.040181365 -0.08692385
-0.075592995 0.107287295 -0.038185127 0.07325651 0.032075755 0.025770012 -0.021283321 0.07435205
0.06167103 -0.10700155 -0.014589149 0.03138752 0.09908685 -0.10747408 -0.027217163 0.050873663
0.04715092 -0.05967695 0.09493152 0.11846947 0.036162414 0.050326634 -0.017365316 0.11939844
0.05907761 0.076399885 0.031915955 0.012030686 -0.11875491 0.0033722462 -0.0027759408 0.067487344
-0.030867146 -0.042067613 0.06462872 -0.028462395 -0.01485841 -0.0648173 0.058145773 -0.030732602
-0.0862077 -0.12202347 0.011960638 0.040249396 0.082951665 0.12547901 0.03701439 -0.07611391
0.037571486 0.025376702 0.018153362 0.02110175 -0.058953565 0.0047347527 0.08909788 -0.120455295
-0.0111036785 0.0042064097 -0.048738517 -0.046114136 0.043470316 0.09353097 -0.08994108 0.08899004
-0.12353486 0.014405338 -0.063862875 0.09266329 0.041257557 0.09702898 -0.103602126 0.057245538
-0.11936369 0.023736872 0.060062643 0.1080641 -0.109826066 -0.07750529 -0.042772528 0.0946524
0.10921592 0.02657264 -0.12724707 -0.06369373 0.06136368 -0.12530942 -0.06678906 0.057918854
0.12337108 0.04699947 0.109591246 0.095986165 -0.08718708 0.09323566 -0.084061414 -0.10284626
0.054238297 -0.11485763 -0.10451266 0.09416192 0.025355363 -0.020863496 -0.039585482 0.10795436
0.10769691 0.029519878 -0.03848419 -0.043401796 0.017588323 -0.10126304 0.10689114 0.041658875
00000000: 122c 6d3d 4c9d 7c3d fce7 f53c 9bc6 5abd
00000010: 77e0 4f3d 4cdf 343d 5f4e cdbd c261 bc3d
00000020: a7b1 5fbd 4873 d4bd b74c 8c3d e044 e23d
00000030: acd6 883d 17e9 f83d 6410 623d 7ae3 db3d
00000040: 976e ec3d 908e 07bd 6480 d53d 3d10 b8bd
00000050: 11d2 48bd 3eb5 883c 8c6f d4bc 57c7 493d
00000060: f0aa 023e cef7 843d 5852 283d b184 a33d
00000070: 3197 91bc abf0 bf3d 60b1 d3bb 4c6b 343d
00000080: 47af 4d3d 9b80 fe3c 712e 26bd 7a71 9dbd
00000090: c2f8 0a3c e9c1 6e3b d31e a5bd a01b ac3d
000000a0: bfa6 963d 7c8c 67bd 1e91 463c db9b bdbd
000000b0: 730f 9d3c bc2f 2d3d 5ffe c5bd 95cd 42bc
000000c0: 4b1b 7fbc d0f6 b0bd e9d6 abbd 4cdc dcbd
000000d0: fb21 36bd 5303 62bd a4a5 b63d 939f 94bd
000000e0: 31cd 03bd 3b23 a8bb 5926 89bd e74f b9bd
000000f0: 361e 273d 3c40 aa3c 4823 f23a ef15 733c
00000100: ffd6 0ebd 354b f4bd 9e5d c6bd a1fc fe3d
00000110: 3e5c 973d ff3e b7bd 39b2 ecbc 1f20 cd3c
00000120: 92be cb3c 7da6 4bbd 418e 6f3d 1c30 8ebd
00000130: 5fd9 2c3d 175f 31bd 7b30 f0bd b7d1 973d
00000140: da5e f3bd b110 6c3d 11c5 fbbc 05dd f13a
00000150: ed1b f2bc b4d8 43bd 1d7a 853c d823 83bd
00000160: 2738 863b f807 f73d dd47 47bc c11d f03c
00000170: 3ece 9e3d 664a afbc c7b7 e43d 64e2 3e3d
00000180: 0b3f cebd 1ef4 9b3d a256 423d c4fb fcbd
00000190: 5b1e 47bd 0c8e 83bd 1755 8a3c 16d3 bfbd
000001a0: 64a1 83bd 968e 3a3c 1f34 fc3c 69b0 c0bd
000001b0: 286a 6f3d 9f1a d9bd f3fb afbd 6c6c d0bb
000001c0: a90a febd 5578 8cbd 38d4 f9bc d7e9 243c
000001d0: 4976 d4bd 602e c1bc 6960 9a3d 818f 8c3d
000001e0: 638f db3d 9714 bbbd b999 c1bd 8d4a 16bc
000001f0: d2ca 2b3d 87d9 32bd 112f 3ebc 1f9d 74bd
00000200: 9349 113d a667 a2bd 4c05 ea3d e137 25bd
00000210: 2247 863d 9662 b63c b3d9 86bd 1cfe 08be
00000220: 5662 00be 60a7 ee3d a4c9 5ebd ac24 863d
00000230: 5b27 a23d 542b 46bd 3795 24bd 2205 b2bd
00000240: 80d0 9abd 71b9 db3d 0268 1cbd 8207 963d
00000250: de61 033d a21b d33c 5c5a aebc e345 983d
00000260: c39a 7c3d a123 dbbd 5307 6fbc 3390 003d
00000270: 0cee ca3d 5f1b dcbd 87f6 debc e760 503d
00000280: 5321 413d d16f 74bd 756b c23d 1fa0 f23d
00000290: 0a1f 143d 4d23 4e3d b541 8ebc 2b87 f43d
000002a0: 5dfb 713d 8b77 9c3d 4eba 023d 5b1c 453c
000002b0: c635 f3bd e700 5d3b 8fec 35bb ce36 8a3d
000002c0: 19dd fcbc 174f 2cbd 105c 843d f829 e9bc
000002d0: b070 73bc efbe 84bd 432a 6e3d f0c2 fbbc
000002e0: aa8d b0bd 71e7 f9bd 8df6 433c 8ddc 243d
000002f0: 90e2 a93d 927d 003e 679c 173d 9ce1 9bbd
00000300: 8fe4 193d cde2 cf3c 5cb6 943c 94dd ac3c
00000310: 4b79 71bd fc25 9b3b f378 b63d 44b1 f6bd
00000320: 34ec 35bc ecd5 893b 0aa2 47bd 2de2 3cbd
00000330: ee0d 323d 2a8d bf3d 0733 b8bd 6940 b63d
00000340: d8ff fcbd 5e04 6c3c 8aca 82bd 40c6 bd3d
00000350: affd 283d 21b7 c63d 5a2d d4bd 4c7a 6a3d
00000360: f374 f4bd d473 c23c 3f04 763d b650 dd3d
00000370: 7dec e0bd 18bb 9ebd 3f32 2fbd 1ed9 c13d
00000380: 99ac df3d ddae d93c 0e4d 02be dc71 82bd
00000390: 7b58 7b3d 1d51 00be b4c8 88bd 523c 6d3d
000003a0: faa9 fc3d 8482 403d 6071 e03d 6594 c43d
000003b0: 248f b2bd 56f2 be3d 6428 acbd 0fa1 d2bd
000003c0: fa28 5e3d 7a3a ebbd bc0a d6bd f7d7 c03d
000003d0: 0db6 cf3c ece9 aabc 6324 22bd 2d17 dd3d
000003e0: 3390 dc3d acd3 f13c 99a1 1dbd 15c6 31bd
000003f0: 6315 903c ff62 cfbd bee9 da3d 7fa2 2a3d

rnn_layer.bias_ih_l0 f4 [64]
-0.022956649 -0.06124212 0.035984416 0.10481985 -0.11869017 0.03984068 -0.1092145 0.049410954
0.12129384 -0.07929309 0.053561132 -0.07059403 -0.027272033 -0.007670028 -0.103032365 -0.028351717
0.029788064 -0.07958521 -0.0031281929 0.059219886 -0.046719536 -0.0031740372 0.0018522204 -0.08379935
-0.060399164 0.037982333 -0.029259305 -0.060638897 0.06558111 0.055059504 0.078081064 -0.03603978
-0.0054489854 -0.08037908 -0.052313857 0.040395178 0.014761484 0.033882093 -0.017035397 0.0041706436
-0.09931723 5.195545e-05 0.026123 0.0011748177 -0.009067948 0.076658696 0.09029815 -0.070977814
-0.11034692 -0.023606211 -0.09781892 0.009509757 -0.07583123 -0.077315554 0.041707676 -0.023800246
-0.10168612 0.11934227 0.112725414 0.026712019 -0.048688162 0.0032975706 0.033496358 -0.020900164
00000000: 950f bcbc 04d9 7abd 6564 133d caab d63d
00000010: d513 f3bd fb2f 233d daab dfbd 2463 4a3d
00000020: e868 f83d 6a64 a2bd eb62 5b3d 9a93 90bd
00000030: 9969 dfbc dc54 fbbb a202 d3bd dc41 e8bc
00000040: 1906 f43c 92fd a2bd 5e02 4dbb 8d90 723d
00000050: fc5c 3fbd 8203 50bb 34c6 f23a fe9e abbd
00000060: 1d65 77bd 5d93 1b3d 36b1 efbc 7e60 78bd
00000070: 644f 863d 1386 613d f7e8 9f3d 739e 13bd
00000080: 678d b2bb c99d a4bd 0e47 56bd 6a75 253d
00000090: 27da 713c f3c7 0a3d d18d 8bbc e5a9 883b
000000a0: d566 cbbd bdea 5938 e7ff d53c 57fc 993a
000000b0: bb91 14bc 3cff 9c3d 3dee b83d d15c 91bd
000000c0: 91fd e1bd d061 c1bc 4955 c8bd d0ce 1b3c
000000d0: 674d 9bbd 9e57 9ebd abd5 2a3d bcf8 c2bc
000000e0: d040 d0bd b869 f43d 95dc e63d 2ad3 da3c
000000f0: 3d6d 47bd 0e1c 583b 7a33 093d d236 abbc

rnn_layer.bias_hh_l0 f4 [64]
-0.1210765 -0.11966244 0.0031097985 -0.025122464 -0.0038978094 -0.06957174 -0.11467925 0.023422554
0.00021285343 -0.08051105 -0.07078448 -0.093599305 -0.03130241 0.04024443 0.0432842 -0.0694505
-0.09311329 -0.08647728 -0.0133377835 -0.044916462 -0.09169618 0.054578368 -0.042465333 -0.053399585
-0.038510997 -0.014853991 0.12090417 0.021642463 0.032256328 0.08412146 0.002039996 -0.026327439
0.1024577 0.11127777 0.05969397 -0.11553726 0.04545649 -0.06298773 -0.095804125 -0.015960038
-0.04655415 0.0236941 0.113813914 -0.024976736 -0.0053203697 -0.031240737 0.05551198 0.10523877
-0.10902398 -0.11531285 -0.12905501 -0.041354045 0.026068196 -0.03978556 -0.060234066 0.10443383
-0.0029654175 0.06947309 0.112067394 -0.05211177 0.051749375 -0.032885067 0.061882004 -0.08930118
00000000: f5f6 f7bd 9511 f5bd c3cd 4b3b a0cd cdbc
00000010: 6472 7fbb a17b 8ebd f4dc eabd a8e0 bf3c
00000020: 6831 5f39 fae2 a4bd 74f7 90bd feb0 bfbd
00000030: f536 00bd 58d7 243d c64a 313d 103c 8ebd
00000040: 2eb2 bebd 001b b1bd b886 5abc 53fa 37bd
00000050: 35cb bbbd 918d 5f3d 21f0 2dbd 86b9 5abd
00000060: b5bd 1dbd 275e 73bc 9b9c f73d 894b b13c
00000070: 361f 043d df47 ac3d 74b1 053b a4ac d7bc
00000080: 58d5 d13d 99e5 e33d aa81 743d cd9e ecbd
00000090: 9630 3a3d b6ff 80bd f434 c4bd a0be 82bc
000000a0: 90af 3ebd 211a c23c 4517 e93d 039c ccbc
000000b0: 7f56 aebb 93ec ffbc 8860 633d 6d87 d73d
000000c0: f747 dfbd 2529 ecbd ff26 04be dc62 29bd
000000d0: f88c d53c 2ff6 22bd ffb7 76bd 67e1 d53d
000000e0: 7357 42bb e847 8e3d 9783 e53d 2773 55bd
000000f0: 27f7 533d 7eb2 06bd fc77 7d3d 89e3 b6bd

fc.weight f4 [3, 64]
-0.1053007 0.04293955 -0.10658345 0.07517071 0.09086589 -0.006919894 0.08882404 0.0037880216
-0.11960544 -0.093138844 0.009264599 0.00798237 -0.1032161 -0.100137465 0.12285506 0.06961169
0.09189197 0.114113085 -0.07141133 -0.088958785 -0.117258035 0.10098259 0.045081206 0.10943184
-0.059095196 -0.055557735 -0.05405883 -0.025470397 0.052611157 0.018538103 0.04021847 0.043038897
-0.050560594 -0.040882245 0.051123083 -0.078405395 -0.101617515 0.056977082 0.109086975 0.10672527
-0.10872731 0.089190476 -0.026537392 0.06629154 0.09014472 0.06866114 -0.0008361111 -0.07927167
0.051804695 -0.027185278 -0.014644231 -0.05816272 0.10032706 0.12286433 0.06133409 -0.06045355
0.0019109482 0.08731528 -0.060230084 0.0825405 -0.050096743 0.024760932 0.087771825 0.036339246
0.091349766 -0.08697919 -0.04874485 -0.104006805 -0.086838484 -0.088099845 -0.032445423 -0.0036925098
0.071805134 -0.048827816 0.05056085 0.05276696 -0.09558923 0.050774593 0.08568562 0.10466639
-0.103423215 0.028332997 0.11043299 0.015132049 -0.022388922 -0.057988513 -0.010219386 -0.0016347851
0.051995214 -0.04745151 -0.029246394 0.07755724 0.081282526 0.04980899 0.018728612 -0.020606823
0.110738136 0.04845959 -0.0066864835 -0.059606753 0.06392387 -0.047614418 0.09852753 0.02238701
0.09622925 -0.031408936 -0.06928444 0.012490178 0.0038312734 -0.050555766 -0.06600868 0.10170267
-0.0077949436 -0.07126309 -0.06272944 0.00032203353 -0.11333615 0.074055985 0.04432817 -0.07472832
0.012320981 0.06573173 -0.09011811 0.05782024 0.049149007 -0.05606104 -0.058045417 -0.08586848
0.10924077 -0.011980261 0.031355947 -0.0787291 0.014318984 -0.11658826 -0.015807008 0.0382313
-0.029705266 -0.06538379 0.007498674 0.042706735 -0.008501167 -0.09990607 0.0812685 -0.102324866
0.108238414 -0.09786073 0.055360228 -0.08825229 -0.02602475 0.015649732 0.13044496 -0.025547747
-0.051809974 -0.06175057 0.037749242 0.08458004 0.03687853 -0.011774493 -0.049598847 0.09449451
0.028116751 -0.038519476 0.01787912 -0.061429877 -0.095989786 0.09637065 0.028611973 -0.011411359
0.045192793 0.035837412 -0.114458345 -0.04924473 0.03417095 0.039347865 -0.024233384 -0.11130202
0.10392296 0.11732653 0.058631264 0.06177525 -0.09208496 0.12799609 0.022743467 0.112703145
-0.058833223 -0.048443582 0.01963387 0.06692737 -0.006952791 -0.024782877 0.10015336 0.04016775
00000000: e5a7 d7bd 62e1 2f3d 6d48 dabd 1af3 993d
00000010: e517 ba3d 47c0 e2bb 61e9 b53d 7540 783b
00000020: b2f3 f4bd 94bf bebd 8bca 173c 7dc8 023c
00000030: f662 d3bd df14 cdbd 6f9b fb3d 9390 8e3d
00000040: db31 bc3d 1fb4 e93d 1a40 92bd 0630 b6bd
00000050: fb24 f0bd f6cf ce3d 12a7 383d cd1d e03d
00000060: ce0d 72bd 8290 63bd cb6c 5dbd 4ba7 d0bc
00000070: cc7e 573d 38dd 973c 1fbc 243d 8e49 303d
00000080: a018 4fbd 2474 27bd 7066 513d 0293 a0bd
00000090: d81c d0bd cd60 693d fe68 df3d c792 da3d
000000a0: 6dac debd 7fa9 b63d f264 d9bc dcc3 873d
000000b0: cc9d b83d 369e 8c3d 772e 5bba 2f59 a2bd
000000c0: 2931 543d a9b3 debc 5bee 6fbc 083c 6ebd
000000d0: 4678 cd3d 4ba0 fb3d 7439 7b3d 249e 77bd
000000e0: c878 fa3a 5bd2 b23d d2b3 76bd fe0a a93d
000000f0: 3e32 4dbd 70d7 ca3c b7c1 b33d 76d8 143d
00000100: 9615 bb3d 2522 b2bd aea8 47bd 8501 d5bd
00000110: 60d8 b1bd b16d b4bd 7ee5 04bd 09fe 71bb
00000120: 920e 933d adff 47bd e518 4f3d 2b22 583d
00000130: 49c4 c3bd 05f9 4f3d f17b af3d 555b d63d
00000140: 8dcf d3bd 9a1a e83c b12a e23d 6aec 773c
00000150: f968 b7bc 5d85 6dbd 366f 27bc 4946 d6ba
00000160: eff8 543d 845c 42bd 2296 efbc 55d6 9e3d
00000170: 7477 a63d 8304 4c3d bf6c 993c a4cf a8bc
00000180: adca e23d 907d 463d 4a1a dbbb 3626 74bd
00000190: 85ea 823d 5607 43bd cdc8 c93d f664 b73c
000001a0: d713 c53d a8a6 00bd 00e5 8dbd 9ba3 4c3c
000001b0: 1a16 7b3b 9013 4fbd 8f2f 87bd 7d49 d03d
000001c0: ba6c ffbb 62f2 91bd 4b78 80bd 9cd6 a839
000001d0: c91c e8bd aaaa 973d 7591 353d 290b 99bd
000001e0: f1dd 493c 5b9e 863d d88f b8bd ead4 6c3d
000001f0: 7850 493d 43a0 65bd 08c1 6dbd d0db afbd
00000200: a0b9 df3d db48 44bc 186f 003d b93c a1bd
00000210: 2c9a 6a3c d3c5 eebd b37d 81bc 6c98 1c3d
00000220: 7558 f3bc f0e7 85bd 70b7 f53b 42ed 2e3d
00000230: 7b48 0bbc 8e9b ccbd 1970 a63d b38f d1bd
00000240: 1aac dd3d 356b c8bd 68c1 623d 9ebd b4bd
00000250: db31 d5bc de33 803c 5d93 053e 8249 d1bc
00000260: b236 54bd 2aee 7cbd f39e 1a3d 4d38 ad3d
00000270: f10d 173d cee9 40bc 2928 4bbd 5686 c13d
00000280: 1a55 e63c 99c6 1dbd 3b77 923c e59d 7bbd
00000290: 4b96 c4bd fa5d c53d a863 ea3c b5f6 3abc
000002a0: 141c 393d 40ca 123d 2369 eabd d8b4 49bd
000002b0: d7f6 0b3d 3a2b 213d 1785 c6bc 50f2 e3bd
000002c0: 90d5 d43d e448 f03d 5627 703d 0b08 7d3d
000002d0: 0a97 bcbd 6811 033e 8250 ba3c e8d0 e63d
000002e0: 1bfb 70bd c76c 46bd 36d7 a03c 3811 893d
000002f0: 3dd4 e3bb 7605 cbbc 341d cd3d f086 243d

fc.bias f4 [3]
0.043011114 -0.08392253 0.069952935
00000000: 6c2c 303d 93df abbd 7c43 8f3d
