trainedModels/1620283398/rnn.pt (torch, 22538 bytes, 6 tensors)

rnn_layer.weight_ih_l0 f4 [64, 12]
00000000: 2ed8 cdbd 4d9c 883d 129a 193d 1042 afbd
00000010: 4455 1d3d 1e7c 9dbd 22f6 a93d 1c6a b63d
00000020: cc79 6cbd 271a c8bc 0cc3 9ebd 8c96 993d
00000030: 408d 133b ccb4 bebd e0b1 083d 9c57 a03d
00000040: 6818 83bd ec9e 2f3d 80f5 16bb fcd1 b3bd
00000050: a6ac fb3d ba6b 82bd 707d adbc 16c1 b23d
00000060: 62be bd3d 8ac9 e73d 4ea2 83bd b7e5 8a3d
00000070: 7a28 cdbd db71 f53d e4cc 973d 005c 81bc
00000080: 7deb 90bd cf65 b8bd 2c71 f13d 5e38 b53c
00000090: b4b7 fdbd 9c56 e1bc 26aa 283d 9045 7d3d
000000a0: bab8 d8bd 02f3 b1bd 783a 8dbd 12b3 c2bd
000000b0: 7425 63bd bad1 e3bd 30c4 1a3d 202a 86bb
000000c0: f04e 073c 854a cdbd 79d7 f5bd f313 93bd
000000d0: b8b0 12bd c5f3 bb3d dc97 2bbd 64b1 a43d
000000e0: afe2 eebd 89d0 983d 8069 393c 2083 623b
000000f0: 78c6 e53c 49cd ce3d 8b31 ddbd 1a05 edbb
00000100: 58c1 e83d e914 653d 6c6a a53d 2050 423d
00000110: 19bc 103d 0603 883d 883d ad3c 47bf 3dbd
00000120: f07f 3bbc 2982 f4bd e662 0fbc cb9a 62bd
00000130: 6e85 9ebd 41a4 8e3d f60d eabd 70d0 98bd
00000140: 2d38 e2bc 9d47 f8bd d034 f0bc 56a5 713c
00000150: e4a8 ecbd 6c34 d5bd 9694 eabd 2b92 073d
00000160: a8fa 7c3d 9524 6cbc b2a4 e4bd b4c8 923d
00000170: 5618 003e c954 4bbd 887d d83d b72a ca3d
00000180: c088 3b3c 7f43 ff3d 8581 903d 934b adbd
00000190: 023a acbd 1171 513d bcd1 f53d 1061 e5bd
000001a0: 1d6b 84bd bfc3 4fbd 2880 febc efa5 893d
000001b0: c660 813d b1a2 fc3d 15bd 643d 1aa9 3fbd
000001c0: c003 50bc 8fde c4bd 2a42 a53d 4845 123d
000001d0: b40a 833c d1fa 943d cca1 b1bd 83a0 f43d
000001e0: 9663 c6bd d2a7 b73d 5382 2c3d 65f4 723d
000001f0: f21d c63d 57d2 d9bb 7cda 513d da54 f73d
00000200: 491d be3d c7c2 8ebd c01a da3b bb62 3cbd
00000210: 48d7 81bd cad4 ccbd 5082 c8bd f123 fd3d
00000220: 4804 f03c bd78 db3c 0e34 afbd ca85 bdbd
00000230: 9d21 e7bd 71a0 09bd c455 193d f70c 243d
00000240: 06db dd3d 1598 a53b 3dd4 be3c 03ac 7abd
00000250: 1cba e7bd 4509 1c3d f8d3 c73d ac24 b0bd
00000260: 6de6 c8bd eb5c fa3c 1cf6 35bd b10f 003e
00000270: 520d d23d 9bd5 cfbd 33a3 d7bd eda0 a0bd
00000280: b0b3 c13d 1682 34bd 18ee d83c 182c 9c3d
00000290: 727c 2e3d 3742 993d 746e c43d f9cf 61bc
000002a0: 60d3 6dbd d955 21bd 314b d23d 45c4 cf3c
000002b0: 0026 a83c f21c 533d 145c 84bd 14f9 b83d
000002c0: cdd8 bebd 1f80 b9bd b6ad 923d 03f4 9ebc
000002d0: 501b c9bc 11e4 61bd 6dc9 d93a bd9c a53b
000002e0: b6f4 fc3d d4bb 1cbd 50c8 88bd 60bd d33c
000002f0: 44e0 56bd 6e6e a7bd 4ea0 e03d bc54 e23d
00000300: 5837 8fbd 0ff8 493d c315 8f3d 8bb7 afbd
00000310: f086 d2bc 1730 71bc 7008 f63d 3c73 c6bd
00000320: 52f4 30bd 1a04 24bd ac70 66bd 37ee f93d
00000330: 5044 2e3c 2b96 ac3d ab42 863d 4829 8d3d
00000340: fe8a d4bd 6a5e 95bd 26e1 babd 2c45 393d
00000350: 0703 be3c 5898 0d3d ec38 10bd f847 66bd
00000360: 009b 983d 6fb9 843d 3f11 4fbd 43a0 9dbc
00000370: 5482 f4bd ddb0 923d d42d fabd 9a7e f63d
00000380: 912d 78bd 6fe1 c33d 3c0b 88bd eb1f 7c3d
00000390: bc73 ea3d 6e62 a7bc be88 8fbc 8f0d 9e3d
000003a0: 5472 ccbd 768a 0d3d 0037 d7bd a8a7 d9bc
000003b0: 905e 15ba a919 d5bd 4017 b3bc e141 bcbd
000003c0: 04a6 ccbd 027f 82bc 55c1 df3d c7c9 8cba
000003d0: ea73 c8bd 223a 77bd 6a70 f3bd c0e0 8e3b
000003e0: 92c7 1e3d c5ec ff3d c488 f03d 5d8c 383b
000003f0: 30d8 0f3d a62b 123d cb74 91bd d0ac a3bc
-0.10050999 0.06670437 0.03750045 -0.08557522 0.038411394 -0.07689689 0.08298899 0.089069575
-0.057733342 -0.024426533 -0.07752046 0.07499418 0.0022514611 -0.09311828 0.03337276 0.0782921
-0.064011395 0.04287617 -0.0023034513 -0.08780286 0.122887895 -0.063682035 -0.021177977 0.087282345
0.09264828 0.113177374 -0.064274415 0.06782096 -0.10017486 0.11984607 0.07412127 -0.01579094
-0.07076166 -0.090037934 0.11789164 0.022121605 -0.12388554 -0.027507119 0.04117789 0.061833918
-0.10582109 -0.08688928 -0.06895918 -0.09506811 -0.05545564 -0.111239865 0.037784755 -0.004094377
0.008258566 -0.10023979 -0.12003989 -0.071815394 -0.035813063 0.09177355 -0.04189287 0.08041647
-0.1166433 0.0746165 0.011316657 0.003456302 0.028048739 0.10097749 -0.10800465 -0.007233274
0.113650024 0.055928145 0.08076939 0.047439694 0.035335634 0.06641202 0.021147504 -0.046324994
-0.011444077 -0.119388886 -0.008751607 -0.055323403 -0.077402934 0.06964923 -0.11428444 -0.07461631
-0.027614677 -0.12123034 -0.029322058 0.014748892 -0.11555651 -0.10410389 -0.11454122 0.03309838
0.061762482 -0.014413019 -0.11164226 0.07167187 0.12509283 -0.049641404 0.10570818 0.098714285
0.011446178 0.12464046 0.07055954 -0.0846168 -0.084095016 0.05113322 0.12002894 -0.11200154
-0.06465743 -0.050723787 -0.031066969 0.067211024 0.06317286 0.123357184 0.055844385 -0.046792127
-0.012696207 -0.09612762 0.080692604 0.035710603 0.015996315 0.07274402 -0.086734384 0.11944678
-0.09686963 0.08967556 0.042116474 0.059315104 0.0967368 -0.006647389 0.051233754 0.12076731
0.092829295 -0.069707446 0.006656021 -0.045992594 -0.0633989 -0.10001524 -0.0979048 0.12360371
0.029298916 0.026790971 -0.085548505 -0.09254034 -0.11285708 -0.033600274 0.037435308 0.040051427
0.10832791 0.00505353 0.023294562 -0.0611992 -0.113147944 0.038094778 0.09757227 -0.086007446
-0.09809575 0.030561885 -0.04442416 0.12505986 0.10256447 -0.10148164 -0.10529175 -0.07843194
0.09458101 -0.044069372 0.02648072 0.07625598 0.04259915 0.074833326 0.0959138 -0.013782495
-0.05806291 -0.03938851 0.10268248 0.025362143 0.020525932 0.051541276 -0.06462875 0.09031883
-0.09318695 -0.0905764 0.07162039 -0.019403463 -0.024549156 -0.05514914 0.0016615816 0.005054085
0.123513624 -0.038265064 -0.066788316 0.025847137 -0.05245997 -0.0817536 0.10968076 0.11051318
-0.06992978 0.049308833 0.069865726 -0.0857993 -0.025699109 -0.014720938 0.12013328 -0.09689948
-0.043201752 -0.040042974 -0.056259796 0.12203639 0.010636404 0.0842708 0.06555685 0.068926394
-0.10378073 -0.07293399 -0.09124975 0.045231983 0.023194803 0.034569114 -0.035210535 -0.05622098
0.07451439 0.06480681 -0.050553557 -0.019241458 -0.119389206 0.0716264 -0.12215772 0.12035866
-0.06059033 0.095644824 -0.06642768 0.061553877 0.11447856 -0.020432677 -0.017521258 0.0771743
-0.09982744 0.034555875 -0.10508537 -0.026569203 -0.000569799 -0.10405285 -0.021861672 -0.09192253
-0.099926025 -0.015929703 0.10925547 -0.0010741287 -0.09787734 -0.060358174 -0.11886676 0.0043602884
0.038764544 0.12496332 0.11744836 0.0028159835 0.03511828 0.035686158 -0.071023546 -0.019979864

rnn_layer.weight_hh_l0 f4 [64, 64]
00000000: 89f3 ee3d 68f7 ffbd a6f7 84bd 1695 aa3d
00000010: 128d 1dbd e28a 5abd 9f8c 71bd adf0 b63d
00000020: 9242 d2bd 8562 d53d b73a 94bd c7df f4bd
00000030: 7f55 bcbd 279a bb3d 30ed e33c e322 f53d
00000040: bd0d c6bd 99ba 9bbd 8e87 aabd 84cc e5bc
00000050: 12be 433d 8b8a d8bc a9c7 823d 884a ae3d
00000060: 7b0d d5bd 3996 523d 1181 47bd 5c67 17bd
00000070: eb23 96bd 5031 9fbd 15c2 543d 00bf 8c3d
00000080: 8eaf f2bd 3b54 ab3d 24ca 0cbd ba0e 31bd
00000090: 3370 cfbc 3573 ed3d 1645 ccbc a18d 93bd
000000a0: 108b 9dbd d08d ebbd da99 fdbd 1e59 5fbd
000000b0: 15ee 72bd 6713 2cbd 3eb1 a7bd 61b4 8dbd
000000c0: 2878 eebd 32b8 69bd 2223 603c 3edd 4abd
000000d0: cfe1 ef3d 64d6 43bd 8e79 c2bd 1c4a 2dbd
000000e0: 9d66 8ebd a884 373d d724 aebc c66f c8bd
000000f0: bc0f c23d 286c 19bd 7b5a b93d 04d8 343d
00000100: eea9 fdbd 80fd cf3d ee86 de3d f157 cd3d
00000110: 48d3 88bd 1120 0a3d eb62 d3bd e5a2 003c
00000120: 5050 623d 7f2f 77bd 0333 7d3d cd22 f4bd
00000130: a0e2 b83d 6c34 493d bd54 3e3d 7ded 193d
00000140: 46ee 5abd 3c5a 52bc 71d6 7ebb e000 ccbd
00000150: 7840 e93d 5e74 4ebd e591 98bd 9458 da3d
00000160: ceb1 d83d fdc8 953c c3b9 9cbd e88f acbd
00000170: c959 9a3c 87cc 05bd 3fa8 d33d 4bfc 4c3d
00000180: 39da a8bd cf88 4c3d ebc9 f33d c673 8f3d
00000190: 1c08 6dbc f0ae eebd 6f77 76bd fd6d e23d
000001a0: 6893 2cbd ae4d 613d 224a 5ebc fe36 823d
000001b0: ce8b e1bb 6e36 1c3d e74e d7bd 7bb1 dfbc
000001c0: 2b78 55bd 565f 7bbd ba74 c53d 70a0 e33d
000001d0: 8c30 f63d 8274 183d 63c1 be3c 32ec 1ebd
000001e0: ce06 debd 0291 f63d cb59 d2bd 4861 74bd
000001f0: 68bf 1ebd 88ba 6a3d 6445 903d 1668 3b3b
00000200: 12e6 2fbd fd91 ca3d 6cc7 bc3d 76d1 bf3d
00000210: 267a 233d b542 f83d 729b 3dbd 203a 8d3c
00000220: c635 6d3c 4321 9c3d 2a8b 77bd 0649 e93b
00000230: fa6d bd3d deee 993c 8701 e23d e278 e4bd
00000240: c076 10bd 0d2f f53c 2beb b9bd 74f6 5abd
00000250: bb0c d2bd 19a9 e63d 6768 7abd f3bc ccbd
00000260: 15db 8ebc 6750 82bd 5393 8bbd 3fc8 85bc
00000270: 042a 94bc 4c82 b1bd c971 8abd 2bff 71bd
00000280: 39d9 e2bd 59c1 c03d 1276 92bd 5888 0a3d
00000290: c119 14bd 5fde d4bd 3aa2 e03d 6b27 ad3d
000002a0: 6d71 e63c bd27 903d 6b3a a5bc 3518 60bd
000002b0: dc90 b6bb 832f 893d e9b2 423c 1b2f 023d
000002c0: ce47 c4bd c711 583c a8b7 d0bd 2394 adbd
000002d0: da88 f1bd 0566 f03d 0358 a7bd 59a7 8c3d
000002e0: 9057 a23d a15f f23d 199b 00be 5066 ef3d
000002f0: 1b21 8fbd 085a 9dbd 099d c9bd bcf8 f03b
00000300: 2cd4 d1bd 7f7e b8bc 9b26 84bc 2a80 e93d
00000310: ffda a83d 8391 793d a2d7 b9bd af4e 863c
00000320: 3c80 11bc 398e 94bd 5fd1 f6b8 dfc5 d73c
00000330: e369 8f3d a4a7 8a3d cb41 1c3d 2b06 143d
00000340: 2168 91ba a68d 07bd 67a2 b7bd c6f7 ca3c
00000350: a9fc 8bbc eb3d 383d 5271 843c bd1a a73d
00000360: 960c 6a3d cbc5 c93d 581d 3b3d 410e e1bc
00000370: cd7b d33d 713f fc3d 869c f5bd 978b 4b3d
00000380: b102 733d 2e45 97bd de76 05bd f998 c9bb
00000390: 1a12 59bd 8e3f 6abd a94a d5bc fee2 e4bd
000003a0: f554 e13d dd16 d63d ccff b4bd 5b48 9c3d
000003b0: d7c2 f83d 5e9a ecbb c976 69bc 9846 23bd
000003c0: cf78 81bc 652c e6bd 512f 79bd 1d59 f63d
000003d0: b576 1ebd 53f1 ba3c 9ca3 753d fa82 2bbd
000003e0: 9b5f 613d cb40 6cbc a0ea b6bd f01d 86bd
000003f0: d9e7 e3bd e533 a23a 2b93 a53d 2951 e73d
0.116675444 -0.12498361 -0.06492548 0.08329217 -0.038464613 -0.053355105 -0.058971997 0.08932624
-0.102666035 0.10419182 -0.072377615 -0.11956745 -0.091959946 0.091602616 0.02782306 0.11969545
-0.09670589 -0.0760395 -0.08326636 -0.028051622 0.047788687 -0.02643325 0.063857384 0.085103095
-0.10402962 0.051412795 -0.04870707 -0.036963806 -0.073310696 -0.077730775 0.051942904 0.06872368
-0.11849891 0.08365675 -0.034372464 -0.043226935 -0.025322055 0.115942396 -0.024935286 -0.07204748
-0.0769254 -0.11501658 -0.123828605 -0.05452835 -0.059309084 -0.04201069 -0.08188103 -0.0691917
-0.11644012 -0.057060428 0.013680251 -0.0495274 0.117129914 -0.04781188 -0.09495841 -0.042307004
-0.06953166 0.044804245 -0.021257801 -0.09786944 0.09475657 -0.03745666 0.09050461 0.04415132
-0.12385927 0.10155773 0.108655795 0.10026539 -0.06680924 0.033721987 -0.103216015 0.007851337
0.055252373 -0.06034803 0.061816227 -0.119207 0.090276 0.04912226 0.04646753 0.037580002
-0.05344989 -0.012838896 -0.0038885141 -0.099611044 0.113892496 -0.050403945 -0.07449702 0.10661426
0.105807886 0.018284315 -0.07652619 -0.084258854 0.018841641 -0.032665756 0.10334825 0.050045293
-0.08244748 0.04993516 0.11903747 0.07004504 -0.014467265 -0.116544604 -0.060172495 0.11056135
-0.042132765 0.05500572 -0.013567479 0.06358145 -0.006883121 0.038137846 -0.10513096 -0.027306309
-0.052116554 -0.061370216 0.096414044 0.111145854 0.12020978 0.037220486 0.023285573 -0.038799472
-0.10841142 0.12039377 -0.10271033 -0.059663087 -0.038756758 0.057306796 0.07044485 0.0028595976
-0.04294402 0.09891126 0.09217724 0.093661234 0.03991141 0.12122098 -0.046290822 0.01723963
0.014478153 0.07623532 -0.06043545 0.007119301 0.09249492 0.018790659 0.110354476 -0.11155869
-0.0352695 0.029929662 -0.09078058 -0.053457692 -0.102563344 0.112627216 -0.061134722 -0.09996977
-0.01743845 -0.06362992 -0.06815209 -0.016330836 -0.01808644 -0.0866743 -0.06759984 -0.059081238
-0.11076588 0.09411878 -0.071514264 0.033821434 -0.036157373 -0.103939764 0.10968442 0.08454784
0.028130258 0.070388295 -0.020169457 -0.054710586 -0.005571468 0.06698515 0.011883476 0.031783205
-0.09584008 0.013187832 -0.1019128 -0.084755205 -0.117936805 0.11738209 -0.08171084 0.068678565
0.079268575 0.11834646 -0.12559165 0.116894364 -0.06988736 -0.07683188 -0.09844405 0.00735387
-0.10245547 -0.022521256 -0.01613169 0.114013985 0.08244895 0.060929786 -0.09074332 0.016394941
-0.008880671 -0.07253689 -0.000117691925 0.02633947 0.07002618 0.06770256 0.038148683 0.036138695
-0.0011093655 -0.03309407 -0.08966523 0.02477635 -0.017088251 0.044980925 0.016167317 0.08159397
0.05714091 0.09852179 0.04568228 -0.027472617 0.103263475 0.12316788 -0.11992745 0.04969367
0.05932874 -0.07386242 -0.032584064 -0.006152269 -0.05299578 -0.057189517 -0.026036577 -0.11176108
0.110025324 0.104535796 -0.08837852 0.07630988 0.12146538 -0.0072205504 -0.014249512 -0.039862245
-0.015804676 -0.11238936 -0.06083614 0.12028716 -0.038687427 0.02282015 0.059970483 -0.041872956
0.055022817 -0.014419745 -0.0893147 -0.06548679 -0.11128206 0.0012375085 0.08084711 0.11294777

rnn_layer.bias_ih_l0 f4 [64]
00000000: fff6 5e3d ded1 3a3d f90b e9bd bd4c 843d
00000010: 84eb b03d 7359 bdbd 8370 673d d38b ca3d
00000020: edd7 cdbd 8dde d23d 01de eebb fb10 eebd
00000030: 5dea 36bd 9eec 313d fdb7 683c f73e 89bd
00000040: 13a1 69bc 5f42 30bd 3ac0 8cbd 2933 89bd
00000050: de0f c5bd 3b79 6bbd 066b 513d 215c 85bd
00000060: 3d46 b43d 08e4 c2bd e9f5 43bd ceea bb3d
00000070: e1cb a8bd 6f74 3abd 0e2c 103b 77cc f43d
00000080: 4cc3 b93d 4418 833d 2536 a83c 15b4 213d
00000090: 53bd c6bd 7cb4 b9bd 7ff4 c43d a3f0 15bd
000000a0: f765 08bd 2286 b4bd c977 1cbd 65ec eabd
000000b0: 14f3 acbd ef2f f93d 47db 28bc 45db 543d
000000c0: fafc c83d ffe6 89bd b5ec 053d 433b edbd
000000d0: ed67 303d dc22 dcbc 29a9 d73d 2693 dd3d
000000e0: 13dc e2bc 675e 3bbd 9144 0f3d 993b cdbd
000000f0: ac93 e53d 75dc 173c a557 bb3d f59b a13c
0.054434773 0.0456103 -0.11379237 0.06459949 0.08638671 -0.09245577 0.056503784 0.098899506
-0.1005095 0.102963544 -0.0072896485 -0.116243325 -0.0446571 0.043438546 0.0142040225 -0.06701463
-0.0142595945 -0.043032046 -0.06872602 -0.06699211 -0.09622167 -0.05748866 0.051127456 -0.06511713
0.088024594 -0.0951615 -0.04784194 0.09175645 -0.08242012 -0.045521196 0.0021998915 0.11953061
0.09070453 0.06401113 0.02053363 0.03947838 -0.097040795 -0.09067628 0.096169464 -0.036606442
-0.033300366 -0.08814646 -0.038200174 -0.1147087 -0.08444801 0.12167346 -0.010306186 0.051966924
0.098138765 -0.06733512 0.032696445 -0.11583569 0.04306786 -0.026872091 0.105303116 0.10819082
-0.02769283 -0.045744326 0.0349775 -0.10021133 0.11209807 0.00926887 0.09147576 0.019727686

rnn_layer.bias_hh_l0 f4 [64]
00000000: edae 9abd abf5 f2bd 8bec fe3c 77f0 ca3d
00000010: fd6f 3ebc 75eb a7bd 232e 013d bf01 d5bd
00000020: 15de c0bd edf5 8ebb 0482 eaba 97f2 6f3c
00000030: ee45 aabd ddeb e03c dcd8 b3bd f9ce aebd
00000040: 6620 f13c 617d debd 4481 253c 37b9 50bc
00000050: db9d 0f3d 1fb5 efbd a737 c2bd 6345 95bd
00000060: 3bdb 17bd 6d94 28bd 909f f33d 385d 983d
00000070: 4de4 943d 2dce 453d 1dde 18bc 0fd0 813d
00000080: 1aa6 df3d 9a61 82bd a506 e2bd 5e51 cfbc
00000090: 6c99 32bc 5688 e1bd 45c2 56bc 593f c93d
000000a0: 56e4 91bc 66a8 c63b 1769 c93b 034e b0bd
000000b0: dcd2 f83d 314b f33d 5452 d5bc d53d 1b3d
000000c0: f457 e2bd 53ac 93bc 90df 463b 819f 91bd
000000d0: e758 efbd fe72 773d 556c 4d3d 5888 8abd
000000e0: 4f78 a0bd dd2a 0a3d 1379 4cbd bd5d b63d
000000f0: ca10 c7bc 1374 0dbd ed9b fb3d 6db6 b63c
-0.07552896 -0.11863264 0.031118652 0.09909146 -0.01162338 -0.08199207 0.03153814 -0.10400724
-0.09417359 -0.0043628127 -0.0017891531 0.01464524 -0.08314119 0.027456218 -0.08781597 -0.08535571
0.029434394 -0.10863758 0.01010162 -0.012739471 0.035062652 -0.11704468 -0.09483271 -0.07288625
-0.03707431 -0.041157175 0.118956685 0.07439655 0.072701074 0.048292328 -0.0093303 0.06338512
0.10920353 -0.06366272 -0.110364236 -0.025307354 -0.010900836 -0.11012332 -0.013107841 0.09826536
-0.017809074 0.006062555 0.006146561 -0.086086296 0.12149593 0.11879576 -0.026040234 0.037900764
-0.11051932 -0.018026507 0.0030345656 -0.07110501 -0.11686879 0.0604124 0.05015214 -0.06764287
-0.07835447 0.033732284 -0.049920153 0.08904598 -0.024299998 -0.034534525 0.122856 0.022303784

fc.weight f4 [3, 64]
00000000: 5bfd 87bd 4c60 933c 12c7 743c d146 a63b
00000010: c4d8 a73b ee76 9f3c c53c c3bd db4d 0fbd
00000020: debc 9ebd 03ab 823d 7b88 8b3d 9835 90bd
00000030: b9c2 e6bd f69c fa3c a168 fbbd ce54 803d
00000040: 4737 4bbd 3931 36bc 7673 703d a647 d7bb
00000050: e5a2 863c 871f 4a3d 77e8 933d 9a2b 96bd
00000060: f5e8 a03d 75f7 5abd d13f 86bd 5804 ba3d
00000070: 47e5 e63d 5265 e03d eace a13c ba72 8b3d
00000080: 2e4a e3bc eb7b 89bd 399e bd3d 1127 cd3d
00000090: 976d 693d de3a 8fbd 7634 163d 4f2e 833d
000000a0: 676f e93d 337d 643d 0f30 2abd 2cd8 c23d
000000b0: 77da cfbd e0d9 e93d 19f6 debc 55ea 6e3d
000000c0: f577 a23d d37d f6bd aaa5 cd3d 6ee6 abbd
000000d0: 94de 5ebc e34d 1c3d c0f2 d93d b20f 8c3c
000000e0: b058 003b 19f1 f83d df29 c9bd c1eb 243d
000000f0: a3f7 b8bd 4fb0 ad3d 4418 493c ca62 94bd
00000100: 5f21 cf3d 6495 b23d 35c2 e43d 824b 85bc
00000110: 5abb f6bd 10e5 ca3b 3da4 e4bc 9de8 23bd
00000120: 6a13 883d 85cf 963d b3ac bcbc 4bbb 903d
00000130: 095c 0b3c cb1e 8fbd e6bf 9ebd 1b2c d6bd
00000140: f449 b4bc f0b4 f63c 0c4a b33d ea90 58bd
00000150: 392f 82b9 1b99 debd 1f97 c23d 6043 913d
00000160: d52b f9bd 2706 943d fd9d f63d 308d 793c
00000170: 0631 2dbb 5cef 9ebd c290 d0bd 1219 b23d
00000180: 7da1 993d bfbc b5bd 5676 d2bd a756 c5bd
00000190: 1b9e cbbd 1d46 d3bd 3405 f1bd 6838 6abd
000001a0: dae6 81bd 200f 4fbd 46ee 1dbd 34f8 b1bc
000001b0: 746d dfbc bb0d d93d f62b ebbd 0bb0 413d
000001c0: bc53 5abd 8433 83bc 2223 50ba 2a28 2a3d
000001d0: 7f1c 993d ffec 01bd f958 9e3b 743c e73d
000001e0: aa7c fe3d 1e0e 863d dede 69bc 8a2c 813d
000001f0: f49f d8bc 436c 263c 579e 2dbd d84e 12bd
00000200: a951 d83d 35b9 b73d fd5a 063d 21e9 9a3d
00000210: 7052 c9bd 2feb 19bb e687 3ebd 0afb 273c
00000220: 499e 1e3d 0912 e43d 3e4b 553d fc9d 82bd
00000230: 87c5 cb3d e4bc 643c 278c 863d 3386 743c
00000240: bdd0 bd3d a58c 9e3d 2812 2e3c 197d 4f3d
00000250: a958 e43d f69a d8bc b155 463d 2d1b 7f3d
00000260: 3df6 d13d 88a0 cd3d 0982 fa3d 8cba e5bd
00000270: e9a1 773d 2210 b23d 5226 e8bd e065 c43d
00000280: 3636 cdbd 4282 373d 03cb c83d 5ee4 8cbc
00000290: 27a8 a2bd d4a6 e23d cae9 0a3d bfec ab3d
000002a0: 1f33 163d 4515 f8bd 217e b43d 0359 1b3c
000002b0: 04fc b6bc c104 33bd 6fb8 c8bd 4d9f 6bbd
000002c0: dd77 a6bd ad3b 383d 32e5 c63d 1095 cbbd
000002d0: 6a55 873c 63e7 41bd 20ba d43d f945 52bd
000002e0: 9018 023b 4a3c 0fbd 04f8 c8bc 8988 50bd
000002f0: 7710 f93d 84d5 9ebc 4875 8dbb 1778 63bd
-0.066401206 0.017990254 0.01494004 0.00507436 0.005122276 0.01946589 -0.09533075 -0.034986358
-0.07750867 0.06380274 0.06813141 -0.07041472 -0.11267609 0.030592423 -0.12275816 0.06266175
-0.049613263 -0.011120134 0.058703862 -0.0065698205 0.016435096 0.049346473 0.072220735 -0.07332535
0.07856933 -0.05345865 -0.06555141 0.0908286 0.112742 0.10956825 0.019751985 0.06808992
-0.027745333 -0.067130886 0.09258694 0.10017217 0.05698928 -0.0699365 0.036671124 0.06405317
0.113982014 0.05578346 -0.04154974 0.09513888 -0.10149091 0.114185095 -0.027216958 0.058328945
0.07933036 -0.12035718 0.100413635 -0.0839356 -0.013602871 0.038160216 0.10642004 0.017097328
0.0019584112 0.12155361 -0.098224394 0.040263895 -0.09031608 0.08480894 0.012273852 -0.07245405
0.10113787 0.087199 0.111698546 -0.016271356 -0.12047453 0.006191857 -0.027910346 -0.04001676
0.06644328 0.073638 -0.023031568 0.07066973 0.00850583 -0.06988295 -0.077514455 -0.10457631
-0.02200792 0.030115575 0.08754358 -0.052872576 -0.00024830716 -0.10869046 0.0950148 0.07092929
-0.121665634 0.07227736 0.120418526 0.015231416 -0.0026426925 -0.07760498 -0.1018386 0.08696188
0.075015046 -0.08873891 -0.10276477 -0.09635668 -0.099422656 -0.103161074 -0.117685705 -0.0571827
-0.063428596 -0.050551534 -0.038557313 -0.021724798 -0.027273871 0.10598322 -0.11482994 0.04728703
-0.05330251 -0.016015776 -0.00079398055 0.04154221 0.07476138 -0.031720158 0.0048323837 0.112908274
0.124261215 0.065456614 -0.014274327 0.06307323 -0.02644346 0.010157648 -0.042387333 -0.035719723
0.105624504 0.08970872 0.032801617 0.07563997 -0.09830177 -0.0023486128 -0.04651632 0.0102527235
0.03872517 0.111362524 0.05207371 -0.063777894 0.09949785 0.013961051 0.06569701 0.014924574
0.09268329 0.077416696 0.010624446 0.05065641 0.11149723 -0.026441079 0.048421565 0.062281776
0.10252044 0.100403845 0.122318335 -0.112172216 0.060457144 0.08694483 -0.11335434 0.095897436
-0.100201055 0.044801958 0.098043464 -0.017198738 -0.07942229 0.11066976 0.033914365 0.08394765
0.036669847 -0.12113432 0.0881312 0.009481671 -0.022336967 -0.043705706 -0.09800803 -0.057524968
-0.08128331 0.044978786 0.09711684 -0.09940541 0.01652022 -0.04733981 0.10387063 -0.051336262
0.0019851066 -0.034969606 -0.024532326 -0.05091146 0.121613435 -0.019388922 -0.0043169595 -0.05553445

fc.bias f4 [3]
00000000: 36c5 9abd af46 36bd 7a04 863d
-0.07557146 -0.044501003 0.065438226
