trainedModels/1619582509/rnn.pt (torch, 22538 bytes, 6 tensors)

rnn_layer.weight_ih_l0 f4 [64, 12]
00000000: 84b6 2ebd 544f 97bd bc48 c9bd dfd7 05bd
00000010: a8bc a53d 19aa b1bd f01b 11bd 9a26 dd3d
00000020: 2116 dbbd cd18 503d 4855 203d ab23 8ebd
00000030: 8893 083d 5d3c 97bd 6b1b f93d 161a 933d
00000040: 1088 09bd 41b1 cb3c 6075 d23d 74b5 3e3d
00000050: da1d e9bd 0444 fa3d 48f8 19bd 2832 f6bd
00000060: 96f2 de3d 8f3c 3e3d 3cf2 463c c515 c2bd
00000070: e2bf bbbd d9a3 80bd 46fb a53d 8856 353d
00000080: cd4a 94bd ad46 a63d 4ad4 873d 5715 fc3d
00000090: 326b 893d f840 b33d 8632 b03d cb8e b13c
000000a0: 8a98 b63d 521d 25bd 0c1b b8bd 1a95 f73d
000000b0: 4a75 61bd e214 07bd d4f8 d3bd aa1e 2cbd
000000c0: 18f3 4f3d 566e fabd 744f 433d e33f 41bd
000000d0: 6a27 e83d 7adb afbd 0aed ef3d 6465 dc3d
000000e0: fdbb b6bc f11c 1b3d 28a1 a7bd f880 a1bd
000000f0: 9875 28bd f875 b839 9571 76bd 9329 08bc
00000100: 6cf0 2ebd ef6c 653d a66e b7bd 8076 dabc
00000110: 34ba d4bd d612 e1bd a240 b83d 7300 483b
00000120: 5cb1 8bbd 69df 98bd 97a0 d0bd 6764 ce3c
00000130: 5e9e d23d 4659 92bd 7022 3f3d 5c32 de3d
00000140: e99e 55bd 0a41 acbd 08da ef3d 7468 9e3d
00000150: 2a82 8f3d 62d6 debd 745b 85bd b3bb b1bd
00000160: 8c1f 853d d574 ec3d 0c37 a53d d61c dd3d
00000170: b1ac 4e3d 69a9 273d 40e0 7f3c 57cd fa3d
00000180: c03b 9c3d ed90 01bd de05 acbd 945d d2bd
00000190: 3653 cdbd 1280 e2bd 3001 efbd 58c3 423d
000001a0: 9554 7a3d e2b3 093c c004 d53c 2fea 73bd
000001b0: 3015 bcbd c9d9 e8bc 4b50 a5bd bdc2 ab3d
000001c0: d829 79bd 618c 893d 6892 d7bd b83d c8bc
000001d0: 9f37 aa3d 970d 0bbc d03a 553c d798 a13d
000001e0: 6406 b8bd 58e1 d0bd d2d5 a23d 0ff1 413c
000001f0: 922a 993d af0b 273c 8c59 43bd a8d5 d33c
00000200: f881 eb3d 77df b53c c072 a6bb 175d 863c
00000210: 5410 1e3d 7151 0d3c e204 f63b 393c dabd
00000220: ae4c 8cbd 8977 bc3d 0c87 4fbd e8b3 b93c
00000230: f81d 7e3d 5a3a e5bc b605 ebbd 0f12 88bd
00000240: c827 eebd 50ed 273d 1a53 a0bd cd71 d33c
00000250: a8d6 a53d 1167 a7bd bc51 05bd 62b5 bd3d
00000260: 7388 f6bd 6547 db3c c057 dcbd cf48 e6bd
00000270: d0de 34bd e18c fe3c 3cc8 e0bd ac50 9ebc
00000280: 7090 3fbc 0e14 be3b 00b9 f23b a834 18bd
00000290: 193c 49bc e6d3 05bd e052 9f3b 96c1 143d
000002a0: d869 aabc ed84 dbbd 6526 f43d e024 d23b
000002b0: bc2d b1bd 20a0 3a3c e612 853d 0042 643d
000002c0: 36ef 88bd beaf 99bd 944e cfbd 2897 d53c
000002d0: 88d5 dd3d 34d9 28bd 3cd4 2bbd 91ca e5bc
000002e0: a4ff edbd 0d65 fbbd 7ee8 9c3d 3e3c 84bd
000002f0: c572 f33d ad7f bcbd 44d1 2fbd 072d a3bd
00000300: 56b4 90bd 376a b3bd 5370 ba3c 5c76 293c
00000310: 24e8 ff3d 0af1 ebbc 1a4d 8e3d 88b9 1d3d
00000320: 6717 cfbb 5ad9 a43d b496 5dbd 7e5b c13d
00000330: 80ed fabc 7abc 97bb 69ef ae3c 7183 aabd
00000340: dece 943d ed09 51bd e0d3 c8bb e06d b43d
00000350: 6364 ac3d eb98 82bd 8008 89bb 4b75 343d
00000360: 7253 b93d 1ee7 c0bd 8c0e a7bd c19b 703d
00000370: 587e e1bd 1c7b a23d 9ec1 ad3d 4444 65bd
00000380: 2302 0fbd cfc5 94bc 3eb7 8d3d 7a45 ddbd
00000390: 10df 9bbc da2e a23d 66a2 71bd 1cef c73c
000003a0: 8609 b03d d85f 923d b084 0e3c a4bc 46bd
000003b0: 0e59 99bd 16a9 423d 74ca 703d b44b cc3c
000003c0: a0c4 96bd 74bb bdbd eada 073b 321b 13bd
000003d0: 689e 74bd a8c1 ea3d d64e 84bd 2e28 d5bd
000003e0: 6c3a c03b 8c65 933d 68a4 e43c e636 39bd
000003f0: 9865 c03d 7b86 bd3d 296e f03d fbe0 c53d
-0.04265453 -0.073881775 -0.09828326 -0.032676574 0.08092624 -0.08675022 -0.035427034 0.10798378
-0.1069758 0.050804902 0.03914383 -0.06940397 0.03334382 -0.0738456 0.12163433 0.0718271
-0.033577025 0.024864795 0.10276294 0.046559766 -0.11382647 0.12220004 -0.037590295 -0.12021285
0.10886113 0.046444472 0.012142714 -0.094768085 -0.09167458 -0.062812515 0.08104567 0.044271976
-0.072408296 0.08118949 0.06632288 0.12308758 0.06709899 0.08752626 0.086033866 0.021674534
0.08915813 -0.040311165 -0.08989534 0.12088986 -0.055043496 -0.0329789 -0.103501946 -0.04202143
0.05076894 -0.12228076 0.047683194 -0.047180068 0.11335643 -0.08586784 0.117151335 0.10761526
-0.022306437 0.037869398 -0.08185035 -0.07885927 -0.04112777 0.00035183108 -0.060166914 -0.008310693
-0.042709753 0.05601209 -0.089566514 -0.026667833 -0.10387078 -0.10989921 0.08996703 0.0030517846
-0.06820938 -0.07464487 -0.1018688 0.02519436 0.102841124 -0.07145934 0.0466637 0.10849449
-0.0521535 -0.08410843 0.11711508 0.077347666 0.07007249 -0.10880734 -0.06511584 -0.08678379
0.06500158 0.115457214 0.0806714 0.10796516 0.05045766 0.040933046 0.01561743 0.12246197
0.07628584 -0.031632353 -0.083995566 -0.10271755 -0.10025637 -0.11059584 -0.116701484 0.047549576
0.06111582 0.008404704 0.026003242 -0.059549507 -0.09183729 -0.02842416 -0.08071955 0.08386753
-0.06083092 0.06716228 -0.10525972 -0.024443492 0.0831139 -0.008487127 0.01301451 0.0789048
-0.08985594 -0.10199231 0.07950939 0.011837258 0.07478823 0.010195657 -0.04769282 0.025858715
0.11499399 0.022201283 -0.0050795972 0.01640181 0.03858979 0.008625374 0.0075079063 -0.10656018
-0.06850563 0.09202487 -0.0506659 0.022668794 0.0620403 -0.027981926 -0.11475699 -0.066440694
-0.116286814 0.040997803 -0.0782835 0.0258111 0.08097583 -0.08173955 -0.03254865 0.09263112
-0.120377444 0.026767442 -0.107589245 -0.11244356 -0.044157803 0.031073036 -0.10975692 -0.019325577
-0.011692151 0.0058007305 0.0074073076 -0.037159592 -0.012282395 -0.032672785 0.0048621744 0.03631743
-0.020802423 -0.10718713 0.11921386 0.0064130872 -0.08651301 0.011390716 0.06497745 0.055727005
-0.06686251 -0.07504223 -0.101224095 0.026073053 0.108317435 -0.041222766 -0.04195045 -0.028050693
-0.11621025 -0.12275133 0.07661532 -0.06456803 0.11887125 -0.0920404 -0.04292418 -0.07967573
-0.07065646 -0.08760493 0.022758638 0.0103431605 0.12495449 -0.02880146 0.069483 0.038507015
-0.0063199284 0.08049269 -0.0540988 0.09441279 -0.030630827 -0.0046306225 0.021354394 -0.08325852
0.07266019 -0.051034857 -0.006128773 0.088100195 0.08417585 -0.06376823 -0.0041819215 0.04405717
0.09049119 -0.09419082 -0.081570715 0.05874229 -0.11010426 0.079336375 0.08484195 -0.055973306
-0.034914147 -0.018160729 0.06919716 -0.10804267 -0.019027263 0.079190925 -0.058992766 0.024406008
0.085955665 0.07147187 0.008698627 -0.048519745 -0.07487689 0.047524534 0.058786824 0.024938442
-0.07361722 -0.092642695 0.0020729848 -0.035914607 -0.05972138 0.11462718 -0.06460349 -0.10408054
0.0058663394 0.07197103 0.027910426 -0.04521837 0.093943775 0.09254166 0.117397614 0.09662052

rnn_layer.weight_hh_l0 f4 [64, 64]
00000000: 8aae ad3d c781 39bb 9037 38bd ac73 1abd
00000010: 7874 c33d 3c55 113c 30d2 84bc 4208 f7bd
00000020: d53a 8ebd 4d70 8abd 4e87 333d 043d 943d
00000030: ea11 f9bd 8a39 f2bc e7fb 363c 6acb f8bc
00000040: bdde eabd d157 63bd 365e 45bc d7a0 0e3d
00000050: adb7 513d ca60 193d 30de 0abd 3b39 cbbd
00000060: 9d95 773c de97 97bd 30e3 db3d 3eaf 133d
00000070: e671 03bc c55e d73c 6452 02bd b4e3 4a3c
00000080: e38a 57bd e8c7 b2bd db60 cebc 903e ca3d
00000090: e59b 91bd e07c 903d ca7e 0f3d 2272 fb3d
000000a0: 4ff5 993d a770 2f3d 0c5f b0bd b3ab 0b3d
000000b0: e9e6 6fbd 1be1 28bd 1966 613d 022a e4ba
000000c0: 9507 56bd 6bdf ed3c 8445 a5bd 919e b1bd
000000d0: fc8a 893d 29dd ce3d 1b4f f7bd 4640 c93d
000000e0: b7b0 91bd 53ca b03d 0e2c fdbc 9c79 ec3d
000000f0: 9ed7 5c3d 00ee 8d3d 575f 69bd 838d a5bc
00000100: 56e8 b8bd 8cd1 cf3d f000 8e3d 80ce f23d
00000110: 1b21 223d 682f efbd 342c f63d 831f 91bd
00000120: 7809 8d3d d621 99bc da54 5f3d ae07 adbd
00000130: c9de eebb a3a5 053d f27e f83d 3f3a 083d
00000140: 43e4 613d 3aa5 3b3d 4c09 dbbd c3c7 b7bd
00000150: 9fca 9cbb 995b 5abd fac8 533d 728d e83d
00000160: 730a 8b3d abf5 af3d d2db 6fbd c678 e63d
00000170: fef5 80bd 4c1e 923d e0f1 f03d d5d2 a43d
00000180: e307 c73d 4d64 243d 5046 763c 9e99 51bd
00000190: 2b4f be3d eff5 bebd 5b96 aa3b 95f4 80bd
000001a0: fecb e73d 9ead 18bd eff8 853d 4833 cabd
000001b0: 6a3f dcbc 759e f23b a770 f63c 7a29 1fbd
000001c0: 66a9 9bbd 9730 973d 6379 ddbd 1c45 98bd
000001d0: 57fa a33d 55f6 933d da8a 8ebc f338 a3bc
000001e0: 2e69 073c 88c9 b73b dbe9 f43d a433 2b3d
000001f0: e99e e2bd 8b64 dd3d c320 dc3b 4c17 edbc
00000200: 63fe b03d 5202 3bbd e3aa c93d c78a 66bd
00000210: ea8d 9f3d b7e7 86bd 3673 813d 7f00 1fbd
00000220: 01f0 b63d 266e 1abd e1ec ed3d 69fa 843d
00000230: 837d 50bd b092 843d 5bb2 723d b52c ddbd
00000240: 49ec 8d3d 55b0 6e3d 8dd0 a2bd c199 743d
00000250: f160 ad3d 484f f9bd 38ab afbc a955 b73d
00000260: c194 c33d 1036 043d 0619 c9bd 8217 51bc
00000270: a201 b83d 9620 40bd 2eee 033d 2514 fb3d
00000280: 8482 eb3d e953 8e3c 56f1 9d3d c4da 643d
00000290: 86a7 c7bd c8e9 cb3d 631d 3e3d adbd cf3d
000002a0: 7fe5 cc3d 854d e63d 4214 863d 394b 93bd
000002b0: a913 a7bd c033 ef3c c910 043b 5e58 38bc
000002c0: 5f93 b43c 9431 a3bc 4d99 f6bd 45fa d6bc
000002d0: 0e94 f7bd 908a f2bd ad1e b9bd a570 de3d
000002e0: 04f7 a5bd 7abd 84bd 000c d13d e0e2 613c
000002f0: 362e ab3d 0181 34bc c8e7 20bd e428 ddbc
00000300: a90d 83bd f35c 77bd c669 9fbc 5ddc 25bd
00000310: 2f1b 913d 715b bebd 25fe 9639 45da c8bc
00000320: 4bb3 503d 21d6 c6bb c159 01be cd5a de3d
00000330: aeb1 6e3d e905 4c3b 2b02 f0bd b1e5 e7bd
00000340: d8e3 09bd 1a50 653d 0c5c cf3d 2db1 a1bc
00000350: acd0 e0b9 cec2 d0bd 0dc9 f53d 85bf fd3c
00000360: c258 993d 4dc2 8bbd b30a fc3c 7b8e 99bd
00000370: de0d a3bd 70a2 29bd d4e2 debd b5f6 ba3d
00000380: 0ec4 63bd fd49 dbbd 90cd dc3d 5f21 f53b
00000390: 3c3a 7dbd 4754 9d3d 5b52 a43d 68e0 283d
000003a0: 9c0d 133d c068 0b3c def1 15bd 586d 0b3d
000003b0: 579a f13a f03f 82bd 1515 603d e8c0 a63d
000003c0: 82cd e6bd f359 c33b fd61 c13d 5cfb b0bd
000003d0: 528e 37bb 89a6 a4bd fe29 6e3d cd19 7dbd
000003e0: adeb 743b 2eeb 9bbd 3398 edbd c105 f4bc
000003f0: 1e10 5d3d a896 f43d fe46 11bd c90a 063b
0.08480556 -0.0028306113 -0.044974864 -0.03770797 0.09543699 0.008870419 -0.016213506 -0.12062122
-0.06944815 -0.06759701 0.04383021 0.072382 -0.1216162 -0.029568452 0.011168457 -0.030370433
-0.11468265 -0.05550367 -0.012046387 0.034821358 0.051200558 0.03744582 -0.0339033 -0.09923025
0.015111354 -0.07402013 0.10736692 0.036055796 -0.008022761 0.026290307 -0.031816855 0.01238339
-0.052622687 -0.08729535 -0.025192669 0.09875214 -0.07109813 0.07055068 0.035033025 0.122776285
0.07517492 0.042832043 -0.08611879 0.034099292 -0.058569822 -0.041230302 0.05502901 -0.0017407539
-0.052253325 0.029037198 -0.080699 -0.08672822 0.06715962 0.10100777 -0.12075635 0.09826712
-0.07113784 0.0863234 -0.030904796 0.11546633 0.053916566 0.069301605 -0.05697569 -0.02020908
-0.090286896 0.1014739 0.069337726 0.11855793 0.039582353 -0.11678964 0.1202015 -0.070860885
0.06886572 -0.018692892 0.05452428 -0.084487304 -0.0072897417 0.032628667 0.12133588 0.033258673
0.055149328 0.04581187 -0.106951326 -0.089736484 -0.0047848965 -0.05331001 0.051705338 0.113551036
0.067891024 0.08591779 -0.058559246 0.112535045 -0.06296919 0.07134685 0.11764884 0.080480255
0.09718301 0.040134717 0.015031412 -0.05117189 0.09292444 -0.09324252 0.005205912 -0.0629665
0.11318205 -0.03727495 0.06541621 -0.09873062 -0.026885707 0.0074041435 0.030083014 -0.038857915
-0.076006696 0.07382315 -0.10814168 -0.074350566 0.08006733 0.072247185 -0.017400194 -0.019924616
0.008264823 0.005608741 0.11958667 0.041797295 -0.11065466 0.10810193 0.0067177727 -0.028941773
0.086422704 -0.04565651 0.09847047 -0.056284692 0.0779074 -0.06587165 0.06320803 -0.038818832
0.08932496 -0.037702702 0.11617447 0.064930744 -0.050900947 0.06473291 0.059252124 -0.10799543
0.069298334 0.058273632 -0.07949934 0.059716944 0.08465756 -0.12173325 -0.021443948 0.08951885
0.09549857 0.03227812 -0.09819226 -0.012761952 0.089846864 -0.046906076 0.032209568 0.12259702
0.11499503 0.017373996 0.07712047 0.055872694 -0.097487494 0.099566996 0.046414744 0.101436
0.100047104 0.112452544 0.065468326 -0.07192082 -0.08158047 0.029199481 0.0020151606 -0.011251537
0.022042928 -0.019921102 -0.120409586 -0.026242385 -0.12088786 -0.11842835 -0.09039054 0.10861329
-0.08103755 -0.06481452 0.10207367 0.013787001 0.083584234 -0.011017085 -0.039283544 -0.026997037
-0.0639909 -0.060391378 -0.019459616 -0.040493358 0.07085263 -0.09294785 0.00028799582 -0.024518142
0.050952237 -0.0060680066 -0.12631895 0.108571626 0.058274917 0.0031131452 -0.117191635 -0.11323107
-0.033664554 0.055984594 0.101249784 -0.019737804 -0.00042880082 -0.10193406 0.12001238 0.030975113
0.07487632 -0.06824169 0.03076682 -0.07497879 -0.07961629 -0.041414678 -0.10883108 0.09129087
-0.055606894 -0.107074715 0.107813954 0.007480785 -0.061823115 0.0768209 0.080235206 0.041229635
0.03590165 0.008508861 -0.036607616 0.034039825 0.0018432838 -0.06359851 0.054707605 0.08142263
-0.11269666 0.0059616505 0.09442518 -0.08641693 -0.0028008414 -0.080395766 0.058145516 -0.061792184
0.003737192 -0.07613216 -0.11601295 -0.0297879 0.05397045 0.11942798 -0.035468094 0.0020453206

rnn_layer.bias_ih_l0 f4 [64]
00000000: 7238 90bd b9c4 a6bc cc83 fe3c b5fd 50bc
00000010: 682a 7abd 761d ac3d cc2f 9d3c 9789 953c
00000020: fcc4 80bd f6d4 ec3d 1c6f e63d cbe7 223d
00000030: f8a6 963d 632f 663c 38fb a03d b642 9d3c
00000040: 8d08 cbbd 84eb 8e3d c6c4 d6bc dc87 633c
00000050: 3c6c a1bd db55 4abd e9f7 803d 9c73 f53d
00000060: 0ef2 e83d c592 d6bd 8a9e e33d 278b af3d
00000070: 5ff1 073b 09af a23d 6d8b adbd a931 f2bd
00000080: f585 95bd f439 d73d 533d 5ebd 52ba 99bd
00000090: daaa e0bd 1d56 debd 6283 22bd 20ce d13d
000000a0: d54b d2bd c611 5b3d e16c 653d 73fe 3c3d
000000b0: 3a32 f1bd 21a6 ebbd 6313 40bd b872 8a3d
000000c0: 1282 883d 68d0 dbbd 9d89 95bd 2f15 843d
000000d0: 6d8a dfbd 88cb 42bb a631 3abd 32ee 133d
000000e0: e834 7abd c414 0abd 162e f73c a7b7 053d
000000f0: da3c a4bd 9e2c c23c 39cf ac3c 606f e4bd
-0.07042016 -0.020357477 0.031068705 -0.012755801 -0.061075598 0.08404057 0.01918783 0.018254085
-0.06287572 0.115640566 0.11251661 0.039771836 0.073560655 0.014049384 0.07860416 0.01919685
-0.0991374 0.06978515 -0.026216876 0.013887372 -0.07881972 -0.049398284 0.06297285 0.11984941
0.11374293 -0.10477213 0.11114223 0.08571463 0.0020743234 0.079435416 -0.08473859 -0.11825878
-0.07300941 0.105091006 -0.054257702 -0.07506241 -0.10970087 -0.108562686 -0.039676078 0.10244393
-0.1026837 0.053483747 0.05601204 0.0461411 -0.11777158 -0.11506296 -0.04689349 0.06760162
0.06665434 -0.1073311 -0.07301638 0.06449353 -0.109150745 -0.0029723365 -0.045457505 0.036115833
-0.06108561 -0.03371121 0.030173343 0.032645848 -0.08019419 0.023702916 0.021094905 -0.111540556

rnn_layer.bias_hh_l0 f4 [64]
00000000: 8c1a 95bd 82b1 dcbd 44f0 d6bd ab04 9b3d
00000010: 8953 acbd b19d 6a3d e6c6 5dbd b76d ba3d
00000020: fef9 f53b c617 c1bd 9cca a33d f012 db3d
00000030: 5f8f 213d 2a07 bd3c 9ed8 d33d 3ad4 c5bd
00000040: 6bee fc3d 5481 d23d be7b db3d f1a2 25bd
00000050: dc6d ef3d 3011 c7bd 0e8d 29bd 6a49 9d3d
00000060: 5e55 b13d 7db6 2fbc aa26 b3bd 558a cbbd
00000070: fdc1 9c3d 7e0f 4bbd 057a dd3d 3d57 dc3d
00000080: 2921 ba3c aa26 3ebd 825b 813d 0a16 203d
00000090: c4be 92bd d712 e23d 0638 143d 19a1 013d
000000a0: ff7d b53d fb68 d33c b723 c23d 674b f53c
000000b0: 2653 e2bb 996e b53d c7f0 3cbd 027e 7bbd
000000c0: 3673 d9bd 9c5a d93d 01dc 933d d094 f9bc
000000d0: 0511 c13d 086b 0ebb 1ae0 683d 0cda fe3d
000000e0: e075 61bd 2f46 94bd 2fa9 d8bd 881e d6bd
000000f0: c0c6 da3d fc6e 6d3c e4bc 09bd 0f1e 61bd
-0.07280454 -0.107760444 -0.10495046 0.0756925 -0.084143706 0.057279292 -0.054144762 0.09102958
0.007506608 -0.094283625 0.07997629 0.106969714 0.03944337 0.023074705 0.10344051 -0.0965962
0.12350162 0.10278574 0.10716961 -0.040438596 0.11690876 -0.09720075 -0.041394286 0.07680018
0.086588606 -0.010724661 -0.08747609 -0.09938494 0.07654188 -0.04957532 0.10814289 0.10758827
0.02272089 -0.04642359 0.06316282 0.039083518 -0.07165292 0.1103875 0.03618624 0.031647775
0.088619225 0.025806895 0.09479468 0.029943181 -0.0069068847 0.088589855 -0.04612806 -0.061399467
-0.10617678 0.106129855 0.07219697 -0.030466467 0.09427074 -0.0021731276 0.056854345 0.12443933
-0.055044055 -0.07239949 -0.10579144 -0.10455042 0.1068244 0.014491793 -0.033627406 -0.054960307

fc.weight f4 [3, 64]
00000000: 46bd 933d 9e53 f9bd d020 efbc b780 f73d
00000010: 8d64 a7ba 54c5 973d 0184 c6bd 426a 893d
00000020: 832c 013e 08eb 2dbc 5f08 9cbc 858f 3dbd
00000030: dde8 a8bd 641f 99bd c4c8 8bbd c7c7 e3bc
00000040: cda8 3f3c 8159 473d 551c b8bd f459 d53d
00000050: 2f66 a8bd ecd5 8abc 57de c33c 91db f63d
00000060: 2cb6 8cbd 0e4d 92bd 5ad6 ea3d f047 be3d
00000070: f943 c7bc db20 6ebc 1d67 89bd 2506 ffbd
00000080: 5d49 c03d 2723 2e3d a2d0 ed3d 71e8 ca3d
00000090: 85c5 523d 1464 9f3d 551b 4f3d 1fdd ae3d
000000a0: 6fe9 dbbc 7772 adbd 7d6b dfbd f8c0 f63c
000000b0: c869 d3bd 5c72 693d fb57 d9bd 22ea 2a3d
000000c0: 0975 173d c931 9c3d 7905 5bbd 8799 043d
000000d0: cd27 bf3d 52a7 9e3d 22cd e93d 13f9 ccbd
000000e0: ede5 cb3d 54c1 943d 2566 3bbd 531c c93b
000000f0: 74f4 6f3a 113b bb3d 96f5 00be 4ab8 acbc
00000100: cd6a 3cbd 1323 e23c c574 5f3d da28 093d
00000110: df54 eb3d 6511 fc3d 8fb9 6ebc ebfb 45bd
00000120: a9f0 34bd 9108 813d df16 a9bd 1314 e53d
00000130: ed11 703a 7df7 c83d 8e9c 7e3d f99d ac3d
00000140: 511c d43d a7a1 a53c f331 0cbd 41e0 25bc
00000150: f705 853d 0581 75bd 7a0f bfbc efb6 efbd
00000160: 1a3f 95bd 81d5 f43d 4387 663d 1b84 55bd
00000170: 192f b0bd 6082 743c f9b6 823d 8910 52bd
00000180: f397 1e3d bcd1 3b3b 05f5 e83d 360a aa3d
00000190: f31a 383c fcf9 a2bd 34ba eb3d e3ed cdbd
000001a0: b19b c83d 51d6 a3bd c789 f3bc 1158 343c
000001b0: 4a37 40bc 22ef dc3d 5ea3 e3bd 5073 ccbd
000001c0: 9464 c8bc c7c6 b33d b0c0 343c 786e 7abd
000001d0: 4d77 763b c281 cf3d d77e bf3d 844e f63d
000001e0: 4952 d63d 2c2c 01bd b7a2 e7bd 058c f13d
000001f0: a1e2 3c3d 4993 58bd 517d 09bd b132 303d
00000200: 802f e93b f926 1e3d a3d0 23bd b03a d2bb
00000210: 5637 9fbc 4741 30bd f1a0 e2bd 7495 a63d
00000220: b603 bb3c c891 25bc af7d d83d 86ba fe3d
00000230: 3770 5fbd 3612 6bbd d963 07bd 4032 c53d
00000240: 407a 993d c91e 6e3d 32b4 efbd 3ca7 8cbd
00000250: 92d2 043d 8f1f a13c 64a2 bbbd e294 afbd
00000260: b92a dfbd 7530 8ebc 152a d5bd f0ca aabc
00000270: a931 afbd 5a11 ec3d 582f 9bbd b54c c3bd
00000280: d685 b73d 0659 b03d e452 92bd 174e f2bd
00000290: 90ab b43d f28a e3bc 0460 a4bd 0076 a8bd
000002a0: aa2a 48bd a1aa a63c 6d95 143d 53f6 e2bd
000002b0: 870e 383d f1e9 a1bd cbb2 77bd 7f04 1f3d
000002c0: 1e63 bbbd 1108 a73d ab9a 47bd dee3 193b
000002d0: 8890 563c 256c ccbc 0ca9 003d f710 003d
000002e0: ab6c 32bd 67ea 8c3b d2cd 273d 96c8 f33d
000002f0: 82fb ea3d e653 e83d 254b 103d dcb4 95ba
0.072138354 -0.12174152 -0.02919045 0.12085097 -0.0012771055 0.07410684 -0.096931465 0.0670972
0.12614636 -0.010615118 -0.01904696 -0.04627945 -0.0824754 -0.074766904 -0.068254024 -0.027805222
0.01169796 0.048669342 -0.08989779 0.10417548 -0.08222615 -0.016947709 0.02390973 0.12053598
-0.06870684 -0.07143603 0.114666656 0.09291065 -0.024324404 -0.014534201 -0.067091204 -0.12452344
0.09388993 0.042513993 0.11612059 0.09907616 0.0514579 0.0778276 0.050563175 0.08538269
-0.026844708 -0.08469098 -0.10909174 0.030121312 -0.103229105 0.056993827 -0.10612484 0.041727193
0.036976848 0.07626683 -0.053472016 0.032372978 0.09333763 0.077467576 0.11416079 -0.10008445
0.09955964 0.07263437 -0.04575171 0.0061374097 0.0009153553 0.091421254 -0.12593684 -0.02108397
-0.04600029 0.027604615 0.05455472 0.033486225 0.11490797 0.12308005 -0.014570608 -0.04833595
-0.044174824 0.06300462 -0.082563154 0.111854695 0.00091579446 0.0981283 0.06216102 0.084285684
0.103569634 0.020218683 -0.034227323 -0.010124267 0.06495278 -0.059937496 -0.02332281 -0.11704814
-0.07287426 0.11954785 0.05628134 -0.05212794 -0.08602733 0.014923662 0.063825555 -0.0512853
0.03871913 0.0028658947 0.11374859 0.08302729 0.011236894 -0.07957837 0.11510125 -0.10055139
0.09795321 -0.07999862 -0.029728783 0.011007325 -0.011731932 0.107877985 -0.11115144 -0.099829316
-0.024462022 0.08778148 0.011032268 -0.061140507 0.003760773 0.10132171 0.09350365 0.120266944
0.104649134 -0.031536266 -0.11310332 0.11794285 0.046114568 -0.052874837 -0.033566777 0.043017093
0.007116258 0.038611386 -0.039993893 -0.0064156875 -0.019435566 -0.043031003 -0.110658534 0.08133975
0.022828918 -0.010105558 0.10570847 0.1243792 -0.054550376 -0.057390414 -0.033054207 0.09628725
0.074940205 0.058134828 -0.117042914 -0.06867835 0.032427378 0.019668369 -0.09161833 -0.08573319
-0.108968206 -0.01735709 -0.10408417 -0.020848721 -0.08554394 0.11526747 -0.075773895 -0.09536115
0.08961074 0.0861073 -0.071447164 -0.11831301 0.088217854 -0.027776215 -0.08026126 -0.08225632
-0.048868813 0.020345034 0.036275316 -0.11082139 0.04493573 -0.07905949 -0.060473245 0.038822647
-0.091497645 0.081558354 -0.048731487 0.0023481767 0.013095982 -0.024953911 0.031411216 0.03126618
-0.043560665 0.004300404 0.04096777 0.11903493 0.114737526 0.11344127 0.035227913 -0.0011421698

fc.bias f4 [3]
00000000: 5913 8e3d c7ae b1bd dfc9 f1bd
0.06937284 -0.08675914 -0.11806082
