trainedModels/1620284238/rnn.pt (torch, 22538 bytes, 6 tensors)

rnn_layer.weight_ih_l0 f4 [64, 12]
0.042573154 0.09156556 -0.08951794 -0.11669204 0.07979724 -0.025121434 0.023240268 -0.032253668
-0.064482436 0.0807707 -0.04940392 0.014441507 0.09291163 -0.03008442 0.014851805 0.05601963
0.04601051 0.07821743 -0.0431135 -0.0802874 0.028279748 0.013689888 0.069331706 -0.026549105
-0.07112627 -0.12693445 0.066083446 0.031547703 -0.06104894 -0.00710898 -0.079710394 0.11456247
-0.03985884 -0.09607028 -0.054107875 0.09644062 -0.124877945 0.08878993 0.05074942 -0.029117934
-0.0726396 0.04484885 0.0066914707 0.013146758 0.049214922 0.05192972 0.0032894611 0.0014029964
0.009344533 -0.07027143 0.034201384 -0.043590825 -0.116830364 0.0033044096 0.08281228 0.090230465
-0.030335676 -0.055946212 -0.019107819 -0.03773762 0.054417655 0.043497536 0.09509243 0.01835255
0.08898185 -0.020116407 0.123441875 0.025692344 -0.07464145 0.07077327 -0.100232825 0.08337125
-0.016930029 -0.00587511 -0.11917042 -0.07655717 -0.04594174 0.10133528 -0.09459002 -0.024629861
-0.002691784 -0.10252272 -0.08056295 0.045126952 0.07004963 -0.119740196 -0.026792208 0.052842785
0.023218632 0.004438805 -0.10859279 -0.055667132 0.076600075 0.11267778 -0.062071696 0.099202126
0.04402569 -0.09862668 0.0872752 -0.08900366 -0.09962796 -0.096300624 0.06769343 -0.006835833
-0.06664317 -0.02726843 0.041416913 -0.08482636 -0.01814717 -0.026660345 0.094375856 0.114239894
-0.013686404 -0.04029443 0.07439552 0.0055727363 0.07530696 0.047027208 -0.06988615 -0.09770707
-0.016435474 -0.103215106 -0.051927768 0.024528297 -0.06505661 0.059263337 0.052974597 -0.064464
0.10416312 0.039608587 0.04866129 0.06749902 -0.06452696 -0.10444344 0.1101499 0.05169162
-0.041104764 0.1187557 0.11402361 -0.121584445 0.025973586 0.09685935 0.042907313 -0.11028156
-0.09278731 0.049605723 -0.02769424 0.09186822 0.08421755 0.019531026 -0.038187176 0.08520152
0.040225696 0.06432715 -0.12136093 -0.043395806 -0.018672004 -0.1170511 -0.054096498 0.005763217
-0.084328204 -0.039171234 0.10600263 0.11473149 0.01710741 0.0850673 0.051374257 0.071264565
0.11646178 0.051992998 -0.1197738 -0.095937036 -0.0883275 0.045358457 0.05847861 -0.09719108
-0.015559652 0.093203776 0.097739905 0.09735847 -0.0132226795 0.03877767 -0.11409954 -0.028037352
0.009368971 0.09574726 0.04111378 -0.04769309 -0.08784345 0.023067089 0.0030151457 -0.01782146
-0.006884232 0.026785305 -0.010473053 -0.095238455 0.031426907 -0.1087415 0.1165625 0.02734305
-0.06251836 -0.04708682 0.11585465 -0.06640925 0.10436912 -0.04366028 0.068108946 0.010225947
0.059577197 -0.063189246 -0.03376186 0.026364952 -0.062102426 0.09324541 0.08070032 -0.023635734
0.04823336 -0.0426256 -0.07198633 -0.06493038 0.036699608 0.11352299 -0.06953788 -0.11854805
0.02743767 -0.120138824 0.04058373 -0.0077736233 -0.0391683 -0.028330358 -0.009197388 -0.0059806323
-0.11128315 0.12172403 -0.033552483 -0.096664265 -0.06566786 -0.037744917 -0.023217127 0.053435214
-0.018021047 -0.010674401 0.06955949 0.047260385 0.11633541 0.016063387 0.1068507 0.052760378
0.094679244 0.051324096 -0.024555907 -0.12269466 0.036879003 0.0314425 -0.111463465 0.06787441
00000000: 3061 2e3d b986 bb3d 2f55 b7bd 3cfc eebd
00000010: bc6c a33d 77cb cdbc 6062 be3c 6c1c 04bd
00000020: 5e0f 84bd 1c6b a53d c45b 4abd 129c 6c3c
00000030: 7448 be3d 9a73 f6bc fc54 733c d774 653d
00000040: 8475 3c3d 7630 a03d c897 30bd b86d a4bd
00000050: eeaa e73c 8d4b 603c c8fd 8d3d 827d d9bc
00000060: a6aa 91bd 1bfb 01be c256 873d 2a38 013d
00000070: 740e 7abd 72f2 e8bb 343f a3bd ba9f ea3d
00000080: 0643 23bd 7fc0 c4bd 38a0 5dbd a982 c53d
00000090: 02c0 ffbd 7fd7 b53d a0de 4f3d bc88 eebc
000000a0: 12c4 94bd 6eb3 373d 2044 db3b 8065 573c
000000b0: 9695 493d 42b4 543d 0094 573b bfe4 b73a
000000c0: d019 193c 78ea 8fbd c016 0c3d 4b8c 32bd
000000d0: c244 efbd cb8e 583b 7c99 a93d c0ca b83d
000000e0: 8682 f8bc db27 65bd 0088 9cbc c392 1abd
000000f0: 0ce5 5e3d 792a 323d d2bf c23d 1658 963c
00000100: 1e3c b63d 2acb a4bc 18cf fc3d c078 d23c
00000110: 9edd 98bd 94f1 903d de46 cdbd 8cbe aa3d
00000120: d8b0 8abc ff83 c0bb 9f0f f4bd 01ca 9cbd
00000130: 682d 3cbd df88 cf3d 6ab8 c1bd 90c4 c9bc
00000140: a468 30bb 6ff7 d1bd 30fe a4bd 0ad7 383d
00000150: 2e76 8f3d 593a f5bd 557b dbbc ad71 583d
00000160: 0035 be3c 6573 913b e665 debd 3803 64bd
00000170: 80e0 9c3d 9cc3 e63d e43e 7ebd 7c2a cb3d
00000180: 4854 343d c9fc c9bd 57bd b23d 8d47 b6bd
00000190: be09 ccbd 4339 c5bd daa2 8a3d 20ff dfbb
000001a0: 377c 88bd 0b62 dfbc c8a4 293d 71b9 adbd
000001b0: 60a9 94bc cc66 dabc 2148 c13d 9bf6 e93d
000001c0: f03c 60bc c60b 25bd ae5c 983d 809b b63b
000001d0: 893a 9a3d 9a9f 403d 7820 8fbd a51a c8bd
000001e0: b0a3 86bc 7162 d3bd 36b2 54bd 91ef c83c
000001f0: 663c 85bd 1dbe 723d e4fb 583d b405 84bd
00000200: 7953 d53d 9d3c 223d 1051 473d ed3c 8a3d
00000210: b626 84bd 71e6 d5bd 4596 e13d 98ba 533d
00000220: 785d 28bd 3036 f33d 3685 e93d 4401 f9bd
00000230: 8fc6 d43c 325e c63d 94bf 2f3d 4cdb e1bd
00000240: 4607 bebd 5f2f 4b3d 08df e2bc 6825 bc3d
00000250: 407a ac3d 88ff 9f3c 286a 1cbd 227e ae3d
00000260: b3c3 243d f4bd 833d 148c f8bd cdbf 31bd
00000270: 08f6 98bc 7db8 efbd 4a94 5dbd 5ed9 bc3b
00000280: 44b4 acbd 0472 20bd e817 d93d 58f8 ea3d
00000290: d724 8c3c c437 ae3d d06d 523d 28f3 913d
000002a0: 8483 ee3d 9cf6 543d f74b f5bd a37a c4bd
000002b0: 0ce5 b4bd cac9 393d 4487 6f3d 1e0c c7bd
000002c0: e9ed 7ebc 9fe1 be3d dc2b c83d e163 c73d
000002d0: f0a3 58bc 56d5 1e3d 05ad e9bd 97ae e5bc
000002e0: 5080 193c 2417 c43d ec66 283d d459 43bd
000002f0: 44e7 b3bd 31f7 bc3c c099 453b 4ffe 91bc
00000300: 2095 e1bb db6c db3c 2b97 2bbc 610c c3bd
00000310: 80b9 003d ddb3 debd 52b8 ee3d 88fe df3c
00000320: a009 80bd 1cde 40bd 3445 ed3d 9301 88bd
00000330: 7abf d53d 1fd5 32bd b47c 8b3d bb8a 273c
00000340: 3807 743d 5d69 81bd e049 0abd 50fb d73c
00000350: 1d5f 7ebd 73f7 be3d 3646 a53d ba9f c1bc
00000360: 5890 453d 2e98 2ebd 926d 93bd 38fa 84bd
00000370: 5452 163d be7e e83d e069 8ebd 52c9 f2bd
00000380: f7c4 e03c 580b f6bd 203b 263d e1b9 febb
00000390: f06e 20bd 1115 e8bc a4b0 16bc 2ef9 c3bb
000003a0: 6ce8 e3bd 734a f93d 546e 09bd eaf7 c5bd
000003b0: df7c 86bd 6a9a 1abd d831 bebc e2de 5a3d
000003c0: e0a0 93bc afe3 2ebc 3575 8e3d 1b94 413d
000003d0: 4241 ee3d 5d97 833c 8ad4 da3d 441b 583d
000003e0: 31e7 c13d 3739 523d 7829 c9bc 5747 fbbd
000003f0: 700e 173d dac9 003d f546 e4bd bd01 8b3d

rnn_layer.weight_hh_l0 f4 [64, 64]
0.031751245 0.10020081 -0.018098682 -0.09884343 -0.02956136 0.06132893 0.03141437 -0.008059299
0.08990025 -0.09708865 -0.08203173 -0.047925543 -0.06362496 -0.06019483 0.05769334 0.003450842
-0.066114314 0.06596148 -0.03212573 0.122703046 0.009539243 -0.0071894396 0.037402608 0.09618658
-0.023072047 0.068217605 -0.07022837 -0.06634095 -0.08633848 -0.063103326 -0.10666028 0.06661495
0.12466669 0.11090936 -0.10309143 0.07429822 0.04523616 0.044489056 0.099017166 0.015128924
-0.041393183 -0.11889311 -0.05270294 -0.03159181 0.07097643 -0.07209575 0.039045844 -0.09638466
0.04782109 -0.053717256 0.0761328 -0.028694598 0.114802785 0.06488614 -0.04803854 -0.10690659
-0.060305845 0.049216542 0.08220616 -0.058188625 -0.11327266 -0.014915956 -0.1051161 -0.12347971
-0.0053025275 -0.022978617 -0.100620024 0.057087846 0.08875276 -0.00025857452 0.06566079 -0.096716724
-0.10973884 -0.010188259 0.010163435 0.08025946 -0.035056677 -0.061985582 -0.070317544 0.04175583
-0.083750255 0.1064638 0.08508622 -0.028274849 -0.011861081 -0.06192075 0.02445389 0.10206788
-0.075083464 0.041070625 -0.04516764 0.016201235 -0.047621418 0.11356776 0.016342893 -0.021275695
0.05867024 -0.08926994 -0.027148277 -0.00831265 0.11910525 -0.03559638 -0.03967335 -0.047086976
-0.024520608 -0.014666534 0.11072181 -0.048459087 0.11708267 -0.034722585 0.096485555 -0.05188099
-0.09971704 0.04926387 -0.036265224 0.06800259 -0.114683785 -0.04890512 -0.0039950795 0.051413607
-0.037421823 0.09330188 -0.0023684474 -0.07749096 -0.03773791 0.039135486 0.10541522 -0.046844907
0.04420096 0.11310022 0.031840146 0.018509371 -0.06878991 0.09848728 -0.040476516 -0.03208135
0.123150036 0.03532135 0.043671045 -0.029954493 0.047821864 -0.01651768 -0.028596181 0.08336141
0.10304616 -0.0329373 0.0017325731 -0.008994171 0.122422054 -0.076831825 -0.09289794 0.09859143
-0.11108385 -0.101102166 -0.052299634 0.05373592 -0.014083513 0.08388255 -0.07221398 0.11826012
0.09677597 0.049723167 0.09001766 -0.06858656 0.0078061973 -0.024962744 0.062979944 -0.11259097
-0.10447103 0.050491903 -0.006357672 -0.00012864674 0.11435648 0.08630578 0.05548189 -0.030885853
0.018110301 0.05696747 -0.029963918 0.02787023 0.047569126 0.08726016 -0.027890043 0.08518348
0.059661195 -0.0536497 0.0618882 -0.026582278 -0.09021311 0.057146374 -0.072962224 -0.10768714
-0.0409961 0.03442732 0.11104912 0.025392102 0.045635756 -0.0840616 0.030054556 0.04228398
-0.018817032 0.052776262 0.09646871 0.123196416 -0.039744895 0.08224941 -0.05100052 -0.025015172
0.04677351 -0.11939887 -0.061014805 -0.061653856 -0.0095287245 0.064433195 0.039509036 0.075223625
0.102952756 0.08205183 -0.11952586 0.013220003 0.12234443 -0.006459019 -0.06645031 -0.10245305
0.035760697 -0.08199948 0.09995027 -0.11646163 0.093885526 -0.0051116087 -0.026043007 0.013238243
0.08871155 -0.119919114 0.022974 0.074766725 0.09378124 -0.10193594 -0.0041820174 -0.09800984
-0.0891361 0.061440412 -0.07021238 -0.03550215 -0.11030036 0.1199646 -0.11568546 -0.1062618
0.037144795 -0.001715972 -0.023452597 -0.037645515 -0.07630216 0.07520531 0.008038327 0.069532365
00000000: 980d 023d 1536 cd3d b043 94bc 6d6e cabd
00000010: aa2a f2bc 0b34 7b3d 5bac 003d 260b 04bc
00000020: 9f1d b83d 6ad6 c6bd 4000 a8bd 934d 44bd
00000030: ce4d 82bd db8e 76bd da4f 6c3d 8627 623b
00000040: f166 87bd d016 873d 4596 03bd bc4b fb3d
00000050: 7c4a 1c3c 6495 ebbb 7a33 193d 78fd c43d
00000060: 9701 bdbc acb5 8b3d e4d3 8fbd c4dd 87bd
00000070: 3bd2 b0bd 513c 81bd b470 dabd 6b6d 883d
00000080: 4051 ff3d 7224 e33d 9a21 d3bd aa29 983d
00000090: 8d49 393d 283a 363d 83c9 ca3d 4edf 773c
000000a0: e68b 29bd 3b7e f3bd 0adf 57bd 6a66 01bd
000000b0: 175c 913d f0a6 93bd 89ee 1f3d 5265 c5bd
000000c0: 0ce0 433d a006 5cbd 83eb 9b3d ef10 ebbc
000000d0: b91d eb3d 06e3 843d 0fc4 44bd d8f1 dabd
000000e0: 4303 77bd 4997 493d b45b a83d 3257 6ebd
000000f0: 7ffb e7bd 0e62 74bc 1c47 d7bd eee2 fcbd
00000100: d3c0 adbb a73d bcbc df11 cebd f2d4 693d
00000110: 02c4 b53d 4991 87b9 2a79 863d 6b13 c6bd
00000120: c2be e0bd a8ec 26bc 8984 263c 125f a43d
00000130: 9797 0fbd 98e4 7dbd a502 90bd 2908 2b3d
00000140: 4185 abbd b109 da3d af41 ae3d a8a0 e7bc
00000150: fb54 42bc 9da0 7dbd 8653 c83c f708 d13d
00000160: 5cc5 99bd ac39 283d b401 39bd 74b8 843c
00000170: ad0e 43bd 3796 e83d 88e1 853c 5e4a aebc
00000180: 3550 703d 29d3 b6bd 1066 debc c831 08bc
00000190: 74ed f33d 82cd 11bd 8680 22bd 46de 40bd
000001a0: 71df c8bc e74b 70bc 1ec2 e23d 097d 46bd
000001b0: 0ac9 ef3d 4539 0ebd 389a c53d 2981 54bd
000001c0: 7338 ccbd e9c8 493d d88a 14bd f144 8b3d
000001d0: 55df eabd bc50 48bd 28e9 82bb 1397 523d
000001e0: a047 19bd 0e15 bf3d f437 1bbb 95b3 9ebd
000001f0: 1193 1abd 884c 203d efe3 d73d 72e0 3fbd
00000200: 110c 353d 17a1 e73d d06a 023d f7a0 973c
00000210: b9e1 8cbd b3b3 c93d b4ca 25bd bc67 03bd
00000220: 1636 fc3d 1fad 103d 69e0 323d 2063 f5bc
00000230: dce0 433d 1650 87bc 8a42 eabc 63b9 aa3d
00000240: dd09 d33d 43e9 06bd 8217 e33a 4a5c 13bc
00000250: 6ab8 fa3d 015a 9dbd 4641 bebd 4eea c93d
00000260: ee7f e3bd a70e cfbd 2438 56bd 321a 5c3d
00000270: 89be 66bc 9dca ab3d ece4 93bd 5d32 f23d
00000280: 7b32 c63d 85aa 4b3d 2e5b b83d 1c77 8cbd
00000290: 21cb ff3b ab7e ccbc a1fb 803d 1896 e6bd
000002a0: e8f4 d5bd 99d0 4e3d 0554 d0bb 59e5 06b9
000002b0: bb33 ea3d 16c1 b03d fa40 633d 5404 fdbc
000002c0: 0e5c 943c b956 693d e476 f5bc 1c50 e43c
000002d0: d8d7 423d 74b5 b23d a979 e4bc ad74 ae3d
000002e0: 4c5f 743d cabf 5bbd 7b7e 7d3d 14c3 d9bc
000002f0: a7c1 b8bd 5112 6a3d 386d 95bd 138b dcbd
00000300: 87eb 27bd a903 0d3d b96d e33d 1903 d03c
00000310: 8fec 3a3d 7d28 acbd f934 f63c f731 2d3d
00000320: 2d26 9abc ec2b 583d 6391 c53d 674e fc3d
00000330: 8bcb 22bd 6172 a83d ece5 50bd 9eec ccbc
00000340: 9495 3f3d 6587 f4bd a9ea 79bd c188 7cbd
00000350: 5e1e 1cbc 8df5 833d 3ad4 213d d80e 9a3d
00000360: e5d8 d23d ca0a a83d f9c9 f4bd b698 583c
00000370: b78f fa3d 2ea6 d3bb 1a17 88bd e8d2 d1bd
00000380: cf79 123d 58ef a7bd bab2 cc3d 6f83 eebd
00000390: 0e47 c03d 487f a7bb 2558 d5bc 37e5 583c
000003a0: 67ae b53d 2798 f5bd f833 bc3c 4c1f 993d
000003b0: 6110 c03d cac3 d0bd 4e09 89bb 62b9 c8bd
000003c0: fd8c b6bd f1a8 7b3d 82cb 8fbd b46a 11bd
000003d0: 28e5 e1bd 00b0 f53d 80ec ecbd c99f d9bd
000003e0: 2425 183d 77ea e0ba a91f c0bc 2f32 1abd
000003f0: 4f44 9cbd 3e05 9a3d 30b3 033c fc66 8e3d

rnn_layer.bias_ih_l0 f4 [64]
-0.1097969 -0.0324036 -0.03278481 0.030986395 0.026136093 0.0980202 0.08546213 0.0540374
0.1016961 0.04244444 0.028082922 0.02394422 0.0066643097 0.041267414 0.010219409 -0.042842157
0.045419015 0.0052617164 -0.10817382 -0.011744124 0.10317454 0.12090377 0.00058640854 0.11502738
-0.08857881 -0.03315974 0.0783256 -0.10238189 -0.043235987 -0.01670768 -0.01544446 0.07252302
-0.116003476 0.09352078 -0.08344533 0.068287484 0.021919195 0.1018671 -0.012615208 -0.10532755
0.108678445 0.08649384 0.11288384 0.1189592 -0.10946914 0.0040469924 0.07811917 -0.009401765
0.01857815 -0.0506108 -0.08640702 -0.011859716 -0.04078822 0.08015014 -0.0724797 -0.11482256
0.11158859 0.0879757 0.03651348 -0.03104078 0.02801155 0.01445979 -0.1175526 -0.014856274
00000000: 32dd e0bd a3b9 04bd 5d49 06bd 2ed7 fd3c
00000010: 5c1b d63c d1be c83d c506 af3d 5256 5d3d
00000020: 0b46 d03d 39da 2d3d 280e e63c ab26 c43c
00000030: 4860 da3b 0508 293d 4f6f 273c 427b 2fbd
00000040: 4a09 3a3d 7a6a ac3b 3c8a ddbd 6d6a 40bc
00000050: 2c4d d33d 659c f73d 36b9 193a 7a93 eb3d
00000060: cf68 b5bd 82d2 07bd 2c69 a03d 99ad d1bd
00000070: 3818 31bd 8bde 88bc c30a 7dbc f386 943d
00000080: 3b93 edbd d387 bf3d 63e5 aabd 4fda 8b3d
00000090: e28f b33c b39f d03d 04b0 4ebc f8b5 d7bd
000000a0: ce92 de3d af23 b13d a52f e73d e2a0 f33d
000000b0: 5b31 e0bd a29c 843b f2fc 9f3d dc09 1abc
000000c0: 3431 983c 454d 4fbd 2af6 b0bd 414f 42bc
000000d0: 8c11 27bd c225 a43d 3d70 94bd 1728 ebbd
000000e0: 8f88 e43d 9b2c b43d 298f 153d 3c49 febc
000000f0: 7a78 e53c c1e8 6c3c 6bbf f0bd bb67 73bc

rnn_layer.bias_hh_l0 f4 [64]
-0.042827576 -0.021081874 -0.12196139 0.05665148 -0.06668049 0.082100146 0.0028527072 -0.11273792
-0.12009121 0.024788387 0.042431742 -0.061647065 -0.117944196 -0.011795129 0.062372666 -0.015381268
-0.040239565 0.11735566 -0.03503994 -1.942832e-05 -0.03614266 0.11892729 0.022275347 -0.053349722
-0.019581605 -0.09146196 0.12143472 0.062013242 -0.07104522 0.11430882 0.04124118 -0.026258139
-0.06253246 -0.10530197 -0.057483237 -0.01015552 0.089633405 -0.119596325 -0.015142281 0.022526618
0.12022431 0.12465132 0.098509796 0.08632927 0.080970265 0.11347258 -0.063577354 -0.07140005
-0.042214952 0.076778784 0.015357878 0.0054076156 -0.023696465 -0.07108125 0.077855475 -0.12242428
0.039866414 -0.04420614 0.038409773 -0.054097183 0.085330255 -0.07974857 0.11022385 0.051482625
00000000: f86b 2fbd e5b3 acbc e5c6 f9bd 620b 683d
00000010: c88f 88bd 1f24 a83d 7cf4 3a3b 23e3 e6bd
00000020: 61f2 f5bd 0411 cb3c e8cc 2d3d a281 7cbd
00000030: ba8c f1bd 5b40 41bc 7b7a 7f3d b701 7cbc
00000040: 3ed2 24bd 2a58 f03d 0a86 0fbd 00fa a2b7
00000050: 530a 14bd 2790 f33d ca7a b63c 3d85 5abd
00000060: 9a69 a0bc 6850 bbbd c4b2 f83d 9901 7e3d
00000070: 2880 91bd be1a ea3d 83ec 283d 4f1b d7bc
00000080: 0511 80bd 8fa8 d7bd 8b73 6bbd 5763 26bc
00000090: b891 b73d ebee f4bd 5417 78bc be89 b83c
000000a0: 2a38 f63d 3149 ff3d 81bf c93d 66cd b03d
000000b0: bdd3 a53d 5064 e83d d834 82bd 303a 92bd
000000c0: 96e9 2cbd 323e 9d3d 9c9f 7b3c 5e32 b13b
000000d0: 171f c2bc 0c93 91bd b172 9f3d 95b9 fabd
000000e0: f74a 233d 7f11 35bd 9153 1d3d 0295 5dbd
000000f0: a1c1 ae3d 3853 a3bd 0bbd e13d 72df 523d

fc.weight f4 [3, 64]
-0.104604214 0.0583634 -0.05122141 0.06694737 -0.011892006 0.0429517 -0.07305454 0.09705621
0.054526497 0.0048159696 -0.0682876 0.09146906 -0.08797451 -0.055170834 0.03555637 0.081797026
-0.02955532 0.06394481 -0.017359994 -0.10698873 0.055399243 -0.027966546 -0.066718526 0.07410656
-0.11592054 -0.10962172 -0.11504283 -0.00299518 0.05186084 -0.02085025 0.011790515 0.05643867
-0.038169276 0.0717734 0.08123013 0.10232302 0.055226415 -0.022658043 0.035024643 -0.122502364
0.078218296 0.04345629 -0.10627696 -0.083871126 0.115884915 -0.06489033 -0.049913608 -0.030125046
-0.109122336 0.088395864 -0.028840654 0.003355325 -0.017394101 -0.029482177 0.0637791 0.046199773
-0.113266446 0.058312885 -0.020495785 0.025129726 -0.013941295 0.11579177 -0.056161806 -0.07976487
-0.11576706 0.02788484 0.053884573 -0.06800141 0.06547305 0.095670134 -0.08385698 -0.002743076
0.04648375 -0.028393693 -0.037677277 0.02413839 -0.031032866 0.10760489 0.086860634 0.022705486
-0.036440667 0.037367564 -0.09439377 -0.06308045 0.031290125 0.0378235 0.099950746 0.09780577
0.031254485 -0.09309043 0.07170755 -0.02096739 0.007649984 0.08458459 0.08695295 0.06453712
0.015810374 -0.007697751 -0.05132305 0.053021714 0.07570012 0.09222703 0.050187655 0.047210097
0.11151434 -0.10818526 0.08570854 -0.055745836 -0.11449736 0.0047051935 -0.08853425 0.101210244
0.059138842 -0.07119296 -0.0773471 -0.075047895 -0.03132343 0.06845769 -0.118688904 -0.06961766
-0.11822268 -0.110847026 0.0617465 -0.00522257 0.08181459 0.04423542 0.103688575 0.016449047
-0.114934854 0.032652956 0.110710524 0.054410663 -0.11385928 -0.0008044674 0.022950346 -0.04722233
-0.085884266 0.062615 -0.09054747 -0.123978086 -0.12293722 0.0015710763 0.08989284 -0.08235368
0.0612229 0.043366086 0.09805964 0.060642198 0.026064632 -0.086268395 0.08300002 0.00077228603
0.10631253 0.11371516 -0.08886164 0.11016883 -0.024041547 -0.010748809 -0.085903496 0.118611954
-0.12093985 0.03526444 0.025659772 0.103019364 0.09673557 0.11862561 -0.0614089 -0.078745775
-0.09980388 -0.02746254 -0.08941831 0.09168389 -0.09924702 0.074149005 0.052221544 0.0014066634
-0.04890329 -0.034959733 -0.033715878 0.0022172707 0.051774222 0.0088381525 0.018081963 0.09625163
-0.082026005 -0.088848874 0.060486894 -0.11201265 0.11243286 -0.06823719 -0.01784678 0.026672069
00000000: bc3a d6bd 760e 6f3d 8bcd 51bd b41b 893d
00000010: b0d6 42bc 1fee 2f3d 9e9d 95bd 68c5 c63d
00000020: 2d57 5f3d 48cf 9d3b 5fda 8bbd 2154 bb3d
00000030: fb2b b4bd d0fa 61bd 8ea3 113d 3385 a73d
00000040: 001e f2bc 7ff5 823d 8c36 8ebc e81c dbbd
00000050: 51ea 623d 191a e5bc b9a3 88bd 2ec5 973d
00000060: c067 edbd 5a81 e0bd 939b ebbd c84a 44bb
00000070: 086c 543d 25ce aabc 012d 413c 3c2c 673d
00000080: 6357 1cbd effd 923d fb5b a63d bb8e d13d
00000090: 1835 623d 5c9d b9bc 0076 0f3d 85e2 fabd
000000a0: ea30 a03d 39ff 313d bca7 d9bd a0c4 abbd
000000b0: 1255 ed3d 39e5 84bd 3672 4cbd cdc8 f6bc
000000c0: 887b dfbd e408 b53d 3c43 ecbc 03e5 5b3b
000000d0: 137e 8ebc 9b84 f1bc 9e9e 823d f93b 3d3d
000000e0: 3df8 e7bd 7ed9 6e3d c7e6 a7bc dbdc cd3c
000000f0: 086a 64bc 3c24 ed3d ec09 66bd c45b a3bd
00000100: 4817 edbd bf6e e43c 12b6 5c3d 5344 8bbd
00000110: bc16 863d b4ee c33d 35bd abbd 2ec5 33bb
00000120: bf65 3e3d e499 e8bc 7d53 1abd dfbd c53c
00000130: a338 febc f45f dc3d fde3 b13d db00 ba3c
00000140: cf42 15bd bb0e 193d 8551 c1bd 5330 81bd
00000150: 132a 003d d0ec 1a3d fab2 cc3d 644e c83d
00000160: b404 003d 32a6 bebd 68db 923d cec3 abbc
00000170: b8ac fa3b af3a ad3d 6314 b23d 0a2c 843d
00000180: c284 813c 6a3d fcbb 1e38 52bd 4c2d 593d
00000190: aa08 9b3d 86e1 bc3d 9291 4d3d 605f 413d
000001a0: a161 e43d 3c90 ddbd f687 af3d bf55 64bd
000001b0: 987d eabd 062e 9a3b 7251 b5bd 5147 cf3d
000001c0: 923b 723d 9dcd 91bd 2868 9ebd b6b2 99bd
000001d0: ff4c 00bd 8c33 8c3d 2b13 f3bd b493 8ebd
000001e0: bc1e f2bd c403 e3bd e6e9 7c3d 1822 abbb
000001f0: 688e a73d 3330 353d ad5a d43d 27c0 863c
00000200: f762 ebbd 1bbf 053d 33bc e23d b7dd 5e3d
00000210: 0e2f e9bd e5e2 52ba 5d02 bc3c 346c 41bd
00000220: 17e4 afbd 4b3c 803d f470 b9bd 39e8 fdbd
00000230: 82c6 fbbd 93ec cd3a bd19 b83d 0ca9 a8bd
00000240: ddc4 7a3d a3a0 313d 7ed3 c83d f463 783d
00000250: 7f85 d53c 7cad b0bd eafb a93d 3d73 4a3a
00000260: 62ba d93d 7ee3 e83d 17fd b5bd 32a0 e13d
00000270: c7f2 c4bc c61b 30bc 2cee afbd d3ea f23d
00000280: 50af f7bd 7271 103d 7134 d23c d1fb d23d
00000290: 4c1d c63d fcf1 f23d e687 7bbd 7745 a1bd
000002a0: fa65 ccbd 1ff9 e0bc f220 b7bd c3c4 bb3d
000002b0: 0642 cbbd 6fdb 973d 42e6 553d cb5f b83a
000002c0: d14e 48bd f031 0fbd a919 0abd a14f 113b
000002d0: 3511 543d e6cd 103c a020 943c 931f c53d
000002e0: 40fd a7bd 66f6 b5bd 1bc1 773d e366 e5bd
000002f0: 3343 e63d f1bf 8bbd 6933 92bc 627f da3c

fc.bias f4 [3]
-0.05916663 -0.07683428 0.11455069
00000000: b558 72bd 4a5b 9dbd 8d99 ea3d
