trainedModels/1620283561/rnn.pt (torch, 22538 bytes, 6 tensors)

rnn_layer.weight_ih_l0 f4 [64, 12]
0	0xbde27a0c	-0.11058435
1	0x3d10d2be	0.03535723
2	0x3dc77c6f	0.09740531
3	0x3d67a84b	0.05655698
4	0xbbc4a3c0	-0.006000966
5	0x3df599f8	0.11992258
6	0xbd578bac	-0.052623436
7	0xbdbb80a4	-0.091553956
8	0x3d2fe413	0.042942118
9	0x3dc75e96	0.09734838
10	0xbcc547e0	-0.024082124
11	0x3d085663	0.03328551
12	0xbd521c30	-0.051296413
13	0x3cd602e3	0.026124423
14	0x3d66e716	0.056372724
15	0xbd8f8190	-0.07007134
16	0x3d0ffa7c	0.03515099
17	0xbd1da685	-0.038488884
18	0x3d696fc8	0.05699137
19	0xbd85e9d8	-0.06538743
20	0xbb26ab90	-0.002543185
21	0xbdd1a396	-0.1023628
22	0x3d170aec	0.03687565
23	0x3d99832c	0.07495722
24	0x3dd6a6b8	0.10481018
25	0x3dbbe933	0.091753386
26	0x3d9d88ab	0.07692083
27	0xbbf5fb1e	-0.007506742
28	0xbda19300	-0.07889366
29	0xbce132d7	-0.027490063
30	0x3d75cca8	0.06000963
31	0xbddf94c2	-0.10917045
32	0x3cc357a9	0.02384551
33	0xbc1224cf	-0.008919909
34	0xbc1caac0	-0.009562194
35	0xbdb6158c	-0.088908285
36	0x3cb8d6c8	0.022563353
37	0xbde0272b	-0.10944971
38	0x3d897737	0.067121916
39	0xbda8ae52	-0.08236374
40	0xbd9a1414	-0.07523361
41	0xbdfd187a	-0.12358184
42	0x3c5a20f0	0.013313517
43	0xbc833408	-0.016016021
44	0xbdb0da30	-0.08635366
45	0x3d9997fc	0.07499692
46	0xbcdff638	-0.027339086
47	0x3d4d4967	0.05011883
48	0xbd871242	-0.06595279
49	0xbda38059	-0.07983465
50	0x3d7670a1	0.060166005
51	0xbcc16c8c	-0.02361133
52	0x3ce35b30	0.027753443
53	0x3b22681e	0.0024781297
54	0x3ca8bad8	0.020596907
55	0xbbf4d280	-0.0074713826
56	0xbd01a63a	-0.031652667
57	0x3cea5234	0.02860365
58	0xbd34ea40	-0.04416871
59	0x3da024bf	0.07819509
60	0x3d57955c	0.052632675
61	0x3c910a9e	0.017705258
62	0x3d845c07	0.06462865
63	0xbd8e5a1b	-0.0695078
64	0xbcf05140	-0.029335618
65	0xbdf768c1	-0.12080527
66	0x3d2848a4	0.0410849
67	0x3d65c6b0	0.056097686
68	0x3c90db1c	0.017682604
69	0xbd82b849	-0.06382806
70	0x3dd40aec	0.10353646
71	0xbddf2c97	-0.10897177
72	0xbc765770	-0.015035495
73	0x3da1132f	0.07864987
74	0xbdbe3cb1	-0.0928892
75	0x3d3e4e9d	0.04646169
76	0xbcd8fd78	-0.02648805
77	0xbd0f7d7f	-0.03503179
78	0xbda69ed4	-0.08135763
79	0x3d911ea2	0.07085921
80	0x3de91695	0.1138126
81	0x3d305e01	0.0430584
82	0xbc010c00	-0.007876396
83	0x3deadbd1	0.11467708
84	0xbd667bf4	-0.056270555
85	0xbd5fa4fb	-0.054600697
86	0xbd9f74fd	-0.077859856
87	0x3d96b75d	0.073591925
88	0x3d919792	0.07108988
89	0x3d869f8b	0.06573399
90	0xbdef1ce4	-0.11675432
91	0xbcf732a0	-0.030175507
92	0x3d63916e	0.055558614
93	0xbbcbd670	-0.0062206313
94	0xbc2364f0	-0.009972796
95	0x3dd93adb	0.10606929
96	0x3df24d46	0.11831145
97	0x3d749215	0.059709627
98	0xbd2bc623	-0.041937005
99	0x3d192c09	0.03739551
100	0xbdf1dc46	-0.11809592
101	0xbdab7055	-0.08371035
102	0xbdcda322	-0.10040881
103	0xbd4b089c	-0.049568757
104	0xbd39ac0b	-0.04533009
105	0x3d8cb05f	0.068695776
106	0xbb4f8f40	-0.0031671077
107	0xbd87c7df	-0.06629919
108	0xbdb253e2	-0.087074056
109	0x3dcca60a	0.09992607
110	0xbd1e14c4	-0.038594022
111	0x3b876972	0.004132443
112	0x3d9364b6	0.071969435
113	0x3de5a5ed	0.112132885
114	0xbb2b7500	-0.0026162267
115	0x3d7f18c4	0.062279478
116	0xbdba5845	-0.09098867
117	0xbd54af76	-0.051925145
118	0xbdf53ea8	-0.11974841
119	0x3dc42aa5	0.09578446
120	0xbd750aa4	-0.0598246
121	0xbd8c5f7f	-0.06854152
122	0xbda6adb7	-0.08138602
123	0x3de5db70	0.11223495
124	0x3d0d5398	0.03450355
125	0xbbbe5c23	-0.0058093234
126	0x3c911aa8	0.017712906
127	0xbd879ca2	-0.06621672
128	0x3be0cbdd	0.00686024
129	0x3de437ac	0.11143431
130	0xbde495a4	-0.11161354
131	0xbd595ec8	-0.053068906
132	0xbd08f024	-0.03343214
133	0xbde528d7	-0.1118943
134	0xbdac897f	-0.08424663
135	0x3a0f2850	0.0005461024
136	0x3ca6c610	0.020358115
137	0x3c0169e5	0.007898782
138	0xbd99f9fc	-0.07518384
139	0xbcd77310	-0.026299983
140	0xbce12175	-0.027481774
141	0x3d3a48a1	0.04547942
142	0xbcfcf3b0	-0.030877918
143	0x3c5a61a5	0.013328944
144	0xbdbbe174	-0.09173861
145	0x3d302676	0.04300543
146	0x3cbf90bc	0.023384444
147	0xbd0c15cc	-0.034200475
148	0x3cfea9e8	0.031086877
149	0xbdc6dc4c	-0.09709987
150	0xbd02ed80	-0.03196478
151	0x3b5830c0	0.0032988042
152	0xbdc1cba2	-0.09462668
153	0xbde2e1da	-0.11078234
154	0xbddf1480	-0.10892582
155	0x3de2aa62	0.11067654
156	0x3c13a8b0	0.009012386
157	0xbdb20ab5	-0.086934485
158	0xbc2a88cb	-0.010408591
159	0xbda94195	-0.08264462
160	0xbb151b80	-0.0022751987
161	0x3cb4c07d	0.022064442
162	0x3cade550	0.021227509
163	0xbdd51d68	-0.104059994
164	0x3d25b1a6	0.040452622
165	0xbd972db7	-0.07381766
166	0xbb85d4e0	-0.0040842146
167	0xbd315772	-0.043296285
168	0xbd948646	-0.07252173
169	0x3bbb3d4a	0.0057140933
170	0xbddafe65	-0.10693053
171	0x3da60505	0.08106426
172	0xbdb80d76	-0.089869425
173	0xbd9df5fb	-0.07712933
174	0x3cdac310	0.026704341
175	0x3d795ff8	0.06088254
176	0x3c8fcb6d	0.017553056
177	0x3d804fc5	0.06265215
178	0xbdd6fbe2	-0.104972616
179	0xbd9b82e7	-0.07593327
180	0xbd29b40c	-0.04143147
181	0xbd84bae9	-0.06480963
182	0xbb761c5e	-0.003755353
183	0xbdedf5f6	-0.11619179
184	0xbd49d26c	-0.04927294
185	0x3a721e19	0.0009236052
186	0x3b210d00	0.00245744
187	0xbdcc0d2e	-0.09963451
188	0xbd4e5934	-0.05037804
189	0x3c019102	0.007908108
190	0xbdd85e9e	-0.10564922
191	0x3d8b611a	0.0680563
192	0x3c6c4ee0	0.014423102
193	0xbda47651	-0.080303796
194	0x3d3ae11a	0.04562483
195	0xbdfc9cca	-0.12334593
196	0x3d60c544	0.054875627
197	0x3df7598c	0.120776266
198	0xbd24ac70	-0.04020351
199	0xbcdc9c90	-0.026930124
200	0x3dc73130	0.09726179
201	0xbc8c7ba9	-0.01714881
202	0xbdf1d7b8	-0.11808723
203	0x3dc884f6	0.09790985
204	0xbcc76c50	-0.02434364
205	0x3df4ea47	0.11958747
206	0x3db369d9	0.08760423
207	0x3daaec82	0.083458915
208	0x3d80ee1e	0.06295417
209	0xbdeea750	-0.11653006
210	0x3d27a500	0.04092884
211	0xbd237288	-0.039904147
212	0x3c3b4caf	0.011431857
213	0x3d9ba95a	0.076006606
214	0xbd6a93ac	-0.057269737
215	0x3a780ff6	0.00094628276
216	0x3d74b3d0	0.059741795
217	0x3dbb53f6	0.09146874
218	0x3db2eb3e	0.08736275
219	0xbbd6caaa	-0.006554921
220	0xbc657ed0	-0.014007285
221	0x3da05429	0.07828552
222	0x3de0da6e	0.10979162
223	0x3d9e4510	0.077280164
224	0x3d83f2cd	0.06442795
225	0xbdfc30b7	-0.12313979
226	0x3c5d7530	0.013516709
227	0x3d5310ab	0.051529568
228	0xbdd7cc72	-0.10537042
229	0x3d75a8d1	0.05997545
230	0x3d9d53f1	0.07682026
231	0x3dd3f529	0.10349495
232	0x3da33316	0.07968728
233	0x3d995831	0.07487524
234	0x3d9edca0	0.07756925
235	0x3d0ca57c	0.034337506
236	0x3d301c0e	0.042995505
237	0xbcb5a513	-0.02217344
238	0x3d97ad38	0.07406086
239	0x3c93d4ed	0.018045867
240	0xbd21e868	-0.03952828
241	0xbd77a908	-0.060463935
242	0xbdd1d86c	-0.10246357
243	0xbda72bd7	-0.08162659
244	0xbdca3028	-0.09872466
245	0xbd412c95	-0.047161657
246	0xbda410c0	-0.08011007
247	0xbbfd5b60	-0.00773184
248	0xbba44a2b	-0.0050137243
249	0x3d72c20b	0.059267085
250	0x3dbf3320	0.09335923
251	0x3dd9642d	0.1061481
252	0xbd4c0cc8	-0.049816877
253	0xbdb8240a	-0.08991249
254	0xbd0331e3	-0.032029998
255	0x3c4e4e99	0.012591981

rnn_layer.weight_hh_l0 f4 [64, 64]
0	0x3c8ce6df	0.017199932
1	0xbbede05a	-0.007259411
2	0x3c9efc37	0.019407375
3	0xbc7053ad	-0.014668387
4	0x3db298f6	0.08720581
5	0x3d154543	0.036443006
6	0xbdec657f	-0.11542796
7	0xbdbef2f9	-0.09323687
8	0x3df8475b	0.12122985
9	0x3d696464	0.056980506
10	0xbdeb1ca5	-0.11480073
11	0x3d9cb21c	0.07651159
12	0xbdcc9baf	-0.09990632
13	0x3d18d086	0.03730824
14	0xbddd5e8e	-0.108090505
15	0xbddbbd71	-0.107294925
16	0xbb8313a1	-0.0040001427
17	0xbdd71054	-0.10501161
18	0xbdf1e94f	-0.11812078
19	0xbddea49a	-0.10871239
20	0xbcdc930d	-0.026925588
21	0x3d770228	0.06030479
22	0xbdd7f703	-0.105451606
23	0x3d18a664	0.037268057
24	0x3de66630	0.112499595
25	0x3dae1924	0.08500889
26	0xbca52e86	-0.020163786
27	0xbddd9e8a	-0.108212546
28	0x3c9188e5	0.017765472
29	0xbde7b0d0	-0.11313021
30	0xbdacc2aa	-0.08435567
31	0x3d79a4e3	0.060948264
32	0xbb673eef	-0.0035285314
33	0x3d9b8ae3	0.0759485
34	0xbcf8b745	-0.030360827
35	0xbcd7fb60	-0.026364982
36	0x3ddb42a7	0.10706072
37	0x3c38122f	0.011234804
38	0xbdcc6d66	-0.099818036
39	0x3d69c97e	0.057076924
40	0xbdb07e0d	-0.08617792
41	0x3c1521e4	0.009102318
42	0x3a2c32e0	0.000656886
43	0xbc13b7b1	-0.009015963
44	0xbdc49c93	-0.09600177
45	0x3dfda3d2	0.12384762
46	0x3d386d9d	0.04502641
47	0x3ca85cfa	0.020552147
48	0x3cd26089	0.025680797
49	0x3dabaf8b	0.083830915
50	0x3c4c1a50	0.012457445
51	0xbd22cd72	-0.03974671
52	0xbd4eb226	-0.050462864
53	0xbd1965ae	-0.037450485
54	0x3d84b27d	0.064793564
55	0xbd832369	-0.06403238
56	0xbddef6ce	-0.10886918
57	0x3cccdb8c	0.025007032
58	0x3df6491b	0.120256625
59	0x3d6a385f	0.057182666
60	0x3d3936cc	0.045218274
61	0xbd333da2	-0.04375995
62	0xbcd4ae6f	-0.025962083
63	0xbc4d6d6d	-0.012538296
64	0xbdf895e7	-0.121379666
65	0x3da6d1c2	0.08145477
66	0x3dbb3200	0.09140396
67	0x3cc25de0	0.023726404
68	0x3dedac93	0.116051815
69	0xbc8a75ff	-0.016901968
70	0x3de67ff2	0.112548724
71	0x3df37a7f	0.11888599
72	0x3c90ef39	0.017692195
73	0x3da08d3a	0.07839437
74	0xbd4c7560	-0.049916625
75	0xbdf8fef2	-0.12158002
76	0xbd4b8ab4	-0.049692824
77	0x3d375130	0.04475516
78	0xbdb27392	-0.087134495
79	0xbd30547b	-0.043049317
80	0x3cbc70be	0.023002978
81	0x3d805141	0.06265498
82	0x3b3de401	0.0028975012
83	0x3de35c22	0.11101557
84	0x3d8b7816	0.06810014
85	0xbbe44c30	-0.00696709
86	0xba84ef45	-0.0010142109
87	0x3df7930e	0.12088595
88	0xbdc790d3	-0.0974442
89	0xbaa2aa8f	-0.001241045
90	0x3cc010a4	0.023445435
91	0x3da4f9d8	0.080554664
92	0x3d578a51	0.052622143
93	0xbce21f89	-0.027602928
94	0xbd83c37c	-0.0643377
95	0x3c3f40df	0.011673181
96	0x3c28920c	0.010288727
97	0x3d2275ef	0.03966325
98	0xbbc510db	-0.006013972
99	0x3dc44270	0.095829844
100	0x3dc10979	0.09425635
101	0x3d5ffe7c	0.054686055
102	0xbdb38c1e	-0.087669596
103	0x3c238d5d	0.009982434
104	0xbd9b514a	-0.07583864
105	0xbacdb372	-0.0015693738
106	0xbd81d13b	-0.06338736
107	0xbdfbb001	-0.122894295
108	0xbd9b9665	-0.07597045
109	0xbdc0428a	-0.09387691
110	0x3d617934	0.05504723
111	0x3d920fad	0.07131896
112	0xbd9112d3	-0.070836686
113	0x3d8628b1	0.0655073
114	0x3dbdd2c2	0.092687145
115	0x3dd1c67b	0.10242935
116	0x3d23ea06	0.040018104
117	0x3d99be8c	0.07507047
118	0xbde92b79	-0.11385245
119	0x3dd82946	0.10554747
120	0xbc338bf8	-0.010958664
121	0x3d97fbc9	0.07421071
122	0x3de02f87	0.10946565
123	0x3dd3f003	0.10348513
124	0x3c8fa222	0.017533366
125	0xbd8fce4b	-0.07021769
126	0x3d0656bc	0.03279756
127	0xbdf90575	-0.12159244
128	0x3d43638b	0.047702353
129	0xbdcd4870	-0.10023582
130	0xbccd185b	-0.025036028
131	0x3c69f813	0.014280337
132	0xbdc2c5fd	-0.095104195
133	0x3dfcc414	0.123420864
134	0xbd97ceda	-0.07412501
135	0xbdfafb7d	-0.12254999
136	0x3d9a7d30	0.07543409
137	0xbbe5421b	-0.006996406
138	0xbc8f4ba9	-0.017492132
139	0xbdf4997b	-0.119433366
140	0x3db4ad74	0.08822146
141	0x3e00bd39	0.12572183
142	0xbdaab8e2	-0.08336045
143	0x3d59cb63	0.05317248
144	0xbd8033c0	-0.062598705
145	0xbc5d2ff9	-0.013500207
146	0xbc9cdfb2	-0.019149635
147	0x3dd18d1e	0.10231994
148	0xbd7b0564	-0.061284438
149	0xbdd54453	-0.104134224
150	0xbdaaacff	-0.08333778
151	0xbc197b99	-0.009367847
152	0x3d0ad693	0.03389604
153	0x3dd9dd36	0.10637896
154	0x3d22a36a	0.039706625
155	0xbde7e2c3	-0.11322548
156	0x3dba4c5d	0.090965964
157	0x3d855df3	0.0651206
158	0xbd16f7ba	-0.036857344
159	0x3c924136	0.01785336
160	0xba1a2f47	-0.00058816787
161	0x3cdea81b	0.027179768
162	0x3c8b56bc	0.017009132
163	0xbd68e875	-0.056862313
164	0xbde1cd23	-0.11025455
165	0xbd22c6b2	-0.039740272
166	0x3dd0e5be	0.1020007
167	0xbd46ac8a	-0.04850439
168	0x3abc408f	0.0014362502
169	0xbdba7eca	-0.09106214
170	0xbd55fd3a	-0.05224345
171	0xbda4ef09	-0.08053405
172	0xbc60ea32	-0.0137277115
173	0xbdb82cf9	-0.08992953
174	0xbdf3ad48	-0.11898285
175	0x3d83fbca	0.06444509
176	0x3d195864	0.03743781
177	0x3dbe3b28	0.09288627
178	0xbdf12290	-0.117741704
179	0x3cd85f55	0.026412645
180	0x3da99271	0.082798846
181	0xbd2f8d57	-0.0428594
182	0x3d5fbcef	0.05462354
183	0xbd96f5c1	-0.073710926
184	0x3dc2f812	0.09519972
185	0x3cee91e0	0.029122293
186	0xbbc28161	-0.0059358333
187	0x3b85bf7c	0.0040816646
188	0xbdf2afcd	-0.118499376
189	0xbdff3023	-0.12460353
190	0xbd4074f2	-0.046986528
191	0x3dd8f534	0.10593644
192	0xbcb8724a	-0.022515435
193	0x3d5969d8	0.053079456
194	0xbd3f2c53	-0.04667313
195	0xbd2f67dc	-0.042823657
196	0xbd83c8fc	-0.06434819
197	0x3dacf70f	0.0844556
198	0xbdde0c3e	-0.10842179
199	0x3dcae519	0.09906978
200	0xbd2bb538	-0.04192087
201	0xbddee564	-0.108835965
202	0x3ddc836f	0.107672565
203	0xbd8f5510	-0.06998646
204	0x3ce7c2e6	0.028291177
205	0x3dceaee4	0.100919515
206	0x3dd7f3f3	0.105445765
207	0xbd08c1e1	-0.033388022
208	0xbd76ee6c	-0.06028597
209	0xbd6eb287	-0.058275726
210	0xbd1dfba5	-0.038570065
211	0x3de9ad2e	0.114099845
212	0xba7d6eb0	-0.0009667678
213	0xbd806068	-0.06268388
214	0x3cd416c7	0.025889767
215	0xbcf04a07	-0.029332174
216	0xbd58ff03	-0.052977573
217	0xbda8bd5e	-0.08239244
218	0x3dfb61fc	0.122745484
219	0xbda0e0ff	-0.078554146
220	0x3decaa32	0.115559
221	0xbcf4e52a	-0.02989443
222	0x3db9b150	0.09067023
223	0x3d302fee	0.04301446
224	0xbcfdb8f4	-0.030971982
225	0x3dfbc77b	0.12293907
226	0x3d1937c2	0.03740669
227	0xbd8478dc	-0.064683646
228	0x3dd69fb8	0.10479683
229	0x3d535c41	0.051601652
230	0x3c9d87e5	0.019229839
231	0x3da318ad	0.07963691
232	0x3da203f2	0.07910909
233	0xbc28f50c	-0.01031233
234	0x3c8f9b6a	0.017530162
235	0x3dbf2c3d	0.0933461
236	0xbd152c2c	-0.03641908
237	0x3dbb561e	0.09147285
238	0xbd0cb871	-0.034355585
239	0x3de8b68e	0.113629445
240	0x3c969416	0.01838116
241	0xbcd55959	-0.02604358
242	0xbac9878c	-0.0015375479
243	0x3d6c4a91	0.0576883
244	0x3d24906e	0.0401768
245	0xbc920140	-0.017822862
246	0x3d8dc0fa	0.06921573
247	0xbd523791	-0.051322524
248	0x3d03d40e	0.032184653
249	0x3d245a4d	0.04012518
250	0xbc042d11	-0.008067385
251	0x3d6f8621	0.058477525
252	0xbce136f8	-0.027492031
253	0x3da52404	0.0806351
254	0xbd522ef5	-0.051314313
255	0x3ddf70ff	0.10910224

rnn_layer.bias_ih_l0 f4 [64]
0	0x3c28fac4	0.010313693
1	0x3d261b7d	0.04055356
2	0x3c6795df	0.014134853
3	0xbc147796	-0.009061715
4	0x3d22cb3d	0.039744604
5	0xbda53fb0	-0.08068788
6	0x3ddd3d46	0.108027026
7	0x3dfb30b1	0.122651465
8	0x3da23a7c	0.07921311
9	0x3db4ff07	0.08837705
10	0x3d536911	0.05161387
11	0xbc474854	-0.01216324
12	0xbca1324d	-0.019677306
13	0xbd80ba1c	-0.062854975
14	0xbd5cc387	-0.053897407
15	0x3ddf56f1	0.10905255
16	0x3ddaf43b	0.106911145
17	0x3da6a535	0.081369795
18	0x3d349b97	0.044093695
19	0xbdaca7bc	-0.0843043
20	0x3d8f67d8	0.070022285
21	0xbcb9c3f8	-0.022676453
22	0xbdc492fc	-0.095983475
23	0x3c9fdf1e	0.01951557
24	0xbd4f419d	-0.050599683
25	0x3ccf0186	0.025269281
26	0x3d4742c9	0.048647676
27	0x3dc6ea08	0.09712607
28	0x3db5e142	0.08880855
29	0x3db39b56	0.08769862
30	0x3dde5f47	0.108580165
31	0xbd8cf605	-0.06882862
32	0xbda691b3	-0.08133259
33	0xbd7ede5f	-0.06222379
34	0x3cce5413	0.025186574
35	0x3de4d24b	0.11172923
36	0x3db123ee	0.08649431
37	0xbdaced5c	-0.0844371
38	0x3df70b26	0.12062673
39	0x3c9bc134	0.019013025
40	0xbdca220c	-0.09869775
41	0x3dd68128	0.10473853
42	0x3dd6bf8a	0.10485752
43	0x3de7c4ad	0.1131681
44	0xbd071f1e	-0.03298866
45	0x3de89778	0.11357015
46	0x3bf5d098	0.007501673
47	0x3d018ad5	0.03162654
48	0xbdadf042	-0.08493091
49	0x3d583f2d	0.052794624
50	0x3df8b607	0.12144094
51	0x3dfd19c7	0.12358432
52	0x3dac2dc1	0.08407164
53	0x3d3d5ff5	0.04623409
54	0xbde27153	-0.11056771
55	0xbdc52361	-0.096258886
56	0x3de38bdf	0.11110663
57	0x3c52c3ec	0.012864094
58	0xbc413d4c	-0.0117943995
59	0x3dc8f903	0.0981312
60	0xbdbedd14	-0.09319511
61	0x3d956e29	0.07296402
62	0xbd0209f9	-0.031747792
63	0xbd00df82	-0.031463154

rnn_layer.bias_hh_l0 f4 [64]
0	0x3d920573	0.071299456
1	0xbd780247	-0.060549047
2	0xbdccccda	-0.1000001
3	0x3de687bb	0.11256357
4	0x3c5e4683	0.013566616
5	0xbbbbc207	-0.005729917
6	0xbdf6120e	-0.120151624
7	0x3d155a52	0.03646309
8	0xbc8a6027	-0.016891552
9	0x3def2c09	0.11678321
10	0xbde45721	-0.11149431
11	0x3d774dd7	0.06037697
12	0xbd6d7947	-0.057976987
13	0xbb998cb9	-0.004685965
14	0x3d677019	0.05650339
15	0xbd381497	-0.04494151
16	0x3c80966a	0.015696723
17	0x3dcfc611	0.101452
18	0xbc9dce49	-0.019263403
19	0x3d2c8181	0.042115692
20	0x3dd44d74	0.103663355
21	0x3d875efe	0.06609915
22	0x3df9ec0c	0.122032255
23	0xbdd6cdac	-0.104884475
24	0x3d15554b	0.036458295
25	0x3d813911	0.06309713
26	0xbd1b2457	-0.037876453
27	0xbde784dc	-0.11304638
28	0x3dd5aaac	0.10432944
29	0x3d4b08c7	0.049568918
30	0x3dcdf3c9	0.10056264
31	0xbd7b8773	-0.06140847
32	0x3d9de985	0.07710556
33	0xbc9271fe	-0.017876621
34	0xbc3b004a	-0.011413643
35	0x3ddb538f	0.10709297
36	0xbde3697e	-0.111041054
37	0xbd8e77ce	-0.06956445
38	0x3c81c658	0.015841648
39	0xbdc67017	-0.09689348
40	0x3d9e22f4	0.077215105
41	0x3dc5f3d0	0.09665644
42	0x3c2bd203	0.010487082
43	0xbd91fad7	-0.07127922
44	0x3df04741	0.117323406
45	0xbd40c197	-0.04705962
46	0x3d6ddfb3	0.058074664
47	0xbd9bd704	-0.0760937
48	0xbdabcfa0	-0.08389211
49	0xbcb9fb15	-0.022702733
50	0x3df2c875	0.118546404
51	0xbd3dd2ea	-0.04634372
52	0x3df8ea1d	0.121540286
53	0x3daed8b7	0.08537429
54	0x3c9297fd	0.01789474
55	0x3df1da81	0.118092544
56	0xbc630aa4	-0.013857517
57	0x3dee3054	0.116303116
58	0xbd2d4037	-0.04229757
59	0x3df0d25f	0.11758875
60	0xbdeed4e6	-0.11661701
61	0x3d714d1a	0.05891142
62	0x3ba5b437	0.0050568837
63	0xbd9d9183	-0.0769377

fc.weight f4 [3, 64]
0	0x3d22f123	0.039780747
1	0x3c8ec846	0.017429482
2	0x3cae3523	0.021265572
3	0x3ccdd0bf	0.025123952
4	0xbc1009b8	-0.00879138
5	0x3d921d0e	0.07134448
6	0x3cb3b098	0.021934792
7	0xbd015091	-0.031570975
8	0xbdc37605	-0.09543995
9	0xbd976710	-0.073927045
10	0xbddc5c4d	-0.107597925
11	0x3d23b141	0.039963964
12	0xbdd17505	-0.10227398
13	0xbcd27c5d	-0.025694067
14	0x3c817c2d	0.015806282
15	0xbba1776c	-0.0049275663
16	0xbc8f44c2	-0.017488841
17	0xbc288873	-0.010286438
18	0x3dec6f04	0.11544612
19	0xbc9b5053	-0.0189592
20	0xbcfd8e1a	-0.030951548
21	0x3d4dbc35	0.050228316
22	0xbdb6d0ad	-0.089265205
23	0x3dbdac9e	0.0926144
24	0x3df10765	0.117689885
25	0x3cc9b915	0.024624387
26	0x3d6b2897	0.057411756
27	0xbd4805a1	-0.048833493
28	0xbdd78b81	-0.10524655
29	0x3dbd8ee6	0.09255771
30	0xbd383d61	-0.04498041
31	0xbd5e385f	-0.05425298
32	0xbcca9426	-0.024728846
33	0xbdcc8a6f	-0.099873416
34	0xbcf443c4	-0.02981747
35	0x3dfa5f54	0.12225214
36	0x3dfa332f	0.12216794
37	0xbdfd2cae	-0.123620376
38	0xbd55a231	-0.05215663
39	0x3dbd8d2a	0.092554405
40	0xbdb4bd5d	-0.08825181
41	0xbdeb2d26	-0.11483221
42	0xbde6f23e	-0.11276673
43	0xbccbfc0e	-0.024900462
44	0xbcc5007e	-0.024048086
45	0xbdf4916b	-0.11941799
46	0xbbfc1646	-0.007693085
47	0xbe00bf84	-0.12573057
48	0x3ced9129	0.028999882
49	0xbcc2a9f2	-0.023762677
50	0xbde8a2d6	-0.113591835
51	0x3c46decc	0.01213808
52	0xbdd46056	-0.10369937
53	0xbd3fc358	-0.046817154
54	0x3c2f50d3	0.010700422
55	0x3dda8c53	0.10671296
56	0x3d4ce5ea	0.05002395
57	0x3dd6d263	0.10489347
58	0xbd0f8f59	-0.035048816
59	0x3df24410	0.11829388
60	0xbce5170e	-0.027965095
61	0x3d3e9f7b	0.04653881
62	0x3dba7a8d	0.09105406
63	0x3d795b7f	0.060878273
64	0x3c418846	0.011812275
65	0x3c2fcb93	0.010729688
66	0xb9536704	-0.00020160904
67	0x3d5ea28f	0.054354247
68	0xbd07bd31	-0.03313941
69	0xbdccb2d9	-0.0999505
70	0x3dd42260	0.10358119
71	0x3dd6c6a5	0.10487107
72	0x3b5c9b41	0.0033661874
73	0x3d714d0a	0.05891136
74	0x3c84c008	0.016204849
75	0xbdbb9c1c	-0.09160635
76	0x3d8a29c6	0.06746249
77	0x3ceb8927	0.028751923
78	0x3deba2f5	0.11505691
79	0x3dc4563d	0.09586761
80	0xbde4b2ab	-0.11166891
81	0x3c8d7a25	0.017270157
82	0x3dde192c	0.10844645
83	0xbd50e551	-0.050999943
84	0xbd33250f	-0.043736514
85	0xbdce45c7	-0.10071903
86	0x3d8c9f23	0.068662904
87	0x3c7f1c2a	0.01557068
88	0xbdd6b706	-0.10484128
89	0xbd8a7af4	-0.06761733
90	0x3dfa42f1	0.12219799
91	0x3d61e371	0.055148546
92	0x3d404715	0.04694279
93	0x3de962b1	0.11395777
94	0xbde1e137	-0.110292844
95	0xbd556791	-0.05210072
96	0xbd959868	-0.0730446
97	0xbd10ffe3	-0.035400283
98	0xbde881f0	-0.113529086
99	0xbda18d83	-0.07888319
100	0x3dcc795a	0.099840835
101	0x3da9c97d	0.08290384
102	0xbd91692b	-0.07100137
103	0x3ddd000d	0.10791025
104	0xbd2cfea9	-0.04223505
105	0x3dff709d	0.12472651
106	0xbd267fe8	-0.040649325
107	0x3dacd27e	0.08438586
108	0x3d9e9f04	0.077451736
109	0xbd9ebf34	-0.07751313
110	0xbd911137	-0.070833616
111	0x3dd3fd2f	0.10351025
112	0x3d61b5da	0.055105068
113	0xbd2850a9	-0.04109255
114	0x3de7ec77	0.11324399
115	0xbd8f3023	-0.06991603
116	0x3c44831a	0.011994148
117	0x3dfe8431	0.12427557
118	0x3db645fb	0.089000665
119	0xbd8dcdcc	-0.06924018
120	0xbd56a1fe	-0.05240058
121	0xbd954fa8	-0.07290584
122	0x3d8978b1	0.06712473
123	0xbdb4bf0f	-0.08825504
124	0x3da15b15	0.07878701
125	0x3d8789bb	0.06618067
126	0xbd91a9e0	-0.07112479
127	0x3ce3b05c	0.027794056
128	0x3d4e6cad	0.05039661
129	0x3dc9ed0a	0.09859665
130	0x3ca94d75	0.020666817
131	0xbdfb151c	-0.12259886
132	0x3db447c9	0.088027544
133	0xbd4e2749	-0.050330434
134	0xbdae6a64	-0.08516386
135	0xbdcf2baa	-0.1011575
136	0x3df7532d	0.120764114
137	0xbdf48102	-0.11938669
138	0x3d695857	0.056969013
139	0xbd68ac85	-0.056805152
140	0xbcd32e4a	-0.025778908
141	0xbd7a0fa9	-0.06105009
142	0x3df5a829	0.11994965
143	0xbc63d33a	-0.013905341
144	0x3dc85d1a	0.09783383
145	0xbc730c8d	-0.014834535
146	0xbd950230	-0.07275808
147	0x3d941ac1	0.072316654
148	0xbd827da4	-0.0637162
149	0xbcf3a332	-0.029740904
150	0x3dbca017	0.09210222
151	0xbd5ac9fd	-0.053415287
152	0xbca208ca	-0.019779582
153	0xbdb22be9	-0.086997814
154	0x3d2ff2e7	0.04295626
155	0xbd93cfb5	-0.07217351
156	0x3df1abb8	0.11800331
157	0xbb08b833	-0.0020861744
158	0xbd542473	-0.051792573
159	0xbcdabc52	-0.026701126
160	0x3d4b8a1f	0.04969227
161	0xbd73c155	-0.059510548
162	0xbc6c0ab8	-0.014406852
163	0xba8b44e7	-0.0010625393
164	0xbd8151af	-0.06314408
165	0x3d29ffaf	0.041503605
166	0xbdad2662	-0.084545866
167	0x3d36cdf7	0.044630017
168	0x3dc6696d	0.09688077
169	0x3dbe9a9c	0.09306833
170	0x3dd9eeea	0.10641272
171	0xbd357b2a	-0.04430691
172	0x3d5f5a64	0.054529563
173	0x3df3aac8	0.11897808
174	0xbd700357	-0.058596935
175	0x3d8e495b	0.06947585
176	0x3d5e34ef	0.0542497
177	0xbdc9d166	-0.09854393
178	0x3ca0c999	0.01962738
179	0xbd156923	-0.03647722
180	0xbdbfe006	-0.09368901
181	0x3d7c5b2f	0.061610397
182	0xbd0074d9	-0.031361435
183	0xbc9a3186	-0.018822443
184	0xbc47204a	-0.012153694
185	0xbd4d6a26	-0.05015006
186	0x3d80fb76	0.06297962
187	0xbd6398f7	-0.0555658
188	0x3c6cb33d	0.014447031
189	0x3d28e0d1	0.041230027
190	0xb9cf235a	-0.00039508456
191	0x3df98eba	0.12185426

fc.bias f4 [3]
0	0xbde0383a	-0.10948224
1	0xbd7a8c2d	-0.06116884
2	0x3dde9e34	0.108700186
