trainedModels/1620280259/rnn.pt (torch, 22538 bytes, 6 tensors)

rnn_layer.weight_ih_l0 f4 [64, 12]
00000000: 4c45 fdbd cf88 0b3d 0e7c bdbd e34e f03d
00000010: 1cba 103d 07f3 1b3d d86c 083d 803a 22bb
00000020: 8d89 d33c c1a3 9fbd 4053 6b3c efba 863d
00000030: 54e3 34bd 41e6 2c3d 7932 b23d e91f adbd
00000040: 1481 9d3d e438 d3bc 502f a7bd 526a ecbd
00000050: 1635 053d f8a7 33bc 924e c23d a969 893d
00000060: f8d7 39bd 7b7c 003d fa79 f7bc 6653 533d
00000070: 3c56 fabd 4672 1bbc c079 4cbb c8e2 dfbd
00000080: e178 d13d a948 97bd caf4 e63d a9cd c5bd
00000090: fc50 f83d e6c8 37bd 2d43 a2bc 1c0a ef3d
000000a0: a08f 803d 7790 4b3d 94d4 e1bd c499 203d
000000b0: e526 00bd b6a0 fc3d 8031 5d3d d795 223d
000000c0: 3461 563d 9b4c 3cbd 5f1a eabd 2223 183d
000000d0: 24a9 de3d 5ab0 6fbd 0039 453a 7013 113c
000000e0: cfbe 843d b7a5 e7bd fca5 05bd b4a8 ccbc
000000f0: 921e d13d dbeb ccbd bf8f 90bd f678 2bbd
00000100: 4ed8 fdbd 551f a4bd 004d 273a a217 e23d
00000110: c249 713d 897c a7bd ceb9 843d 1c51 eb3c
00000120: 64d3 ccbd fdbe e03c 5911 8fbd 8809 a6bd
00000130: ceb4 c5bd 29fe 0c3d 2017 a5bc b2cc fabd
00000140: e369 34bd a39a 213c b657 d13d 331d 69bd
00000150: 10ae bf3c d155 d03d f203 48bd 0167 4d3d
00000160: 8034 3f3c ee24 81bc 2ede 8e3d be80 f63d
00000170: fa64 ba3d ad97 53bc 0c95 ad3d a22a bf3c
00000180: 523a ec3d e9d9 8e3d 1f8c dbbd 754a 2c3c
00000190: 0e3a e03d 75a3 a3bd 4832 e4bd 8e29 e43d
000001a0: c561 933d a9b9 5b3d 1c5d 5c3d 7337 be3d
000001b0: b8fc 8d3d ffd6 bfbd 8560 db3d 8786 06bc
000001c0: 22f1 a9bd 5928 e5bd f876 9ebd c065 f13d
000001d0: 6c32 b2bc 3ce4 b6bc f8ff 893c fb24 c2bd
000001e0: 48d4 7a3d 9eac 8c3d 6ea1 f2bd 79bd d33d
000001f0: fc8d d5bd f153 3f3d 14b0 f2bd 80fe 8fbd
00000200: c9d2 e83d 3dd9 243d ccf5 48bd 1306 a2bd
00000210: 4a5e c2bd a426 db3d bf12 2c3d 6829 52ba
00000220: 48a5 fa3c 1ba1 efbd d467 213d 20ad 19bc
00000230: 09e6 463c 671f 40bc b4af 55bd 737c ed3d
00000240: 5854 323d 7ad1 5ebc 536e b63d ddc2 58bd
00000250: 74de c13d e16a 76bd 98d5 0bbd b82e 80bd
00000260: d9cc ac3d 8687 f83c 98b0 a7bd 7779 ac3b
00000270: 68e0 dc3c 4ea6 d7bd 2241 883c 97d8 bbbd
00000280: ca3c ca3d 77a6 bbbd 30b0 96bd e058 c43b
00000290: 3574 82bc 6d24 8b3d d6c4 d23d 557e e2bd
000002a0: 60b9 fa3c 6577 e03d c1c6 a7bd 6bbc b9bd
000002b0: 1467 42bd 157a 913b 22d5 f2bd 28b5 9dbd
000002c0: 0bd9 ce3d 6a45 733b 9c43 8bbd 1d26 93bd
000002d0: e8fb 5a3d 8d63 90bc 23f9 df3d 9364 093d
000002e0: 48a5 74bd 9f10 b33d 507d 393d 0025 7a3b
000002f0: 9ba3 dcbc 8bcb d53d 2a46 d5bd 7703 413d
00000300: 001d 97bc 9357 ecbd 8184 483d b577 b03b
00000310: 7647 b73d 66f5 0cbc 12e5 c43d 8c26 cfbd
00000320: c534 ac3c 99a4 e83d 048e 03bd 8f18 6e3d
00000330: d09a ca3c 8954 a73d d9a7 56bb d677 a23d
00000340: 70bc f8bd b8a6 9e3d 5895 b0bd 20fb 7a3c
00000350: f8d0 81bd 26e4 ee3d dc17 5bbd eccf 31bc
00000360: 7e0f 84bd 8730 1cbb b2df 813d 966b 86bd
00000370: 00e8 4d39 1898 13bd 684d c73c 8e6f a7bd
00000380: 80a2 90bc cc69 32bd 0077 f0bd 789f 00bd
00000390: 5096 cabd eec8 ca3c 12dd a2bd 81b4 26bd
000003a0: 1cd4 a03d 1d9a 913d b0d8 fbbd e0b9 a93c
000003b0: 5d62 24bd d11f 47bd bc1e ebbd 4fa8 a8bd
000003c0: 1ee7 a73d 2d3e 69bd eb9a 793d 2f4d b13d
000003d0: b869 6fbd e9ea c43d c29a febd 2c0f adbd
000003e0: 0968 60bd d772 493d 3676 8cbd 73b1 f2bd
000003f0: f433 58bd 58ff dbbd bd10 6d3d 6f93 943d
-0.12366733 0.034066018 -0.09252177 0.117337964 0.035333738 0.038073566 0.033306926 -0.0024754107
0.025822425 -0.077949055 0.01436311 0.065786235 -0.04416211 0.042211775 0.08701033 -0.08453352
0.07690635 -0.025783964 -0.08163321 -0.115437165 0.03252133 -0.01096534 0.09487642 0.06709606
-0.04537198 0.031368714 -0.03020953 0.051593207 -0.12223479 -0.009487694 -0.0031200498 -0.10931927
0.10228134 -0.07386906 0.112771586 -0.09658367 0.121248215 -0.044869326 -0.019807423 0.1167185
0.06277394 0.04969832 -0.11026874 0.039209142 -0.031287093 0.12335341 0.054002285 0.03969368
0.052338794 -0.045971494 -0.11430811 0.03714288 0.10872105 -0.05851779 0.0007523447 0.008854732
0.06481706 -0.113109045 -0.032629 -0.024982788 0.10210909 -0.10005923 -0.070586674 -0.041863404
-0.123947725 -0.080137886 0.00063820183 0.11039664 0.05890823 -0.0817805 0.06480752 0.0287252
-0.10001257 0.02743482 -0.06985731 -0.08107287 -0.096536264 0.034422074 -0.020152628 -0.12246074
-0.044046294 0.009863528 0.10221808 -0.056912612 0.02339843 0.10172618 -0.048831888 0.05014706
0.011670232 -0.01576468 0.06975971 0.120362744 0.09101291 -0.01291458 0.08475694 0.023335759
0.11534561 0.06975157 -0.10720085 0.010515799 0.10948573 -0.07990161 -0.11142403 0.111407384
0.071963824 0.053643856 0.053799734 0.0928792 0.06932968 -0.09367179 0.10711769 -0.008210785
-0.082979456 -0.11189336 -0.07737535 0.117869854 -0.021752559 -0.022325628 0.016845688 -0.0947971
0.061237603 0.068688616 -0.118471965 0.103388734 -0.10427472 0.046710912 -0.118499905 -0.07030964
0.11368329 0.040246237 -0.049062535 -0.07911315 -0.094906405 0.107007295 0.042010065 -0.0008017034
0.03059639 -0.1170065 0.03940566 -0.009379655 0.012139806 -0.011726237 -0.052169517 0.115960024
0.043537468 -0.013599748 0.089077614 -0.05292021 0.09466258 -0.06016052 -0.034139246 -0.06258911
0.08437509 0.03033806 -0.081879795 0.005263503 0.026962474 -0.10529767 0.01663262 -0.091721706
0.09874876 -0.0916261 -0.07357824 0.00599204 -0.015924552 0.06794057 0.1029145 -0.11059252
0.030605972 0.10960273 -0.08192206 -0.09069141 -0.047461584 0.004439602 -0.11857058 -0.077005684
0.100999914 0.0037120231 -0.06800005 -0.07185004 0.053462893 -0.017625595 0.10936191 0.03354318
-0.059727937 0.087434046 0.045285523 0.0038169026 -0.026933482 0.10439213 -0.10413773 0.047122445
-0.018446445 -0.11540141 0.04895449 0.005385364 0.08949177 -0.008603429 0.09614004 -0.10114774
0.021021256 0.113595195 -0.03211786 0.05812889 0.024732023 0.08170421 -0.0032753854 0.07933013
-0.121453166 0.07746643 -0.08622235 0.015318662 -0.06338686 0.116646096 -0.05348955 -0.010852795
-0.064482674 -0.0023832635 0.063414946 -0.06563489 0.0001963675 -0.03603372 0.024328902 -0.08175574
-0.017655611 -0.043557927 -0.117414474 -0.03140208 -0.09891951 0.024754014 -0.07952322 -0.040699486
0.07852957 0.07109473 -0.12297189 0.020718515 -0.04013287 -0.048614327 -0.114804715 -0.08235227
0.08198379 -0.05694406 0.060938757 0.086573 -0.05845043 0.09615118 -0.124318615 -0.084501594
-0.054786716 0.049181785 -0.068584844 -0.11850252 -0.05278392 -0.10742062 0.05787729 0.07254683

rnn_layer.weight_hh_l0 f4 [64, 64]
00000000: 9e9f 663d 9362 18bd 8203 f03c c39a c13d
00000010: 7a24 28bc 8889 073d 9287 eb3d 4986 7dbd
00000020: 203c adbc e2cd 023d 4756 22bd 16ef 4ebd
00000030: 5a46 be3d cfc2 cd3d 1c83 ffbb 275f f2bd
00000040: 2b3e a5bd 80e1 213d 69c7 0d3b bff7 fbbc
00000050: c5cb 20bc ac9a e3bd 95f0 8fbd 3582 15bd
00000060: 630b ea3d c0d6 ec3c a21a 0d3d eb44 ef3d
00000070: 5da8 473d bcd6 f23c 0be3 23bd c02d 7dbc
00000080: 64d6 43bc 23f0 f93c dc10 ffbc 60c3 263d
00000090: 7cfb 8ebd 6e5f 6d3d 8a44 a13c 358a 433d
000000a0: 0e9c 533d 4dd8 9bbd 8002 87bd b9bb dcbd
000000b0: 0cc0 2cbd 75a6 9fbd cf00 cfbd 4759 003e
000000c0: 2e44 7dbd cb8c c0bd cdc0 653d e47f fdbd
000000d0: ffdf d93d 399d 5d3c 5f33 b53c d6c1 6fbd
000000e0: 913c eabc 7dfa f23d 10f6 ddbd 4df4 8b3d
000000f0: 9d27 59bd ad1a ad3d 1f2c 633d 98ba 1a3c
00000100: 0e22 8a3d d516 6dbd 0cb8 89bc bc06 55bd
00000110: 1ace 9e3c d6ed fc3d 08f4 df3d 4623 fa3d
00000120: ec12 0b3d 7074 5bbd 8c5a 9d3d 5c2f d63d
00000130: 0264 c2bd 9e5a 1cbd 2d89 f03d 958e 47bd
00000140: bd21 27bd 493e efbb 98a0 63bd d462 fa3d
00000150: 2658 b7ba bdae 4fbd b4ff a9bd 6e69 eabc
00000160: ac07 68bd a509 b3bd 948d 033d 97e1 f2ba
00000170: 89a9 cdbc ab66 82bd 5d3f 433d f475 1fbd
00000180: d76e 8cbd a56a c1bd 2933 21bb 927a 0c3d
00000190: bf14 973d b28a 6b3d 3966 fa3d cd3a e53d
000001a0: 3bfd c23d 5f95 17bc 5510 1f3d 69d3 dabd
000001b0: b79b d83d d931 82bd 5180 5bbd 55c6 193d
000001c0: 9ea3 f4bc e301 8cbd 2fa1 33bd 6a85 cb3d
000001d0: 441f db3d b2a5 993d 267d dd3d cb7c c23c
000001e0: 4132 233d 0b17 55bc 80f4 10bd 3cea 693c
000001f0: 497e 9d39 0fe5 88bb c0fb e43d 6da9 d83d
00000200: 3772 e33d 426f 603c 7877 073d 707c 5ebd
00000210: c173 f8bd 0610 a3bc 227f 273d c99c b33d
00000220: ee10 153d 85dc bb3d 2819 cdbd f60f 253d
00000230: 71e6 1c3b e375 c53c fe82 e3bd dca5 dd3c
00000240: 6932 81bd 0d26 623c 73cf 50bd 17eb c3bd
00000250: 50fe f73d 4c53 8bbd 7ed0 26bd 2866 c83d
00000260: d753 a4bd 4bd6 11bb b9c5 88bd 689c 5ebd
00000270: f9d9 5fbd f96b f83d eb0f d6ba bcc2 143d
00000280: e8cd 0fbd c5f2 b23d 6d58 b6bd 091c bf3c
00000290: 82da aabd 932d 63ba 6099 bc3d d965 af3d
000002a0: 4b09 a2bc d6f2 2e39 eaaf f7bb d6df 3a3b
000002b0: 4042 aa3d 2a99 72bb c351 74bd 28b2 943d
000002c0: 1ca9 bbbc b34c e4bd 2f3f e83d c13a 963d
000002d0: 71bf 373d 7277 b93c 8be5 933d 92af 69bd
000002e0: 66c9 763d e8a9 0dbc 1dd2 bdbd 9043 853b
000002f0: b7d4 fbbd 6903 d13d ab00 dfbd 2b65 fabd
00000300: f13f 99bb 39ce df3d 4429 99bd 4d6c 6c3c
00000310: dabe 36bd 7273 c13b 0b54 573d bf11 ebbd
00000320: 8aa0 eb3d 7b67 7b3d d8f4 23bd d518 473d
00000330: 416a 893c 7abc 99bd 1f79 c63d 2e26 dbbd
00000340: d027 573d e22d 293d 8e61 babd b194 6f3d
00000350: 3894 d33d 4b5b d23d e5fb 30bd 30d2 c43d
00000360: 6a98 4fbd dfbf b0bb 8aee 7fbd f32e 9a3a
00000370: a7fb 68bd 44c8 48bd c8b8 a6bd 5a77 6ebd
00000380: d42c 44bd 2b31 a1bd 746d 7e3d ac55 e6bc
00000390: c94d a23d 602b fe3d 0e87 b9bd 363a 73bd
000003a0: 64cd 003d bac0 33bd 5c73 eb3d 10e7 d5bd
000003b0: 5ae8 ef3a 3d2c 5a3d 4f0a e73d 1ce4 af3d
000003c0: e5e3 3cbd b3b2 b43c 0260 c9ba 53fc 47bd
000003d0: 5697 ad3c 070c 52bd 707b cdbb 6642 8bbd
000003e0: 7821 b43d 7636 c33d eba8 36bd 42a1 2d3c
000003f0: 321c 35bd 7be2 a43d f157 eabb 5658 bfbd
0.056304567 -0.037203383 0.029298548 0.094533466 -0.010262603 0.033090144 0.11500467 -0.061895642
-0.021146834 0.031934626 -0.03963306 -0.05052098 0.09290762 0.100469224 -0.007797612 -0.11834555
-0.08068498 0.039521694 0.002163375 -0.030757783 -0.009814207 -0.11113486 -0.07028309 -0.03650113
0.11427953 0.028910995 0.034449227 0.11683067 0.048744548 0.029643409 -0.040011447 -0.015452802
-0.01195297 0.030510014 -0.031135969 0.040713668 -0.069815606 0.057952337 0.019686002 0.047739226
0.051662497 -0.076096155 -0.06592274 -0.10777993 -0.042175338 -0.07795421 -0.10107576 0.12534057
-0.0618326 -0.09401854 0.056092072 -0.12377909 0.10638427 0.013526254 0.022119222 -0.058534466
-0.028593333 0.11864183 -0.10837948 0.06833706 -0.053016294 0.084523536 0.055462 0.0094439015
0.06744777 -0.057883102 -0.016811393 -0.052008376 0.019385386 0.12350051 0.10935217 0.12213759
0.033953592 -0.05357784 0.07683286 0.10458252 -0.09491731 -0.038172357 0.11744914 -0.04871996
-0.04080366 -0.007301126 -0.055573076 0.12225881 -0.0013988062 -0.050703753 -0.083007246 -0.028614726
-0.05664794 -0.08742074 0.03211744 -0.0018530366 -0.025105255 -0.063672386 0.04766785 -0.03893085
-0.068570785 -0.09444169 -0.0024597144 0.03429658 0.07377004 0.057505317 0.12226529 0.11192856
0.09520956 -0.009251921 0.038833935 -0.106848545 0.10576575 -0.06357164 -0.05358917 0.03754266
-0.029863175 -0.06836297 -0.04385489 0.09937556 0.10699323 0.07502307 0.10814886 0.023741147
0.039842848 -0.013005982 -0.035389423 0.014277037 0.00030039463 -0.0041776965 0.1118083 0.105791904
0.11105769 0.013698401 0.03307292 -0.05431789 -0.12131453 -0.019905102 0.040892728 0.08770139
0.0363931 0.0917292 -0.10014564 0.040298425 0.0023941065 0.024104064 -0.11108969 0.027056627
-0.06308443 0.013803017 -0.05097909 -0.09566324 0.12109053 -0.06802997 -0.040726177 0.0978511
-0.08023804 -0.0022252973 -0.066783376 -0.05434838 -0.054651234 0.12129969 -0.0016331648 0.036318526
-0.035108477 0.08737711 -0.08903585 0.023328798 -0.08342458 -0.0008666154 0.092089415 0.08564348
-0.019779822 0.00016684397 -0.0075588124 0.0028514764 0.083134174 -0.0037017562 -0.059648287 0.07260543
-0.022907786 -0.11147442 0.11340176 0.07335425 0.044860307 0.022639964 0.07221516 -0.057052203
0.060250662 -0.008646466 -0.092685916 0.004066892 -0.122964315 0.102057286 -0.10888799 -0.122263275
-0.004676812 0.10928006 -0.07478574 0.014430118 -0.044615604 0.0059036547 0.052570384 -0.11477994
0.1150523 0.061377984 -0.040028423 0.048607666 0.016774299 -0.07506652 0.09691071 -0.107006416
0.052528203 0.041303523 -0.09100638 0.058491413 0.10331005 0.10271319 -0.043208975 0.096104026
-0.050682463 -0.0053939666 -0.062483348 0.001176326 -0.05688062 -0.049019113 -0.08140713 -0.05821929
-0.047894314 -0.07870706 0.0621161 -0.028117023 0.079249926 0.12410617 -0.09058963 -0.059381686
0.031445876 -0.04388497 0.114966124 -0.10444462 0.0018303499 0.053264845 0.11281263 0.0858843
-0.046115775 0.022057867 -0.0015363696 -0.04882462 0.021190327 -0.051281 -0.0062708184 -0.06799774
0.08795446 0.09531872 -0.044594686 0.010597529 -0.044216342 0.0805101 -0.0071515967 -0.093430206

rnn_layer.bias_ih_l0 f4 [64]
00000000: 3cc3 853d d6c5 a4bd fe43 a2bd ee80 fcbc
00000010: 6b4a 50bd c55b 673d 261c c93c 2f75 46bd
00000020: ff49 313d 2871 d0bd 7e9c d63d 9b4c 3d3d
00000030: 2fb3 43bd baac e1bb 2711 63bd 72fd 9a3d
00000040: 40b6 933d e3b0 3c3d 9e6f 06bd f273 62bd
00000050: 3457 b63d 0672 cabc 4224 cabd 2500 423d
00000060: 274b fa3d a293 9dbd 75f9 d4bd a462 f23d
00000070: 01dd 483d f19a bdbd 3afd fd3d d989 483d
00000080: 013e 6dbd a091 b1bd e5e5 c3bd fd70 33bd
00000090: a86a df3c 3e29 fbbd deaf c7bc cdb0 16bc
000000a0: 193a 76bc a6db 343d 6314 6f3d e37b 483d
000000b0: 2e61 f83d ce20 803c 018a 3b3d 15de 8a3c
000000c0: d759 143d ca5e d7bb fef9 ac3c 5ae7 a2bc
000000d0: f3f5 e13d 3f09 5a3d 3a2c b8bd d6d2 eabd
000000e0: 691b ccbc 95b7 b6bd 32cb db3d b588 c53d
000000f0: a380 343c 5cf3 dfbd 89a9 453d 90ae c7bd
0.065313786 -0.08045547 -0.07923125 -0.030823197 -0.05085222 0.056484003 0.024549555 -0.0484516
0.04328346 -0.10177833 0.10479067 0.046215635 -0.047778305 -0.0068870457 -0.05543628 0.07567872
0.07212496 0.04606713 -0.03282129 -0.055286355 0.089033514 -0.024712574 -0.09870197 0.04736342
0.122213654 -0.07694174 -0.10399143 0.118352205 0.04903889 -0.09258068 0.12401815 0.048959587
-0.05792046 -0.08670354 -0.09565333 -0.043808926 0.027272537 -0.12263726 -0.024375852 -0.009197426
-0.0150285 0.044154786 0.05836905 0.048946273 0.121279106 0.015640642 0.045785908 0.0169516
0.03621849 -0.006572579 0.0211153 -0.019885708 0.11033239 0.053231474 -0.089928105 -0.11465995
-0.024915414 -0.08921734 0.10732116 0.096452154 0.0110169975 -0.10935089 0.048257384 -0.09750092

rnn_layer.bias_hh_l0 f4 [64]
00000000: f600 84bd b4f9 84bd db7b 6a3d 3ce7 69bc
00000010: 6a51 dc3d 1984 4d3d cfbc e1bd ed5e eebd
00000020: eaa1 adbc 3b16 3cbd 974b 32bd f315 793d
00000030: 6d32 afbd ab16 54bd e6c6 abbc 5eb1 8abc
00000040: 4c4d b83d 0d4e bfbd 2c6a b03c 398e dd3d
00000050: 145f 98bd 79ae 413d 335f 5cbc 5808 aa3d
00000060: d1f8 873d 5149 02bd 1f0d ccbd 3283 7bb9
00000070: 4eb3 8fbd 5155 cebd bd92 793c 61a8 193d
00000080: 8179 72bd b87f ecbd 69d1 f4bd 3c69 733c
00000090: 2c89 f2bd d310 28bc 10b2 d93d b9f1 733d
000000a0: e989 b93d 0730 be3d babe cebc fe1d f4bd
000000b0: 6ce0 aabd 0b2f ccbd efab c83d 6ae1 523c
000000c0: 866b eabd 6747 0f3d e6d2 cf3d 0d87 11bd
000000d0: 0b88 623c 3c93 3a3c 6af1 c73d 035c 353d
000000e0: 00db a23d 6f54 cebd a451 af3d 6c1b cebc
000000f0: ec43 98bd 26d2 afbd 6026 bbbd ff52 03bd
-0.06445496 -0.064929396 0.057247024 -0.014276322 0.10757716 0.050174806 -0.110223405 -0.116391994
-0.02119537 -0.045919638 -0.04352912 0.060811948 -0.0855454 -0.05177943 -0.020968866 -0.016930278
0.08999118 -0.09341059 0.021535002 0.108181424 -0.0744001 0.04728553 -0.013450432 0.08302373
0.06639255 -0.0318082 -0.0996344 -0.000239861 -0.070166215 -0.100748666 0.015232739 0.037514094
-0.059197906 -0.11547798 -0.11954004 0.014856633 -0.1184257 -0.010257917 0.10629666 0.059556697
0.090595074 0.09286504 -0.02523743 -0.11919783 -0.08343586 -0.0996991 0.09798419 0.012871126
-0.1144629 0.034980204 0.101476476 -0.035529185 0.0138263805 0.0113876425 0.09762843 0.044277202
0.07951927 -0.10074698 0.085604936 -0.02515956 -0.0743483 -0.085850045 -0.09138179 -0.032061573

fc.weight f4 [3, 64]
00000000: ad9b 7fbd 0279 bebc 1782 e8bd 3769 a2bd
00000010: 5046 043d 34c7 04bd feca 8abd 7d2a b23d
00000020: 69ec e2bd 7c10 e6bc d957 393d b5b3 b23d
00000030: 1ffb 403d 7d7a afbd f3ce 8abd ba6b 113d
00000040: 5e7b 41bd c35c b0bd 6ef2 3e3d 0f76 6abd
00000050: 73e1 253d f929 723d dfe5 cd3d a4a1 12bd
00000060: db63 98bd f670 9f3d 0e29 67bd 8392 4e3d
00000070: 03b8 d83d 9b59 b83d 5d26 9ebd 9ab7 90bd
00000080: 6f72 f43d e3c9 9fbd 1312 e1bd 72c2 8e3d
00000090: 0efe dd3d 9db6 fabc 2295 673c 2037 bcbd
000000a0: dd0c b2bd 182d dd3d 0d02 2f3d e82e ccbd
000000b0: 3256 86bd f7fc dc3d 6089 563d 43b0 783d
000000c0: 0c80 d93c 00d0 41bd 7705 6abd 4229 febd
000000d0: 25d3 603d e523 0ebd 0539 c5bd e326 9c3d
000000e0: 505b c83d 5fe5 aa3d f0bd c0bd c28f 6d3d
000000f0: 8df4 b8bd 0978 d2bd f5dc c6bd c1b5 a8bd
00000100: cb1f fabd 0d05 9c3d 0e19 9bbd c11d d23d
00000110: 6549 9e3d 81e1 393d 82fe 86bc 5e09 863c
00000120: bbba 60bd d3a0 1fbc d3fb 323c be6c 89bd
00000130: a7c3 babb 821f 883d db4b 7dbc d265 a33c
00000140: a0cc acbd 08ec 95bd 3774 87bd 8a54 d0bd
00000150: 2dce 86bd ed8e b5bd da10 bfbd c425 7a3c
00000160: bb6d 6cbd a4ec d0bd 4a03 da3d 9e68 f53d
00000170: 0942 b33d 2f58 453d 5740 40bd 0d80 6d3d
00000180: 15a1 5dbd 6996 1dbd 6f5f 803c 4c29 973d
00000190: a85a cdbd 1967 f8bc 9f23 6e3d be11 243d
000001a0: 7302 06bd 05df afbd 812e f5bd 2355 89bd
000001b0: 8eac a53d 6c5a 86bd 2606 3f3b 27d6 35bd
000001c0: 1e54 f1bd cb16 91bd 2e77 d1bc ec4f 673c
000001d0: dd19 693d e9fd 223d c341 fdbd 28d7 d9bd
000001e0: eb4e 5bbc 593f 3fbd bb24 bebd eaf7 a03d
000001f0: e790 693d 564f a13d ecf6 ec3d 33f0 65bc
00000200: f96c 94bd 5806 8abd 2fa8 db3d 37ff 2fbc
00000210: e5cf 22bd 08be 8abd 2d45 ba3d dde0 3bbc
00000220: 5282 1abb 4a1c c1bd 613c 46bd bf47 553d
00000230: 3260 e73c 44fb ddbd 7c9d febd 5ad5 91bd
00000240: 3253 cbbd c2d9 113d 8399 d2bd acbd f8bd
00000250: f2b3 433d bddf edbd 0915 3e3d 32b7 c2bd
00000260: 4e5e b6bd bcb5 f93d 8346 663c 292f f73d
00000270: dd23 d33a f4a3 8a3d ca78 c73d 1f1d 6fbd
00000280: 513a 113d a297 9d3d 4cd6 833d 9afd cc3d
00000290: 280e e2bd 4010 af3d bee4 c4bc d6d7 8fbd
000002a0: 6bda 083d a58d 45bc f50e e43b 620b 4a3d
000002b0: 1760 c03d cfad cabc 01c1 b9bd 6b7f b0bc
000002c0: 4d4a 0a3b 6b29 f9bc 8fe4 443d 89c6 de3b
000002d0: ffcb 6d3d 75c9 fa3d d9db 2a3d 0ca8 293b
000002e0: f5ab 29bd b2dd a5bd 3db9 9a3d d2e5 c5bc
000002f0: 2694 873b 82fa d63d b616 a1bd 0aea dfbd
-0.062404323 -0.02325106 -0.11352938 -0.079302244 0.032293618 -0.032416537 -0.06776999 0.0869951
-0.11080248 -0.028084032 0.045249794 0.08725683 0.047114488 -0.08568285 -0.06777754 0.035503127
-0.047236793 -0.08611443 0.046617918 -0.057241496 0.04049821 0.05912206 0.1005361 -0.035798684
-0.07440921 0.077852175 -0.056435637 0.050432693 0.105819725 0.09001466 -0.07722161 -0.07066269
0.11935889 -0.07802179 -0.109897755 0.06970681 0.10839473 -0.030604655 0.014134677 -0.09190202
-0.0869386 0.107996166 0.042726565 -0.09969884 -0.06559409 0.10790437 0.052377105 0.06071497
0.026550315 -0.047317505 -0.057134118 -0.12410213 0.054888863 -0.0347022 -0.09630016 0.076246046
0.097830415 0.0834453 -0.09411228 0.057998426 -0.09031019 -0.10276801 -0.09710113 -0.08237792
-0.12213095 0.07618151 -0.07573138 0.10259581 0.07728843 0.045381073 -0.01647878 0.016361888
-0.05486558 -0.009742933 0.010924297 -0.06710194 -0.005699593 0.06646635 -0.01545998 0.019946013
-0.084374666 -0.0732041 -0.06613963 -0.101723745 -0.06582294 -0.088651516 -0.09329386 0.015267793
-0.057721835 -0.102013856 0.106451586 0.11982845 0.087528296 0.0481798 -0.04693636 0.057983447
-0.054108698 -0.03847352 0.015670506 0.07380924 -0.10027057 -0.030322598 0.05813944 0.040055983
-0.03271718 -0.085874595 -0.119717605 -0.06705692 0.08089553 -0.06560215 0.0029147952 -0.044393685
-0.11783622 -0.070844255 -0.025569525 0.014118176 0.05690943 0.03979293 -0.12366059 -0.10636741
-0.013385515 -0.046691272 -0.092843495 0.07859786 0.057022955 0.0787646 0.11570534 -0.014034319
-0.072473474 -0.06739491 0.10725438 -0.010742 -0.039749045 -0.06774527 0.090952255 -0.011467186
-0.0023576212 -0.09429224 -0.048397426 0.052070376 0.028244112 -0.10838941 -0.124323815 -0.07120772
-0.099279776 0.03560806 -0.10283186 -0.12145552 0.04777903 -0.1161494 0.04640678 -0.09507598
-0.08904706 0.12192866 0.014054897 0.12069542 0.001610871 0.06769553 0.097398356 -0.05837738
0.035456005 0.07694937 0.06437358 0.10009308 -0.11037856 0.08548021 -0.024034854 -0.07023589
0.033411425 -0.0120576965 0.006959791 0.04932726 0.09393328 -0.024741082 -0.09070016 -0.021545133
0.0021101416 -0.030415257 0.048069533 0.0067985696 0.058055874 0.12245456 0.04171357 0.0025887517
-0.041423757 -0.08098926 0.07554863 -0.024157438 0.0041375337 0.10496999 -0.0786566 -0.10933311

fc.bias f4 [3]
00000000: a9b9 79bd 68eb e13d 50f4 cebd
-0.060968075 0.11031228 -0.10105193
