trainedModels/1620284150/rnn.pt (torch, 22538 bytes, 6 tensors)

rnn_layer.weight_ih_l0 f4 [64, 12]
00000000: 5db9 cfba 3895 c43b c836 f83d 54a7 953d
00000010: d302 c9b7 51d4 35bd 626e f1bd a528 8a3d
00000020: 173c ed3d 3d86 4e3d 01cf 3fbd 4f89 563d
00000030: 4d6f 4f3c 9dd4 d9bd e39c efbc f6f9 da3d
00000040: 3b6c 733d 8b02 863d 1c65 1abc 9ece d83d
00000050: 2c38 bd3d 5fe3 d53d b424 8dbd 02a7 b43c
00000060: c30c 02be 67f4 e3bd b25c b83d bc52 423d
00000070: 91e7 bcbd 1808 b53d 3148 8cbd f394 3cbd
00000080: d1ba 06be ec4e 693d 9420 77bd 48f4 a63d
00000090: 937c a7bd abf4 f53c 1105 d8bc 1b40 fe3d
000000a0: e3d7 91bd c5e9 3e3c 88a3 173d ee19 083d
000000b0: 5aec f63d 0ffd d63d 0838 4a3c c266 a6bc
000000c0: 1a69 80bb 33a7 a23d 2a68 833d 8b4b efbd
000000d0: 4d13 c13c a89e cd3d 2d21 333d 1157 adbc
000000e0: 95f3 ffbd e372 37bd 7eeb eb3c 9f47 733d
000000f0: 48dc 123d 4746 c33d 5400 c43d ebfa 94bd
00000100: 74f2 c33d 8caa 4f3c 9862 ecbd 6e0e 9f3d
00000110: e465 c33d e343 903d ca7d 933d 5210 b9bd
00000120: 8a06 dfbd a1c0 29bd 6bfe debd 7138 823c
00000130: f9bb b6bd bc08 8dbd 5dd2 d8bc a60b 0ebe
00000140: 03de 083d 62fa e93d 4383 5cbd 1295 70bb
00000150: 6729 3fbd 58e6 4fbc e6dc 10bd 387b 38bd
00000160: cb9c 313d b4db c9bd b16e 553d 40cc 903d
00000170: 01a5 e7bd 1056 733d abfd 333d 6fbf 58bd
00000180: 790f acbd 2034 e93d 5064 0bbd 8262 cb3d
00000190: a776 1dbd ad78 e1bd 2b3d 7bbd 5928 653c
000001a0: 1385 b1bd 0b65 3bbd 7483 6dbd eb2c 8dbd
000001b0: 4042 abbd 55c8 38bc 163c e03d cbae 823d
000001c0: 70af 2c3d 8535 d93d bf65 333d 5509 04bd
000001d0: a0c5 a7bd 2ec4 99bd 7d0f 26bb 0a49 f2bc
000001e0: 621a a9bc d298 87bc d7bc debd 6e08 a23c
000001f0: bbaa b33d acf4 983d 7785 ccbd 1f5d 433d
00000200: dcd7 98bd 6a6a 44bd 836f 8f3d 7437 a73d
00000210: e4f6 653d 3249 43bd dbf5 c43b af14 1dbb
00000220: 8ccc d3bd be00 043d 104d c53d 311d 95bd
00000230: 30e8 2f3d 9531 c23c 1e0e 79bd e691 8b3b
00000240: cc41 5fbd 5a57 14bd 7bfa b93d 797b 82bd
00000250: cc37 d03d b030 09be 9972 b7bd ef23 1f3c
00000260: 6fcf a3bd 495a 753c ec31 293d 99d8 813d
00000270: f03e 663d 4f65 ea3d b907 4c3d 7980 37bd
00000280: aeeb d6bd f275 23bd dd90 833d 0b93 8bbd
00000290: ea62 b23d 4610 d5bd 55d2 b23c cd47 87bd
000002a0: 55fc df3c f134 5fbc f1d5 123b 45d8 a13d
000002b0: 8114 a8bd 98fc 3c3d 768a 91bd 652e 6fbd
000002c0: 4ce5 8abd 0571 0a3e b329 18bd d07a 883d
000002d0: 104e b5bc df18 133d 7c50 803d 68e6 f63d
000002e0: c169 473d 652d 033e 9ba8 d6bd a110 80bd
000002f0: 6364 ef3b 8a4a e2bd 1bd0 28bd 830c a53d
00000300: 4a7b 993d 9060 fcbd 9c9d 213d 58db a3bd
00000310: c9ca a1bc 3078 dc3c 0739 983c c82a 5b3d
00000320: 8a4b 3f3d 2e13 6ebd 0641 a6bd 6c6b 143d
00000330: 73b2 8a3d 2ac7 ad3d 1910 603b fb68 ed3d
00000340: 71b5 a43d c799 ebbd 47e0 b9bc 5746 93bd
00000350: e3ae ca3d a0f0 f2bc 03d2 823d 6c8d 9abd
00000360: e442 84bd 71b4 7bbd 9189 ef3c 5bdf 9cbd
00000370: cc7a 143d fcf5 003e 25e9 70bd 80c9 e33d
00000380: cb1d 973d e926 e03d 7d21 863d 5c63 46bd
00000390: aff8 4fbd 8914 933d 47e1 ca3d 4464 e43d
000003a0: 0bd1 90bd aeff acbd 2579 14bc 3e36 6c3d
000003b0: c78e f83b 4c42 c43c 6104 e83d e2c1 af3d
000003c0: 9247 07be 991d bf3c c4b7 e13d 5bc2 c53d
000003d0: a85b be3d 62c3 933d 414a 55bd b5cd c13d
000003e0: b17c 823d 0167 d5bd 40cd d03d ee02 e63c
000003f0: dae1 eb3d c1e7 e73d fa3d f83d 6c11 cdbc
-0.0015848089 0.0059992336 0.12119824 0.07307306 -2.3962382e-05 -0.044391934 -0.11788632 0.067460336
0.11583727 0.05042099 -0.046828274 0.05237704 0.0126608135 -0.10636256 -0.029249614 0.106922075
0.05942939 0.06543454 -0.00942352 0.10586284 0.092392296 0.10443758 -0.06891766 0.022052292
-0.1270018 -0.111306004 0.09002055 0.047442183 -0.09223855 0.088394344 -0.06849707 -0.046040487
-0.13157202 0.05696003 -0.060333803 0.08152062 -0.081780575 0.030023893 -0.026369603 0.12414571
-0.07121255 0.011652415 0.03702119 0.033227853 0.12056799 0.10497486 0.01234246 -0.02031267
-0.003918779 0.07942047 0.06416352 -0.116843306 0.023568774 0.10040027 0.04373281 -0.02115968
-0.124976315 -0.0447873 0.028798815 0.059394475 0.035854608 0.09534889 0.09570375 -0.07274421
0.09567729 0.012674939 -0.11542243 0.07766424 0.095409185 0.07044198 0.07201727 -0.09036316
-0.10889919 -0.04144347 -0.1088837 0.015896054 -0.08922572 -0.068864316 -0.026467497 -0.13871631
0.033414852 0.1142471 -0.05383612 -0.0036709947 -0.046670344 -0.012689196 -0.035366915 -0.045039386
0.04336242 -0.09856358 0.052107517 0.070702076 -0.11310769 0.059408247 0.04394309 -0.05291694
-0.08401389 0.11386895 -0.034031212 0.09930898 -0.038443234 -0.11009345 -0.06133763 0.01398667
-0.0866796 -0.04575066 -0.05798669 -0.06893333 -0.083622456 -0.011278232 0.109489605 0.06380995
0.042159498 0.10605911 0.043798205 -0.032235462 -0.08191991 -0.075081214 -0.0025338822 -0.029575843
-0.020642463 -0.016552363 -0.10875862 0.01977941 0.08772799 0.074685425 -0.09986394 0.04769623
-0.07463047 -0.047953047 0.07003691 0.08164874 0.056143656 -0.047677226 0.0060107536 -0.0023968627
-0.103417486 0.03222727 0.09633839 -0.072809584 0.04294604 0.023705283 -0.06080448 0.004259336
-0.05450611 -0.036216117 0.090809785 -0.06371207 0.101668924 -0.13397479 -0.08957405 0.009713157
-0.07998549 0.014975139 0.041307375 0.06340141 0.056212366 0.11445104 0.049812052 -0.044800255
-0.10494171 -0.039907403 0.06424115 -0.068151556 0.087102726 -0.104034945 0.02182881 -0.06605492
0.027342001 -0.013623462 0.002240535 0.07902578 -0.08207036 0.04613933 -0.071064875 -0.058393855
-0.06782016 0.13519676 -0.037149142 0.066640496 -0.02213195 0.03591239 0.06265351 0.12055665
0.04868484 0.12810285 -0.10481378 -0.06253172 0.007305668 -0.110493734 -0.04121409 0.08059027
0.07494219 -0.12323105 0.03945695 -0.08000821 -0.019750016 0.026912779 0.01858188 0.053507596
0.0467029 -0.05812376 -0.08117871 0.036235258 0.06772318 0.08485253 0.0034189282 0.11592289
0.0804242 -0.1150394 -0.022689952 -0.07191151 0.09896638 -0.029655755 0.06387713 -0.07546505
-0.06458071 -0.06145138 0.029240401 -0.07659789 0.03624992 0.12593836 -0.058816094 0.111224174
0.073787294 0.109449215 0.06549356 -0.0484346 -0.050774273 0.07181651 0.099062495 0.11151937
-0.07071122 -0.084472045 -0.009062086 0.057668917 0.0075853798 0.023957394 0.1132896 0.08581902
-0.13210896 0.023329543 0.11021379 0.09656211 0.09294826 0.07215001 -0.052072767 0.09463064
0.06371439 -0.10420037 0.10195398 0.028077569 0.11517687 0.113235004 0.12121196 -0.025032721

rnn_layer.weight_hh_l0 f4 [64, 64]
00000000: a874 da3d 431b 5ebd ce79 b23d 95e7 36bd
00000010: e59d 00be 51e5 763c 10a0 513d 65f3 883d
00000020: 2ffd ae3d c31a 8cbd 6339 af3b e257 7dbc
00000030: 90d0 3bbd d605 98bd 1eb2 80bd 5b21 babd
00000040: da29 c2bd 9aba e6bd 5747 a1bd 673d 703d
00000050: b1c4 dd3c 0ab3 5d3d b830 b13b 1360 8d3d
00000060: a974 343d 3089 afbd 8e95 c3bd 480e ae3d
00000070: 9588 b6bd 2897 fdbd 494e 793d 0a85 08bd
00000080: 887c da3d 3c1e 26bd 2a60 c83d c2cf 42bd
00000090: 7830 d0bd a847 b8bc 288b dabd 5f61 813d
000000a0: 3220 c0bd 1b95 22bd 498c 8b3d 36a9 e53d
000000b0: 5b3a cabb 932d 81bd f708 6ebd 8ccb 6c3d
000000c0: d295 9cbd ed70 003d 609a 4ebc 0d45 76bb
000000d0: 6a4e 84bd 6952 8dbd a257 89bc 46be c83d
000000e0: d003 cdbd b619 393d 7492 a2bd fe77 f53c
000000f0: 3b6d ba3c bfab 753d 862f 1a3c 400a ee3d
00000100: 798f dcbd e88f 8b3d bc36 e33c 28f0 c4bd
00000110: 48d2 d2bd a90c 6c3d 0a04 a13d 016c f2bc
00000120: 2585 bc3a 2dbd 673d f7e7 f0bd 6442 063e
00000130: 9726 12bc c3d0 04bd 6870 1c3d 90fa 893d
00000140: 8284 9abd 9d7b 3a3d 43ab e33d be36 003d
00000150: a518 093d e299 2b3d ba62 a7bd 841a 98bd
00000160: f07d cdbc 33a3 b63d c4e0 2a3c d285 9cbd
00000170: 99f3 efbd b0f0 f9bd cbd4 20bd dfe9 ccbc
00000180: 06c7 053d 20d3 ae3d 9458 2d3d 7c22 98bd
00000190: b8d1 b53d f388 743c 37d7 84bd 3e77 20bd
000001a0: 4318 023e 8cc6 d13d 1011 ed3d 7192 4f3d
000001b0: 47e4 f0bd 5c15 143d cf2c a63d 129d c7bd
000001c0: 1e88 b13c 233b 403d 10b0 68bd bb01 2fbd
000001d0: ffbb 583c e050 9cbd bd07 c03d 2ad0 0c3e
000001e0: 798a 833d 40d2 683d 1f69 c9bc e2a8 093c
000001f0: 7d7b 283d 2166 d0bd d216 e5bd 1f52 db3c
00000200: 59cf c0bd b454 e9bd 0d91 e03b a55f 94bd
00000210: 91c0 8f3c 4a6d 46bd 0f18 f7bd a271 913d
00000220: 49a7 133d 7b05 1c3d c291 973d b1ee 73bd
00000230: ed09 993d 9e16 32bd 3253 063e 1ea0 b73d
00000240: b663 da3d 4158 39bd b178 ba3d bf0d bbbd
00000250: c083 7e3d 4249 033e 2a7a 4bbb 8d36 a23d
00000260: 3543 6cbd 9c88 c2bc 43a5 ebbd ae81 06bb
00000270: 22a9 613d 9666 1d3d 1ead 9c3d 819c edbd
00000280: ac5f d7bd 18db d1bd 8574 9b3d ea26 90bd
00000290: a6e1 9ebd 66bf 83bd 330e a53c 88a3 f1bd
000002a0: b304 543d 1f85 fb3d f6af a0bc 4fa1 1a3d
000002b0: 2c5d c8bd 6736 1e3d 2842 e23d 7869 8dbd
000002c0: ed91 2cbc 19f9 babc d6d0 97bd de07 d73d
000002d0: f0fa f33d 4ce3 e8bd a729 7ebc b59d d73a
000002e0: 49d0 8bbd 6f3a f23c 146e d83d 4121 a2bc
000002f0: b8fd aabd 39e3 a2bd 1140 ce3d 1a41 dbbc
00000300: 3b11 d93d 42ec feba 577d bd3d 378b 6e3d
00000310: 84d0 f43c 35f2 82bc 4caa 553d 1fa9 cdbc
00000320: 8742 2d3d 4827 30bd 30b8 3cbc 2429 53bb
00000330: e3b1 bfbd 77a0 cfbd a647 07be ab31 a43d
00000340: 8dae 8abc ef4b 8f3d 758c ed3b 5d27 0f3c
00000350: 89d2 be3b 0a2f 5ebd 1037 e7bc c86d 403d
00000360: b419 6dbd 75ff fb3d 40e0 51bc 7a12 763c
00000370: 0486 31bd 5fbf a83d f292 e23c 40b0 f3bd
00000380: db14 cdbd 6462 75bd 8f78 5e3d 17bb 97bc
00000390: fb5f d1bd 4cb1 97bd e1c7 d6bd 1204 b8bd
000003a0: 2a9a b8bd 6fe0 a43d d74c 003e ca34 b13d
000003b0: ed56 7f3d a9a8 df3d 8972 b8bb 54b0 4b3d
000003c0: 95ca cdbd 05aa 9bba 7cfd 6d3d e919 acbc
000003d0: 4e15 0a3d cbe3 e7bd ce3f bdbd 323c ba3c
000003e0: ef79 883d a260 c93d 5b0b 873c 0435 cf3c
000003f0: 3a8b 60bd 66be b0bc ccad 14bd f694 f13d
0.10666782 -0.054225218 0.08714639 -0.044654448 -0.12560232 0.015069322 0.051178038 0.06687049
0.08544385 -0.06841042 0.005347417 -0.015462847 -0.045853198 -0.07422988 -0.06283973 -0.09088393
-0.09480639 -0.1126606 -0.07874935 0.058652308 0.027071329 0.054125823 0.005407419 0.0690309
0.04405657 -0.08571088 -0.0955001 0.08498818 -0.0891277 -0.123823464 0.060865674 -0.03333
0.10668284 -0.040556177 0.09783967 -0.047561415 -0.10165495 -0.022495106 -0.10671073 0.063174
-0.09381141 -0.03969298 0.06813867 0.11213915 -0.0061715073 -0.06307521 -0.05811402 0.057811305
-0.076457635 0.031357694 -0.012610048 -0.0037577779 -0.06460269 -0.06900484 -0.01676542 0.09801917
-0.10010493 0.045190535 -0.0793809 0.029964443 0.022757163 0.059978243 0.0094107445 0.11623049
-0.10769553 0.06814557 0.02773606 -0.09616119 -0.10294014 0.05762926 0.078620985 -0.029592516
0.0014382942 0.056576896 -0.11762994 0.13111264 -0.008920333 -0.032425653 0.038193136 0.06737244
-0.07544805 0.045528043 0.1111665 0.031302206 0.03347077 0.0418948 -0.081731275 -0.074269325
-0.025084466 0.089178465 0.010429565 -0.07642712 -0.117163844 -0.122041106 -0.039265435 -0.025013862
0.032660507 0.08536363 0.042320803 -0.074284524 0.08877891 0.014925229 -0.064863615 -0.03917622
0.12704568 0.10242948 0.1157552 0.050676767 -0.117622904 0.036153182 0.08114015 -0.09746756
0.021671351 0.046931397 -0.05680853 -0.04272626 0.0132284155 -0.07632613 0.09376476 0.13751283
0.06422896 0.056841135 -0.024586258 0.008402081 0.041133393 -0.101757295 -0.11185993 0.026772557
-0.094145484 -0.11393109 0.006853229 -0.07244805 0.017547878 -0.04844407 -0.12065136 0.07101752
0.036048207 0.038091164 0.07400848 -0.059553806 0.07472596 -0.0434786 0.13117674 0.08966087
0.106635496 -0.04525018 0.09105051 -0.09133481 0.062137365 0.12820914 -0.0031048157 0.07920561
-0.05768128 -0.023746781 -0.115061305 -0.0020524072 0.05509294 0.03842791 0.07650207 -0.116021164
-0.10516295 -0.10246867 0.07590584 -0.07038672 -0.07757883 -0.06432991 0.020148372 -0.11798769
0.051762294 0.1228125 -0.019615155 0.037751492 -0.09783396 0.0386261 0.110477746 -0.06904882
-0.010532838 -0.022823857 -0.07412879 0.104995474 0.11913097 -0.113714784 -0.01551286 0.0016450199
-0.068268366 0.029568879 0.10567871 -0.019791247 -0.08349174 -0.079534955 0.100708134 -0.026764441
0.105989896 -0.0019449072 0.09252422 0.058238234 0.029884584 -0.015984634 0.05216436 -0.025105057
0.042299774 -0.04300621 -0.011518523 -0.0032220567 -0.09360101 -0.10138028 -0.13210925 0.08017286
-0.016928935 0.06996905 0.00724941 0.008737412 0.0058234376 -0.05424408 -0.028224498 0.046979696
-0.05788584 0.12304584 -0.012809813 0.015019054 -0.043340698 0.08239626 0.02765796 -0.118988514
-0.100137435 -0.059908286 0.054314192 -0.018521829 -0.10223385 -0.074068636 -0.104873426 -0.08985151
-0.090137795 0.0805062 0.12529312 0.08652647 0.06233876 0.10920841 -0.005628888 0.049728706
-0.10048405 -0.0011876231 0.05810307 -0.021008449 0.033711724 -0.11322745 -0.092406854 0.022733781
0.06663882 0.09832884 0.016484907 0.025293835 -0.054820277 -0.021575164 -0.036298558 0.1179599

rnn_layer.bias_ih_l0 f4 [64]
00000000: cd52 e0bd 7d02 dc3d 91f4 b63d 59c8 c0bd
00000010: 3143 c4bd 2c57 903d 31c9 acbc 4fb5 f2bc
00000020: c811 cbbd 2b75 ddbc f23c fabd 17cc 4cbc
00000030: 9ccd 9dbb 26e4 1c3d e2b6 203d 4b79 c6bd
00000040: 48b7 963c 6fbd 803d 61c4 c33c 02b3 bb3d
00000050: 2d5f 293d 4c18 f3bd 6bbd e6bd 5102 a5bc
00000060: f580 b3bd cd9b 123c 67b0 853d e069 0fbc
00000070: 9cb2 81bd a5fa ad3d 4adc c03d 45e9 073d
00000080: 8f0e aebc 8517 f1bd 4382 f13d 57cc d43b
00000090: 72b5 13bd 4e1c d33c 40c2 e3bd 3a3d a1bc
000000a0: a7b9 5fbd db28 a6bd ab3e bf3c 07d9 25bc
000000b0: 7fd5 613d ac0f e33d afdd 00be ed96 3f3d
000000c0: c7fd bd3c 4286 843c a4ae 32bd ae97 bcbd
000000d0: d134 e0bd f30b 283d dab5 c63d bbe7 4fbc
000000e0: 9668 8d3b 4ff3 2ebb f99e 78bd a6e7 aebd
000000f0: 12bc 59bd 7e3d 27bd f6a5 99bd f640 05bd
-0.10953293 0.10742662 0.08933366 -0.09413213 -0.09583128 0.07047877 -0.02109203 -0.02962747
-0.09915501 -0.02703341 -0.12218656 -0.012499831 -0.0048157703 0.038303517 0.03923691 -0.096911035
0.018397942 0.062861316 0.023897352 0.091650024 0.041350532 -0.11869869 -0.11266597 -0.020142706
-0.08764831 0.008948279 0.06527787 -0.00875327 -0.06332895 0.08495072 0.09417017 0.033181448
-0.021247176 -0.11772064 0.117924236 0.006494086 -0.03606171 0.025770333 -0.111210346 -0.019682515
-0.05462041 -0.08113261 0.023345312 -0.010122544 0.055135246 0.110869735 -0.12584566 0.046774793
0.0231923 0.0161773 -0.04362358 -0.09208618 -0.10947574 0.04102702 0.09702654 -0.012689526
0.004315446 -0.0026695316 -0.060698483 -0.08540277 -0.053157873 -0.040830128 -0.07502358 -0.032532655

rnn_layer.bias_hh_l0 f4 [64]
00000000: ed36 bcbd 5efc 86bc 1677 773c ae3b f4bc
00000010: d685 7b3c e454 4c3d f9d4 c5bd c736 35bd
00000020: 0c61 b5bd 0748 debd dfef d7bd 7b13 3e3d
00000030: 24fc c8bc 8703 00bc bde6 cebd 69f6 c23d
00000040: c449 cfbd 5f52 533d 190c 14bb e469 b4bd
00000050: dc79 ffbc bb34 003e 9ffe ae3d 65cc 2f3c
00000060: 82d4 f739 691a a6bc ad98 d33d 5ca0 b03d
00000070: e63a 213d 820b 3bbc 2c99 8ebd b060 d6bd
00000080: 42d2 193d d521 a9bd abc6 b0bd ca92 c83d
00000090: 5a7c 37bd 8422 bb3c 6308 813d 905c 933d
000000a0: ee84 b6bc 12a8 afbc c0c0 bdbc 7595 ebbd
000000b0: 574a 083d 5651 1bbd 96b1 3b3d 6ce0 9a3d
000000c0: 6058 dabd b010 d2bc a8db c5bd b3be e6bc
000000d0: 45ad 593d 2098 b2bc 8a15 d3bd 5f9e 18bd
000000e0: f6e2 98bd acfa 4d3d 2155 bfbd 7ff5 66b9
000000f0: f074 f43c 4a96 40bd 52e7 743d fdd2 babd
-0.09190164 -0.01647776 0.015104076 -0.029813614 0.015351733 0.049885646 -0.09659762 -0.044241693
-0.08856401 -0.10853582 -0.10543799 0.046405297 -0.024534293 -0.007813341 -0.101026036 0.09519655
-0.101214916 0.051592227 -0.0022590219 -0.088092595 -0.031186037 0.12520115 0.08544659 0.010729884
0.00047269842 -0.020276265 0.10331855 0.08624336 0.03936281 -0.011416318 -0.06962809 -0.104676604
0.037554033 -0.08258406 -0.08631643 0.09793623 -0.044796325 0.022843607 0.06300428 0.07195389
-0.022280183 -0.021442447 -0.0231632 -0.11503116 0.03327402 -0.037919365 0.045823656 0.07562336
-0.106613874 -0.025642723 -0.09661037 -0.028167104 0.05314376 -0.021801054 -0.103068426 -0.03726041
-0.07465164 0.050287887 -0.09342409 -0.00022025964 0.029840916 -0.047018327 0.059790917 -0.09122274

fc.weight f4 [3, 64]
00000000: 6eff bebd 7ed5 90bd f669 c6bc bd40 5e3c
00000010: 778e 6a3d 3d9b 04bd 2cf6 f53d e900 963d
00000020: aabc 053b 2f59 b1bd 8c16 92bd 1986 cc3b
00000030: 0b07 f0bd d898 bf3d 4266 93bd 6e87 01bd
00000040: ef37 3d3d 4b3b 31bc 6dd0 2f3d acd1 c3bd
00000050: b00c 863d f35e cbbd 3a59 77bd 00d0 2cbd
00000060: da5c 823d 750d b23d a2a3 8d3d 92b3 a13d
00000070: 291d a63d 6408 f23c bfe5 9fbd 45dc ba3d
00000080: 2bfe fc3b e3d9 183c f20f d13c 124c 873d
00000090: 418c acbd 8624 993d 5cc5 80bd 5890 c33d
000000a0: 1588 63bd 9bba be3d b986 b1bc 82c4 6f3d
000000b0: aad0 45bd f64d 223d e4c3 bd3d 6016 ac3c
000000c0: e6c5 8ebd 3db1 a1bd 6d61 75bd 033e 98bc
000000d0: 14bd a5bd fca3 36bc 5d73 ad3d 012e 433d
000000e0: f55d f73d 57b5 6b3d 34d0 c2bc f576 8d3c
000000f0: 21c2 3bbc cf65 283d 40bc 8dbc 556f 4e3c
00000100: 08d3 863d 02a9 10bd c9cb b8bc 522e b43c
00000110: b53e bdbd 6de9 f3bd 7fe4 a9bc dd33 d0bd
00000120: 80e6 8a3d 87cd 843c 9023 80bd 0c6e bb3c
00000130: 2a13 0d3d ce33 d2bd 170d 23bd 5784 f23d
00000140: d273 a4bd 7f26 bfbd 6e61 ee3d dfb2 a83d
00000150: b2f3 1cbd 2704 59bc 41e5 8fbd 7ac1 c43d
00000160: f74c 78bd db7e ee3c 4c38 d23d 7c2e 75bc
00000170: ef8d b03d 10c4 e23c 509f a03c 35d6 35bd
00000180: 5888 963c 64f4 293d fdd0 8a3d cc23 04bd
00000190: b3fd 283c 8805 fc3d 92cd d4bc baf8 693d
000001a0: 3ac0 343d ce76 8b3d 21ee 88bd 4da1 a3bd
000001b0: 203d 41bc ff92 d13d 287a f43b 67bd c1bc
000001c0: e154 f0bd 1f7e 17bd d204 633c b99b 243d
000001d0: e9ea 483d 7d89 cd3d 1381 e1bd b5eb 463a
000001e0: 1c87 66bc 5883 82bd 1e05 a83d f13e 4e3d
000001f0: 488e b83d 1a3f 88bd dba2 81bd a6cd 7d3d
00000200: ba84 013e 5a87 c8bd 0aba e43c e9ac 4cbd
00000210: 1e55 d13d 1ea7 90ba e171 a7bc d018 a43c
00000220: 120a b2bd ed3a 3abd 1344 2c3d 11cc 263d
00000230: 4ffa 8d3d e18a 243c 3b94 dabd 0a01 e9bd
00000240: 8036 ed3c 42de b23d bb8d a63d 1b50 35bd
00000250: 3e0f b13d 83ef 58bd 5715 ac3a d93a e0bd
00000260: 624c ae3d 9eee 8e3d a5c2 d1bc 0c51 a23c
00000270: cb64 8bbd f3c1 fe3c 61b9 483d b80f fc3c
00000280: 8a20 783d 43f4 cb3d e074 c23d 437e bdbd
00000290: 7bf2 6b3d ad00 6b3c 2f75 9bbd fcb6 dcbc
000002a0: c1a4 f53d 20ba ff3d b857 0fbd db7f 703d
000002b0: c8de 98bd 9dfd a5bd 0531 073e e1a3 8e3c
000002c0: fa60 7abd eba2 ed3c bf03 183d 9326 60bc
000002d0: 4bb0 e33d 06e0 4c3d eb99 c53b 9444 6e3d
000002e0: e2f4 d1bd 333a e3bd 12a4 8f3d 2942 70bd
000002f0: 9deb bb3d 47aa 843d 0d12 d8bd 5457 7b3d
-0.09326063 -0.070719704 -0.024220448 0.0135652395 0.05726477 -0.03237461 0.12009844 0.07324392
0.0020406642 -0.086595885 -0.07133207 0.0062415716 -0.11720093 0.093553245 -0.071972385 -0.031623296
0.04619592 -0.010817359 0.04292338 -0.09561476 0.06545389 -0.099302195 -0.060387827 -0.04219055
0.06365366 0.08693973 0.06915976 0.078955784 0.081110306 0.029545017 -0.078074925 0.09124044
0.007720729 0.009329292 0.025520299 0.06606306 -0.08425189 0.074776694 -0.06287643 0.09549016
-0.0555497 0.09312936 -0.021670686 0.058537014 -0.0482947 0.03962513 0.09265879 0.021006763
-0.0697134 -0.07895134 -0.059907366 -0.018584257 -0.080927044 -0.011147495 0.084692694 0.047651295
0.12078468 0.057545986 -0.02378092 0.017268637 -0.011459858 0.041112717 -0.017301679 0.012599786
0.0658322 -0.03531743 -0.02255811 0.021994743 -0.09240476 -0.11909757 -0.020738838 -0.10166142
0.06782246 0.016211284 -0.06256783 0.022879623 0.034442104 -0.10263787 -0.039807405 0.11841648
-0.080299035 -0.093335144 0.11639677 0.08237242 -0.038318343 -0.013245619 -0.070261486 0.09607215
-0.060620274 0.029113224 0.10264644 -0.014964696 0.08620822 0.02768138 0.019607216 -0.044393737
0.01837556 0.041492835 0.067781426 -0.0322607 0.010314393 0.123057425 -0.02597693 0.05712197
0.044128634 0.068097696 -0.066860445 -0.0798975 -0.0117943585 0.102331154 0.007460851 -0.023649884
-0.11734939 -0.036985513 0.01385613 0.04018757 0.049052153 0.100359894 -0.11010947 0.00075882237
-0.0140702985 -0.06372708 0.08204101 0.050352994 0.09011513 -0.06652661 -0.0632989 0.0619637
0.12648287 -0.09791441 0.027920742 -0.049969587 0.10221313 -0.0011036133 -0.020440044 0.020031363
-0.08693327 -0.045466352 0.042057108 0.040721957 0.06932508 0.010042877 -0.10672804 -0.11377151
0.028956652 0.087337986 0.08132502 -0.044265848 0.08645485 -0.05296279 0.0013128918 -0.10948724
0.085106626 0.06979106 -0.025605509 0.019814037 -0.06806334 0.031098342 0.049004916 0.030769214
0.060577907 0.099586986 0.094949484 -0.09252598 0.057604294 0.014343423 -0.0759071 -0.026942722
0.11994315 0.124866724 -0.034995764 0.058715682 -0.07464367 -0.081050135 0.13202293 0.017412128
-0.06112764 0.02900835 0.037112948 -0.013681072 0.111176096 0.050018333 0.0060303113 0.05817087
-0.10251786 -0.11095085 0.07013716 -0.058656845 0.09175799 0.0647779 -0.10550318 0.06136258

fc.bias f4 [3]
00000000: 28ad 00bd b070 e2bd eeaa fb3c
-0.031415135 -0.1105665 0.030721154
