trainedModels/1620283984/rnn.pt (torch, 22538 bytes, 6 tensors)

rnn_layer.weight_ih_l0 f4 [64, 12]
00000000: bcb9 113d 344d 903d 1067 dfbd c7dd 8abd
00000010: 0036 753c 53e9 fc3d c8ef e73c 44a6 cfbd
00000020: eb93 19bd 59ef 253d 5cd3 40bd a1af 92bd
00000030: 6cfc 0abd 4f1d 3dbd 36f9 a7bc 9890 523c
00000040: 50b2 ddbd 7b53 9e3d c0d5 dcbb a0ed 963b
00000050: f67a 123d 3401 a03c 348f e3bd 4a4c 00be
00000060: 68d0 90bd 0569 88bd 73bf b53d 0937 3f3d
00000070: 1e4e e33d 06aa ed3d 624b e33d f081 6f3d
00000080: 4789 3abd 9e5c c5bc 8408 cb3d 0963 793d
00000090: 8090 773d 7fb7 ed3d 0e23 533d d23c ecbc
000000a0: 04e5 923d 581d fc3d fcaf a6bd 4293 b83d
000000b0: 0871 913d c6ff cc3d 8087 993a a034 ef3d
000000c0: 98f1 ff3d a3e9 ea3d abd0 d63d 273f ffbd
000000d0: b0a7 a5bd 12e5 5bbd a00f 01bd 6890 733d
000000e0: 7f4f 863d 0eb1 76bd 02d6 b0bd dd1e a43d
000000f0: ba4a adbd 6dc2 b0bd 0676 3cbc 23cc 62bd
00000100: c49c d03d 5134 053d 6ea6 803d 1809 46bd
00000110: 1a9e ec3c c392 55bd 8069 f43d 1131 453d
00000120: 5853 d83c fcd4 d63d ec86 c9bd 5b4c 9bbc
00000130: 3a78 b6bd 338c 283d c48b 8ebd 643c 4bbd
00000140: 1bdf 503d ea10 b8bb 88b9 873c 7b44 b7bc
00000150: d80b 1b3d cfb3 7cbd 137b 203c 2bc0 883d
00000160: 18c0 38bd 47f4 9a3d b2ab a7bd e861 a2bc
00000170: c5dc 093c 3aa4 f93c ea66 ed3d ff2c b0bd
00000180: 0827 fb3c 7119 73bc 61f1 53bc 8880 d4bd
00000190: 7c50 7c3d ffa1 84bc 60b1 113d 9035 2f3c
000001a0: f6e2 00bb 51c3 633d 82a7 fdbd dfa5 06bd
000001b0: 58ab f23d 093b 0d3d d403 b53d 5336 ce3d
000001c0: ec72 643d 9390 ba3c e0f4 41bd 64bf 19bd
000001d0: 8509 893d f340 9abd ac9e 233d c6f2 2dbd
000001e0: 402f efbb 85c4 413c 9b17 dbbd 4c13 f13c
000001f0: 389e ca3d bfe0 e93d a85d e33d 5877 b93c
00000200: ecd9 e93c f870 4bbc d812 afbc ce9b 33bd
00000210: 6c36 ecbd d917 cc3d cd89 d0bd dd60 083d
00000220: 8cef 7e3d f5d3 8d3d 64de f73d e4db d8bd
00000230: 6125 663d 3fd7 99bd 420c e33d 736d f83d
00000240: 1439 7ebd cfb1 eb3d 5be6 47bc 7971 f03d
00000250: 6093 d13b 0f4b 8f3d 90a3 f03d cc57 b83d
00000260: 7a3a 173d d1ef eb3d 9063 debd e91b 283c
00000270: c83a 933d 88b1 50bd 9819 efbc 0f2c 76bb
00000280: aa83 e13d 326a e6bc e0df 3a3d e068 8f3b
00000290: c88e b6bb 8687 9dbd 2c16 55bd 1608 da3c
000002a0: 7085 d9bd 11a0 cbbc 87af 903c 3e40 843d
000002b0: fcff eabd 1619 dabd c05e 6c3c 6041 ef3b
000002c0: eef1 c23d 3f5b c637 32e9 dabd ed8a ba3a
000002d0: 74b5 f5bd a824 e93c 1a3e cfbd cb34 893c
000002e0: 288c efbc b14f f3bd 222c a2bd d0ce aabc
000002f0: d98d b0bd 2111 643d 84cf 92bd 6d45 d73d
00000300: 00a0 e3b8 17a1 833d dfdb 843d 9b28 133d
00000310: 3ef4 ce3d f44e ca3d 323d b53d 00ce afb9
00000320: b844 89bd d0ee e63d 9e9b bf3d 7672 d93c
00000330: a25e f1bd ea29 27bd 04ca b63c d4bc 1f3d
00000340: f830 c33d 980b 07bd d6c0 a63d 402c 283b
00000350: 28e4 683d b155 ed3c 5471 a43d 14a8 5a3d
00000360: 3870 973c 90a5 c3bd a14b 703d cc33 e63d
00000370: fcf3 a13d f959 5a3d 54d3 f5bd 40b5 df3d
00000380: 1abc f13c be52 82bd c058 553d fa02 973c
00000390: 28aa 92bd af49 4bbd 6d98 553d 9d96 dd3d
000003a0: 7e12 ab3d e9cc bb3b 9016 9fbc e891 9e3c
000003b0: c535 203d 9197 c1bd d6e8 acbd 1b05 0bbd
000003c0: e02b 42bd d48e 943a 59ac 0cbd baee fa39
000003d0: 849a a73d b308 81bd e4d9 4bbd 24a9 77bd
000003e0: 2d21 c83d a3da 1dba c419 c1bd 2117 b63d
000003f0: 7c97 44bd fed2 dabc ed96 af3d ded6 4b3d
0.03557752 0.07045975 -0.109083295 -0.06780582 0.014966488 0.123491906 0.028312579 -0.101391345
-0.03749458 0.040511463 -0.047076568 -0.07162405 -0.033932135 -0.04617053 -0.020504575 0.012851857
-0.10825026 0.077307664 -0.006739348 0.004605964 0.035761796 0.019531824 -0.11111298 -0.12529102
-0.07071 -0.06660656 0.08874407 0.046683345 0.11098884 0.11604695 0.110983625 0.058473527
-0.045541074 -0.024092015 0.099137336 0.060885463 0.06044054 0.11607265 0.051547103 -0.028837595
0.071725875 0.123102844 -0.08139035 0.09012462 0.07101637 0.100097224 0.0011713356 0.11679959
0.12497252 0.11470344 0.10489019 -0.12463217 -0.080886245 -0.053685255 -0.03150904 0.05946389
0.065581314 -0.060227446 -0.08634569 0.08013699 -0.084615186 -0.08630834 -0.011502748 -0.05537046
0.10186151 0.032520596 0.06281744 -0.048348516 0.028883982 -0.052141916 0.11934185 0.048142496
0.026406929 0.10489842 -0.098401874 -0.018957308 -0.0890965 0.04114933 -0.06960252 -0.04961814
0.05099402 -0.0056172507 0.01656796 -0.022371521 0.037853092 -0.061694916 0.009794968 0.06677278
-0.04510507 0.075661235 -0.08187045 -0.019822076 0.008414452 0.030473817 0.11591895 -0.08602332
0.03065826 -0.014837609 -0.012935967 -0.10376078 0.061600193 -0.016190527 0.03556955 0.010693923
-0.001966653 0.05560619 -0.12385465 -0.03287303 0.118490875 0.03448013 0.08838621 0.10068955
0.05577366 0.022774016 -0.04735267 -0.03753604 0.06691269 -0.07531919 0.039946243 -0.042467855
-0.007299334 0.011826639 -0.10697862 0.029428147 0.09893459 0.1141982 0.11101848 0.022639915
0.028546296 -0.012417071 -0.02137129 -0.04384976 -0.11533818 0.09965486 -0.101825334 0.0332955
0.06224017 0.06925193 0.121029645 -0.10588816 0.05618799 -0.07511758 0.11086322 0.12130251
-0.062066153 0.11508524 -0.012200917 0.11740393 0.0063957423 0.06996738 0.11749947 0.09001121
0.036921002 0.11520351 -0.10858834 0.010260561 0.07188946 -0.050950557 -0.029187009 -0.0037562882
0.11011441 -0.02812681 0.04562366 0.0043765157 -0.00557122 -0.07691865 -0.052023098 0.026615184
-0.10621154 -0.024856599 0.017661823 0.06457566 -0.114746064 -0.10649316 0.014426887 0.0073014945
0.09518801 2.364593e-05 -0.1068901 0.0014232077 -0.119975 0.028459862 -0.10119267 0.016748806
-0.029241636 -0.11880434 -0.07918574 -0.020850569 -0.08620805 0.055680398 -0.07168487 0.10511289
-0.00010854006 0.0642721 0.064872496 0.035927396 0.10105179 0.0987834 0.08849563 -0.00033532083
-0.0670256 0.112760186 0.093558535 0.026543837 -0.11785628 -0.040811457 0.022313125 0.03899844
0.095308244 -0.03297004 0.08142249 0.002566114 0.05685821 0.028971525 0.08029428 0.053382948
0.018486127 -0.09553063 0.058665875 0.11240348 0.079078645 0.05330846 -0.12003198 0.109232426
0.02950864 -0.06363438 0.05208659 0.018434037 -0.07161361 -0.049630817 0.052147318 0.10819743
0.083531365 0.0057312143 -0.019419938 0.019356683 0.03911378 -0.09452737 -0.084428474 -0.033940416
-0.047405124 0.001133407 -0.03434405 0.0004786158 0.081837684 -0.06300487 -0.049768344 -0.06046404
0.09771953 -0.0006021654 -0.094287425 0.0889113 -0.04799603 -0.026711937 0.08573709 0.04976546

rnn_layer.weight_hh_l0 f4 [64, 64]
00000000: e990 073d 20f2 28bd 7368 963d 129f f33c
00000010: 9570 ef3d 2a8e 403d d196 a8bd f3ec febd
00000020: bc43 ce3d 6f1a e8bd 6af9 d8bd 77fb e53d
00000030: a323 12bd 2ffb 843d 5d1a f2bc 5d80 e93c
00000040: fb67 57bd 319b ab3d 55f6 823d 47a1 2f3c
00000050: 4b57 3dbd 8c18 083d 3257 18bd 27bd 97bd
00000060: 1d4e 7fbd 23f2 0d3d 749a 863c 7b3f 413d
00000070: 72c5 b3bd 9c72 d83c 9bc1 c2bc 15ab a63d
00000080: 3e14 753d 2742 583c ef0d d63d 7834 0d3d
00000090: a067 d3bd 835a 943d 51af 00bd 61d9 ae3d
000000a0: 835e fdbd 5dcf e6bd 58d7 f13d 81dd debd
000000b0: b54c cf3c 9606 3cbd 5244 f63b ba26 fd3d
000000c0: ded1 903c 63ac f33d a1ab b6bc bfd7 3dbd
000000d0: 3aed 62bd 108e cdbd 1313 e5bc 093e d03d
000000e0: 434c c6bd 1172 2b3d d3c5 d13d bb2a a8bc
000000f0: d52a fabd bc42 653d 7f62 56bd a51b 02bd
00000100: 4ec1 bcbd 67bb c63d 8433 ff3d 8a63 1cbc
00000110: 5dd3 e7bd b1aa 313d 3739 bb3c 43c3 a63d
00000120: 15a4 fd3d ad59 623c c394 c8bc 49e3 dd3d
00000130: 831f f43d f68b 193c e0f5 d6bd d16b 273c
00000140: f80f f83d eb44 783d 33fb fd3c 8aea f1bc
00000150: 4cbb f5bd 57aa 733d f8c1 b93d 9eb7 7d3c
00000160: 0a3c f33d 87a3 743d e08b 793c e22e 76bb
00000170: e657 54bc 8dd8 653c eec9 7fbd dcf9 d4bd
00000180: 6a6d 97bc 8d12 a9bd 74bb 3abd 01d8 c7bd
00000190: 6f2f 86bd b112 cebd 20e9 d03d ca69 a8bc
000001a0: 56a9 59bd c038 fa3d 2dee 41bd a199 60bd
000001b0: 5b50 dd3d 289c 7f3d 8cd0 b63d cdce c2bc
000001c0: b1c6 7f3d 860f 9f3a f413 ec3d 9e7e 2cbd
000001d0: 0466 363c 9671 50bd 7955 973d cd5a debc
000001e0: eec5 523d 7305 8c3d 826e acbd c966 a2bd
000001f0: f312 883c d84b 88bc bbc9 f5bd 04a2 91bc
00000200: 438a 86bd 919f 4f3d 4ca1 ed3d 07b0 93bd
00000210: 4196 e13d 38de e8bc 79ca e3bd 8b88 4ebd
00000220: 4e3e 3e3c 5197 9cbc d620 b2bd 2da7 5abd
00000230: 8d2b 9d3c bb94 303d ffa9 2dbd 66e1 2abd
00000240: 50c0 743d 69b6 6f3d e833 013c 0dc7 37bc
00000250: 6c07 843d 6583 d83c db29 383d 1237 d3bd
00000260: f630 bcbd 90e3 9c3d 4bd7 42bd 30e1 833c
00000270: 52b9 bcbc d873 ddbd aa9a 0fbd 4162 a73d
00000280: 55e2 bc3b f0c9 7bba 8df1 92bd 14bd c03c
00000290: fd6f e73d f28b 313d ee31 c9bd 09d5 a03d
000002a0: 3326 b7bd 0679 95bd 1136 dbbd 64b3 7abc
000002b0: b641 95bd 22b2 99bd e4f3 a93d e62c 7bbd
000002c0: c1a3 cabd 4282 f6bc 3431 8abb d70f a73d
000002d0: 2814 003e 4ea7 d7bd bb6f 433c a75b 0e3d
000002e0: 9a1c d6bd c7c7 e53d b7e9 fabd 63c2 293d
000002f0: 274d ed3d da24 6abd 4dc0 a7bc 7978 83bd
00000300: d319 30bd f04c 353d a87b e2bd d50d cb3c
00000310: 0a6f 9abd 6f69 453d 3561 47bb 52bb f7bd
00000320: bc61 bfbc 0978 6e3d efd8 d53d f057 8f3d
00000330: 44e1 abbc c8ec 04bd 5ac6 cc3c 43ba 84bd
00000340: f8c8 7fbd f74b 193d e67c 3cbc b04a fbbd
00000350: 0a02 f4bd d2ff d5bc 1d61 b13d 2a73 31bd
00000360: fc4b 97bd ac02 763c 2a7c e13c a741 773c
00000370: 12ad 3c3d 4df6 92bc 9244 8fbd a434 37bd
00000380: dea5 1ebc 3e69 58bc 0718 ec3d f36a a0bd
00000390: 7df0 efbc b55e 623d 2256 813d d2b5 f0bd
000003a0: 4d6f d33d c512 abbd 14d2 d7bd 6441 3c3d
000003b0: b236 a73d 5e66 353d 17de 85bd c4cb 203d
000003c0: 3d5a 5c3d c60a 67bd 0f0c aebd 36f2 86bd
000003d0: 17ac f1bc f7eb c43d 684c 8a3d b0c6 9dbc
000003e0: a28e f43b c3bd af3d eeb2 89bd 309c 8dbd
000003f0: 9d50 f9bd f29a a3bd b8b9 b7bc 4c97 eabd
0.03309718 -0.041246533 0.07344141 0.029738937 0.11691395 0.04701058 -0.08231891 -0.12447538
0.10071513 -0.11333167 -0.10594447 0.11229604 -0.035678517 0.06493222 -0.029553587 0.028503591
-0.052589398 0.0837921 0.0639464 0.010719604 -0.046225827 0.033226535 -0.03719253 -0.07409125
-0.062330354 0.034654748 0.01643107 0.04717968 -0.08777894 0.026421838 -0.023773959 0.081381
0.059833758 0.013199366 0.10451876 0.034473866 -0.10322499 0.07243826 -0.031417195 0.085375555
-0.12371542 -0.1127002 0.11808652 -0.10882092 0.025305131 -0.04590472 0.0075154686 0.12360902
0.017678197 0.118981145 -0.022298636 -0.04634833 -0.055402018 -0.10036862 -0.027963197 0.10168082
-0.096825145 0.04185683 0.1024281 -0.020528188 -0.12215201 0.055971846 -0.052340027 -0.031764645
-0.092165574 0.09703713 0.12460998 -0.009545216 -0.11319611 0.043375675 0.02285443 0.08142712
0.12384812 0.013815326 -0.024484998 0.10834367 0.11920073 0.009371748 -0.10496116 0.0102185765
0.12112421 0.0606126 0.03100357 -0.029530782 -0.11998615 0.05948862 0.090702 0.015485672
0.11876686 0.059726264 0.015231103 -0.0037564565 -0.01296041 0.0140286805 -0.062448435 -0.103992194
-0.01848479 -0.082554914 -0.045588925 -0.09757996 -0.06552016 -0.10062159 0.10200715 -0.020558257
-0.053140007 0.122178555 -0.047346283 -0.054834012 0.10806342 0.06240478 0.08926496 -0.02378025
0.062445346 0.0012135364 0.11527243 -0.04211294 0.011132721 -0.050889574 0.073893495 -0.027142907
0.05145829 0.06836977 -0.08419515 -0.07929761 0.016610598 -0.016637728 -0.12001368 -0.01777745
-0.0656934 0.050689284 0.116030306 -0.07211309 0.11014987 -0.028426275 -0.11122603 -0.050423186
0.011611534 -0.019115122 -0.08697669 -0.053382087 0.019185806 0.04311059 -0.04239845 -0.041718863
0.059753716 0.05852357 0.007885911 -0.011216891 0.06446728 0.026429841 0.04496179 -0.10313238
-0.09189026 0.076605916 -0.0475686 0.016098589 -0.023037586 -0.10813111 -0.03505961 0.08173037
0.0057642856 -0.0009604981 -0.071749784 0.02352766 0.11300657 0.043346353 -0.098239765 0.07853133
-0.08942833 -0.07298474 -0.10703672 -0.015301559 -0.07287924 -0.07504679 0.082984716 -0.061322115
-0.09894515 -0.030091409 -0.0042172913 0.08157318 0.12507689 -0.10529958 0.011928494 0.034755375
-0.10454674 0.11219745 -0.12251609 0.041445147 0.11586981 -0.05716405 -0.020477438 -0.06419463
-0.042993378 0.044262826 -0.11058742 0.024786869 -0.0754071 0.048196252 -0.003042293 -0.120962754
-0.023362033 0.058219943 0.104417674 0.069991946 -0.020981438 -0.032452375 0.024996925 -0.06480839
-0.062447518 0.03742596 -0.0115043875 -0.12270105 -0.119144514 -0.026122961 0.08661101 -0.04332272
-0.0738754 0.015015285 0.027525026 0.015091336 0.04606349 -0.017939711 -0.069955006 -0.044727936
-0.0096831005 -0.013208685 0.1152802 -0.07832899 -0.029289478 0.0552661 0.06315257 -0.117534295
0.10323963 -0.083531894 -0.10538116 0.0459608 0.08164729 0.044287078 -0.06536501 0.039256826
0.053796995 -0.05640676 -0.08498394 -0.06589167 -0.029501004 0.09615319 0.067528546 -0.01925978
0.007463292 0.08581116 -0.06723581 -0.06914556 -0.12173579 -0.07988538 -0.022427425 -0.11454639

rnn_layer.bias_ih_l0 f4 [64]
00000000: 0dfc 4c3d 4453 6e3c b798 bc3b 73ea ee3d
00000010: 7659 8cbc d4e2 0cbc d913 3ebd 5aa2 ec3d
00000020: 0a77 63bd c9a4 3b3d 91f5 3a3d 306a 863d
00000030: c870 f53d 7fdb 18bc 22c0 043d 7283 3b3d
00000040: 1342 ecbd eb66 5e3d d5ac 913d e220 8a3d
00000050: 2c16 0d3c 444f 8b3d 1819 b3bd e2a5 c2bc
00000060: bc2f 61bc 5e22 bc3d b3a3 763b cf9a 17bd
00000070: c7b9 773d 427a b53c 0278 cebd 1838 ea3d
00000080: 3516 cc3c c737 823d 0cbc b23c 9967 7fbd
00000090: 7c65 c33c fb80 54bd c412 e03d bff8 d43c
000000a0: 19a7 20bd 0aff 8a3d fd58 733d 3da7 28bd
000000b0: cb2e abbd 1f64 cabc 219c 023d 9325 103d
000000c0: 5efc acbd c250 a2bd f14e 9a3c 6b98 f33d
000000d0: bbfe 30bd 0f8a 5d3d dcba cbbd 0a23 c5bd
000000e0: 0188 9dbd 089a ac3d 3ae3 7c3a c61d 90bb
000000f0: dd5a 19bc ea03 be3d 9e6e cfbc 327f a2bd
0.05004506 0.014546219 0.0057555097 0.116658114 -0.017132502 -0.008599002 -0.046405647 0.115544036
-0.055533446 0.04581145 0.045644347 0.065632224 0.11984402 -0.009329676 0.032409795 0.045779653
-0.1153604 0.05429737 0.07113043 0.06744553 0.008611243 0.06802228 -0.08745021 -0.02376074
-0.013744291 0.091862425 0.0037634193 -0.03701287 0.060479905 0.022153024 -0.100814834 0.1143648
0.024912933 0.06358295 0.021818183 -0.062354658 0.023852102 -0.051880818 0.10941079 0.025997518
-0.039221857 0.06786926 0.059411038 -0.041175116 -0.083585344 -0.024705945 0.031887177 0.035192084
-0.08446573 -0.079255596 0.01883647 0.11894306 -0.04321168 0.05408674 -0.0994775 -0.09625824
-0.07691956 0.08427817 0.00096468965 -0.0043980805 -0.009360042 0.0927809 -0.025321301 -0.07934417

rnn_layer.bias_hh_l0 f4 [64]
00000000: b717 42bd 1b3e 2dbd 75f9 7bbd 7500 933d
00000010: 9562 683d a15f 76bd 05e2 4cbd ce4d d53d
00000020: 829d 70bd 4d31 013d 81d8 1d3d 9c6c d93d
00000030: c0b3 883d 8a26 9fbd 10b7 d93b 0620 69bd
00000040: af5c 28bd d163 7abd f72e f53d 8792 24bd
00000050: 469c b6bd b996 ffbb efda d3bc 577f 683d
00000060: 6b88 50bd 12b7 92bd 102a c9bd 75c7 733d
00000070: 9589 f93c ba8e 843d 5cb1 a8bd 96ff 9b3a
00000080: a8d7 7d3b b4bd 97bb 0ff1 f5bd ac68 bd3d
00000090: 7dd1 b63d 2e49 80bd 5272 82bc 710b 2bbd
000000a0: d467 bdbd bdb4 0cbd dadb 91bd 81d6 25bd
000000b0: 339e e33c b764 b5bc 0e1c 04bc e574 1cbd
000000c0: fe87 823d 84a2 873d 53f9 3dbd d647 ddbc
000000d0: 1d19 9bbc 5d93 6c3c f65e 87bd 901a c5bd
000000e0: e9e1 73bd 12e0 803d fb88 06bd b985 2bbd
000000f0: f96d 4c3d 2e30 edbd 18bc 903d 892c d5bc
-0.047385897 -0.042295557 -0.061517198 0.071778215 0.05673464 -0.060149793 -0.050020237 0.10415231
-0.05874396 0.031541158 0.038536552 0.10616419 0.066749096 -0.077710226 0.006644137 -0.056915306
-0.041104015 -0.06113035 0.119718485 -0.040178802 -0.089165255 -0.00779995 -0.025861232 0.056762066
-0.05091135 -0.07163824 -0.09822476 0.05951639 0.030461112 0.064725354 -0.082369536 0.0011901732
0.0038733277 -0.0046307687 -0.12008869 0.0924848 0.089266755 -0.06263958 -0.015923653 -0.04175896
-0.09248319 -0.034352053 -0.071220115 -0.04048777 0.027785396 -0.022142751 -0.008063329 -0.038197417
0.06373595 0.06622794 -0.046380352 -0.027011793 -0.018932873 0.014439431 -0.06609909 -0.09624207
-0.059541617 0.06292738 -0.03284548 -0.041875575 0.049909566 -0.11581455 0.07067126 -0.026022213

fc.weight f4 [3, 64]
00000000: c1ca ecbd 783a 02bd 9d2a 85bc ac30 b2bd
00000010: ac00 d63d 06d1 8fbd 6928 4b3d dc33 dabd
00000020: ebaf 68bd 6ed8 943c a2a8 ee3d ce1d a73d
00000030: ea27 9ebd bf9d 17bd 6147 65bd c975 0a3d
00000040: 5756 86bd dee1 a2bc 5ca5 e33d 4919 f5bd
00000050: 322b ab3d fa4b 6b3d c93f 693d 5d66 31bd
00000060: 88f1 cfbd e713 f43d 6823 ca3d aadd 2cbc
00000070: 9b88 c63d f3a5 08bc 5c3b 9e3d c19e c0bd
00000080: f9c0 f53b ae67 813d 88ba db39 2498 c13d
00000090: adb2 8f3b 003a 843d 0513 ba3d 3867 603c
000000a0: c2af d73d 8c3f 9dbd d330 aabd 88df ad3d
000000b0: 993d 2b3d 066d 9abd 647a a33d a89e df3d
000000c0: 5613 ccbd 97e8 ed3d 9a0e 59bd 1d0a 5d3c
000000d0: 57ca dcbd 91ac 06bd 0d3e 383d 14c7 b1bd
000000e0: c62d bfbd 833e 52bc d996 053d dc13 8fbd
000000f0: 5d75 dfbd ce50 dfbd a867 f6bd f3a2 673c
00000100: 1b8d 593d dfb6 a53d 1d02 94bd 1584 26bc
00000110: d7de 693c 8468 75bc 1498 7bbd f383 8c3d
00000120: 1621 2dbb 1bc9 f2bd 3516 04bc 4b58 f43d
00000130: 09af 55bd 269f 463b e33e 26bd 58ed cf3d
00000140: 2a08 973d 83e8 8c3c 9d72 1bbb 819e 083c
00000150: 923a 99bd 3554 d33d 93be 95bd ba38 1a3d
00000160: 967e 9cbd 690e eabd fb2b a63c 876c 80bc
00000170: 0fa1 90ba ca53 af3c 71da 1b3a 11ba d4bd
00000180: 6d18 eebd 7ba2 a6bd 9934 fc3d 1df6 7c3d
00000190: 4ef9 ae3d e1e3 a1bd 3e64 f7bd 0fa2 34bd
000001a0: 061c 0f3d bb7b c63c 0ec6 c03d 2438 653d
000001b0: e855 a53d 93c7 803d dfc9 bcbd 252c d83d
000001c0: d4f9 b8bd 43a1 c03d 5528 e33c cfd9 e93d
000001d0: 3df3 ac3d 5141 9c3c 12ad 48bd bdba 9cbd
000001e0: 0b83 e83d 8256 52bd 895f 3dbc feb2 f2bd
000001f0: 564f debc 4caf 88bc 633a 863d 6fbe 4eba
00000200: 7f06 813d 29c1 1d3d a212 f9bd b353 6abd
00000210: 709a 973d 84d4 abbd a467 9ebd 95ec 003d
00000220: 4d5b 57bd 2874 d53d e0d4 f13d c722 05bd
00000230: ce9d 8ebd c694 9ebb da43 c0bd fa07 b83d
00000240: 832c 7a3d 54ea c6bd 4c93 d43d c141 573d
00000250: 46d0 cf3c bb48 933d 6da6 0c3c abe1 06bd
00000260: be51 9c3b 5368 f8bd c2b3 acbc e72d 353d
00000270: ddce 9b3d 8c5f 4a3b 714d 2cbd 271a b53d
00000280: 724e dfbd 16d9 db3d 380a 913d ffa9 4a3d
00000290: 64a7 99bc 10c9 f83d da62 32bd 7ba5 ccbd
000002a0: 3cc5 b9bd ee72 eebd 6197 593d 9cb8 ab3d
000002b0: e403 883d 3b6a 4bbd a32e 753d 21e5 6abd
000002c0: bef6 be3d 2bc6 bb3c 73d6 d43d 973d 15bd
000002d0: 9542 af3c 9dd7 ebbd bd51 52bd c3e9 0e3d
000002e0: f8fe c5bd da0f f53d 7062 bb3d 9e8d e8bd
000002f0: 56e6 093c 3119 4f3d 626e 85bd 7452 f8bd
-0.1156211 -0.03179404 -0.016255671 -0.0870069 0.10449347 -0.0702229 0.049599085 -0.10654423
-0.056808393 0.018169608 0.11653258 0.08159982 -0.07722457 -0.037015673 -0.055976275 0.033803735
-0.06559437 -0.019883092 0.11115524 -0.119677134 0.08357848 0.057445504 0.056945596 -0.04331051
-0.1015349 0.119178586 0.098700345 -0.010550896 0.09694024 -0.008340347 0.07726166 -0.0940528
0.007499811 0.063186035 0.00041909912 0.09452847 0.0043853135 0.06456375 0.09085659 0.013696484
0.1053157 -0.07678136 -0.08310094 0.08489901 0.04180679 -0.07540326 0.079823285 0.10918933
-0.099646255 0.116166286 -0.05299244 0.013491181 -0.10780781 -0.032879416 0.04498105 -0.08680549
-0.093349025 -0.012832287 0.032614563 -0.0698621 -0.10911057 -0.10904084 -0.120314896 0.014137971
0.053113084 0.080915205 -0.072269656 -0.010163327 0.014274321 -0.014978532 -0.06142433 0.06861105
-0.0026417426 -0.11854764 -0.008061935 0.11930903 -0.05216888 0.0030307262 -0.040587317 0.101526916
0.07374604 0.017200714 -0.0023719438 0.0083385715 -0.074818745 0.103187956 -0.0731174 0.037651755
-0.07641332 -0.1142853 0.020284643 -0.01567675 -0.0011034327 0.021402258 0.0005945331 -0.10387052
-0.116257526 -0.081364594 0.1231472 0.06175815 0.08543645 -0.079047926 -0.120796666 -0.044099864
0.034938835 0.024228921 0.09412776 0.055961743 0.08073026 0.06288066 -0.09218191 0.10555295
-0.09032026 0.09405758 0.027729193 0.11418497 0.084448315 0.019074114 -0.048993178 -0.07652805
0.113531195 -0.05135203 -0.011558422 -0.11850546 -0.02713744 -0.01668515 0.06554105 -0.0007886653
0.06300067 0.03851429 -0.12161757 -0.057208728 0.074025035 -0.083901435 -0.07734612 0.031475622
-0.052577306 0.10422546 0.11808181 -0.03250387 -0.069636926 -0.0048395125 -0.09387942 0.089858964
0.061077606 -0.09712663 0.10379657 0.052552942 0.025367867 0.071916066 0.008584601 -0.032930057
0.0047704866 -0.12129273 -0.021081809 0.04423323 0.076078154 0.0030879704 -0.04206604 0.08842879
-0.10903634 0.10734765 0.07082027 0.049478527 -0.018756576 0.12147725 -0.043551303 -0.099925004
-0.090708226 -0.11643015 0.05312288 0.08384821 0.06641367 -0.049661856 0.05985893 -0.05734742
0.09324406 0.022921642 0.103924654 -0.03643569 0.021394053 -0.11515734 -0.051347483 0.0348909
-0.09667772 0.11965914 0.09149635 -0.11355136 0.008416733 0.050561134 -0.065151945 -0.12125102

fc.bias f4 [3]
00000000: 3ed1 153c f286 8fbc 6058 bd3d
0.0091441255 -0.017520402 0.09245372
