trainedModels/1619628960/rnn.pt (torch, 22538 bytes, 6 tensors)

rnn_layer.weight_ih_l0 f4 [64, 12]
-0.07045134 0.05077862 -0.07688795 -0.057550374 0.004187388 0.049709275 -0.102120206 0.07561565
-0.068478286 0.10108429 -0.032468826 -0.12044501 0.031567942 -0.01640335 0.062715985 0.11975932
-0.07584883 0.019227415 0.011025618 0.044939894 0.0625933 -0.044433773 -0.08528963 -0.07322164
-0.0045531034 0.071210176 0.012823898 0.041982066 0.040326457 -0.06797862 0.07669243 -0.023732001
0.020108875 0.07320829 -0.098981515 -0.03780899 0.06871215 -0.03308485 0.05890142 0.09494397
-0.11184315 0.031057006 0.04775991 -0.11727906 -0.059515804 -0.06573143 0.12298218 -0.024292761
-0.08530054 -0.06756351 -0.11494373 0.09005889 -0.09006303 -0.09682856 0.013240954 -0.079698496
0.022437612 0.051839925 -0.12023378 -0.007773222 0.09219105 -0.036607984 0.10705865 0.12565374
-0.021072181 -0.10356762 -0.061552804 -0.08773937 0.0058353925 0.0075441217 0.0031129322 0.022063415
0.04733645 -0.10920202 0.107676275 -0.11259835 0.07489952 -0.057747062 -0.017421003 -0.18735637
0.086608574 0.03204973 -0.03243628 -0.11591652 -0.10859992 -0.060589354 -0.04865786 -0.09804106
0.08038198 -0.09728529 -0.025960246 0.060591184 -0.028070657 -0.06270832 -0.03904449 -0.10192642
-0.06709567 0.08469537 0.022093274 -0.084509075 0.033969056 0.019555528 0.08606621 -0.14895055
0.11634549 -0.12697418 -0.092257686 -0.07996507 0.055672023 0.10043468 0.059503812 -0.029629596
-0.08527455 0.0969854 -0.025579104 -0.07717068 0.09897376 0.015178976 -0.112256795 -0.008895969
-0.11708716 -0.044328168 -0.0040600533 0.0038892962 0.099170454 0.12137098 0.031323627 0.15740837
0.072025724 -0.07358043 0.03792515 0.034051564 0.11888726 0.10810155 -0.10308042 0.07477098
-0.053472877 -0.060558483 -0.12035607 0.025041275 -0.008336821 -0.0679404 -0.04433402 -0.024273688
-0.123090714 -0.098594226 0.01454987 -0.055231716 -0.08415747 -0.11854352 -0.0022946836 -0.17859821
0.07663726 0.042533968 0.030582476 0.07833816 -0.0786381 0.08190727 0.034565907 -0.020229792
0.056602478 0.013315432 -0.07328511 -0.016909262 -0.07613818 -0.002976696 0.072109014 0.03914047
0.107580744 0.08872088 0.06539719 0.048342418 0.10905828 -0.09222048 -0.062161412 0.12841281
0.054470025 -0.07968143 0.06203365 -0.02428478 -0.1121282 0.078481935 0.087009616 -0.1243617
0.040114578 -0.031571984 -0.03385635 0.03139554 -0.13862567 -0.11425343 -0.0804069 0.100691326
-0.06286041 -0.053520307 -0.065731466 0.11605984 -0.012405824 0.120048515 -0.10937113 0.008361688
0.086770594 0.0110909045 0.08719358 -0.100637935 -0.036665987 0.06586388 -0.010533607 -0.06984056
-0.10047909 0.0142548 -0.116961345 -0.05378094 0.0014357041 -0.08996295 -0.031012377 -0.049901646
0.079707876 -0.018092081 0.046374395 0.006923146 -0.10123688 0.08781004 -0.090531446 -0.019288551
-0.012404122 0.09743887 0.11592986 -0.025155101 -0.079074465 -0.0753158 0.10078907 0.0774193
-0.115358524 0.09458775 0.08754607 -0.07140016 0.03570187 -0.113275714 0.11664533 -0.019545065
-0.062394973 0.010694146 -0.12003142 0.052103434 -0.0006408808 -0.030764136 0.082459874 0.050005823
-0.009781598 0.10774968 -0.059438866 0.05566223 -0.110895015 0.02536338 0.10440461 -0.010705327
00000000: cb48 90bd 3efd 4f3d 6e77 9dbd f1b9 6bbd
00000010: 5b36 893b f49b 4b3d 6624 d1bd 61dc 9a3d
00000020: 583e 8cbd 4805 cf3d 08fe 04bd e0ab f6bd
00000030: 634d 013d 5160 86bc 3d71 803d 6044 f53d
00000040: a256 9bbd d082 9d3c cba4 343c e512 383d
00000050: eb30 803d 3000 36bd 54ac aebd 3af5 95bd
00000060: 3332 95bb a4d6 913d 541b 523c 63f5 2b3d
00000070: 5b2d 253d 6038 8bbd ec10 9d3d 9d69 c2bc
00000080: 5ebb a43c 3aee 953d d2b6 cabd 99dd 1abd
00000090: f5b8 8c3d fb83 07bd 9e42 713d fc71 c23d
000000a0: 050e e5bd 436b fe3c e59f 433d 0130 f0bd
000000b0: d8c6 73bd 339e 86bd 15de fb3d 9d01 c7bc
000000c0: 0db2 aebd bd5e 8abd 9e67 ebbd cc70 b83d
000000d0: f772 b8bd 0d4e c6bd 96f0 583c f738 a3bd
000000e0: 15cf b73c 1a56 543d 213d f6bd 83b6 febb
000000f0: a9ce bc3d 41f2 15bd 9141 db3d 60ab 003e
00000100: 919f acbc 431b d4bd cb1e 7cbd b3b0 b3bd
00000110: d236 bf3b ae34 f73b 5602 4c3b 56be b43c
00000120: dee3 413d 4fa5 dfbd 6185 dc3d f799 e6bd
00000130: eb64 993d 2f88 6cbd 7eb6 8ebc 59da 3fbe
00000140: d65f b13d 9446 033d e8db 04bd a465 edbd
00000150: a369 debd 8b2c 78bd 774d 47bd c0c9 c8bd
00000160: 4f9f a43d 833d c7bd 95aa d4bc 762e 783d
00000170: 6ff4 e5bc 386d 80bd 1ded 1fbd cdbe d0bd
00000180: 7469 89bd c474 ad3d f4fc b43c 1813 adbd
00000190: 2323 0b3d ea32 a03c 7b43 b03d 7e86 18be
000001a0: 8b46 ee3d 8505 02be 99f1 bcbd bac4 a3bd
000001b0: 5908 643d b3b0 cd3d 45ba 733d c4b9 f2bc
000001c0: 6ca4 aebd 48a0 c63d 458b d1bc a90b 9ebd
000001d0: c1b2 ca3d 3db1 783c e4e6 e5bd 66c0 11bc
000001e0: 65cb efbd 7491 35bd 320a 85bb 90e3 7e3b
000001f0: e119 cb3d 5991 f83d 344d 003d a92f 213e
00000200: 3982 933d 56b1 96bd 6757 1b3d a779 0b3d
00000210: 2a7b f33d 5864 dd3d d41b d3bd 8721 993d
00000220: 6006 5bbd 2c0c 78bd 3e7d f6bd 5c23 cd3c
00000230: 2997 08bc 5624 8bbd 9797 35bd 9dd9 c6bc
00000240: fc16 fcbd c5eb c9bd 9462 6e3c a73a 62bd
00000250: c05a acbd f2c6 f2bd 6762 16bb 73e2 36be
00000260: fff3 9c3d 1938 2e3d 1a88 fa3c c26f a03d
00000270: 030d a1bd 00bf a73d fb94 0d3d f3b8 a5bc
00000280: 00d8 673d f828 5a3c 8116 96bd 4b85 8abc
00000290: 56ee 9bbd ac14 43bb e4ad 933d c251 203d
000002a0: 4b53 dc3d 4bb3 b53d f6ee 853d b302 463d
000002b0: f359 df3d 17de bcbd f79c 7ebd a67e 033e
000002c0: f61b 5f3d 0430 a3bd ff16 7e3d e0f0 c6bc
000002d0: 78a3 e5bd 23bb a03d 1932 b23d 59b1 febd
000002e0: 2f4f 243d a051 01bd f5ac 0abd 9c98 003d
000002f0: e3f3 0dbe b4fd e9bd 5fac a4bd 4137 ce3d
00000300: f5bc 80bd 1c38 5bbd 389e 86bd c8b0 ed3d
00000310: cc41 4bbc ffdb f53d f9fd dfbd 76ff 083c
00000320: c8b4 b13d a0b6 353c 8c92 b23d 431b cebd
00000330: 132f 16bd a4e3 863d 2695 2cbc 9108 8fbd
00000340: fbc7 cdbd f78c 693c 6e89 efbd 6749 5cbd
00000350: 3c2e bc3a 7f3e b8bd ab0d febc ab65 4cbd
00000360: e23d a33d d835 94bc 14f3 3d3d 8fdb e23b
00000370: 4855 cfbd c0d5 b33d 8d68 b9bd 0603 9ebc
00000380: a93a 4bbc 088e c73d a26c ed3d 1212 cebc
00000390: cbf1 a1bd 2c3f 9abd 806a ce3d 038e 9e3d
000003a0: 1741 ecbd 39b7 c13d 5b4b b33d 3f3a 92bd
000003b0: 203c 123d 19fd e7bd bfe3 ee3d f91c a0bc
000003c0: df91 7fbd 8036 2f3c 08d3 f5bd 696a 553d
000003d0: c800 28ba 1205 fcbc b9e0 a83d e8d2 4c3d
000003e0: ff42 20bc ddab dc3d 2b76 73bd 14fe 633d
000003f0: ed1c e3bd ddc6 cf3c 16d2 d53d 6565 2fbc

rnn_layer.weight_hh_l0 f4 [64, 64]
-0.0374169 0.11989298 0.08404952 0.0851517 0.07846792 0.009453032 0.10245754 -0.05574041
-0.046518374 0.015008278 -0.08159701 -0.028018977 -0.007355445 -0.09938636 -0.050554175 -0.001364642
-0.11157636 -0.06757361 -0.10374009 0.031758383 0.06030422 0.058895048 -0.09308437 -0.02844138
-0.011978366 0.08173894 0.07018002 -0.09436969 0.077332675 0.042455364 -0.09044692 0.034690518
-0.11182365 0.0787368 0.00847914 0.05900092 0.010025635 0.0679409 -0.08847301 -0.04188699
0.10436767 -0.07766789 -0.04800265 0.117083505 0.006786772 0.014648575 0.035643112 -0.055507064
0.09047264 0.07426949 0.11199367 -0.09079474 0.06874033 -0.009881192 -0.10078884 0.014382594
0.07667885 -0.013021095 0.043922648 -0.009131782 0.0031449862 0.060027745 0.123830855 -0.035670284
-0.08884212 -0.058773473 -0.027820295 0.1030851 -0.023460848 -0.020474486 -0.14216271 -0.06425925
-0.01816327 -0.014028948 0.019589895 0.047508303 -0.11427931 -0.0017334092 0.08242572 0.06601319
-0.0979464 0.104662135 -0.05120852 -0.061418843 -0.118671745 0.00714349 0.036394313 -0.04649065
0.044092484 -0.10918509 -0.08781338 0.06020972 -0.03015898 -0.0049240584 0.033666044 -0.04504083
-0.057381 -0.0702891 -0.10625837 0.07109995 -0.07670267 0.008359225 0.0033023157 0.028014585
-0.1190418 0.09698026 -0.092595086 -0.019404136 -0.0070696403 0.1123624 0.020759564 0.117378965
0.11200623 -0.077523485 0.0524161 -0.0026241445 -0.08266496 -0.05629378 -0.0777298 -0.028510246
0.046379235 -0.057517048 0.094741724 0.044647664 -0.0030589965 -0.073164456 -0.1182618 0.047901697
0.113680616 -0.05354853 0.08944589 0.08731592 0.024186146 -0.12166859 -0.08838244 -0.07109142
0.09908021 -0.10565616 -0.11566134 -0.11925203 0.03921796 -0.04937473 -0.0032427087 0.061962478
-0.048295863 -0.078756146 -0.09872432 0.07388004 -0.09259861 -0.03744385 0.064362995 0.09381286
0.06671685 -0.023326794 0.033350483 0.013142957 0.03356588 0.003141645 -0.08952416 0.070045315
-0.08511546 0.068022184 0.04216615 0.040311716 0.08051963 0.012427027 -0.12003692 0.12031231
0.044496965 -0.05433203 -0.047498643 -0.026776232 -0.055488005 0.050546367 -0.07854805 0.08176377
0.023223784 0.010618898 -0.031423904 0.075509116 -0.075755745 0.023044571 0.0020119995 0.020252489
0.039529897 -0.1165334 -0.065767005 -0.0115607185 0.056262136 -0.1011351 0.087288715 -0.0501567
-0.011901895 0.101830624 0.10109547 -0.029630162 0.0056846645 0.07489251 0.034160275 0.046424884
-0.02643947 -0.12524211 0.06708274 0.06778605 -0.11915711 0.063154325 -0.04403081 0.03338157
0.047045525 -0.0996449 -0.101587415 0.021521071 0.0132290805 0.09895278 0.06967513 -0.12631248
-0.08568771 0.065810904 -0.077168405 -0.0959709 -0.040833 -0.11078194 0.023864152 -0.08885972
0.093112886 0.039098315 -0.066034496 0.055089045 -0.054891393 -0.11004638 0.046422523 -0.09072494
0.0373721 -0.08040131 0.05174445 -0.029432753 0.01812791 -0.047460012 -0.032600906 0.03171917
0.085539795 0.05313747 -0.07364019 -0.107480034 -0.039784096 -0.008423471 -0.0168804 -0.12352223
0.09565976 -0.012751414 -0.035111576 0.069037 0.100564726 0.03654567 -0.03695952 -0.103814185
00000000: 7742 19bd 738a f53d 2822 ac3d 0464 ae3d
00000010: cab3 a03d e4e0 1a3c 42d5 d13d 0e50 64bd
00000020: 0d8a 3ebd 48e5 753c 551c a7bd 0e88 e5bc
00000030: f205 f1bb 138b cbbd e511 4fbd cadd b2ba
00000040: 2682 e4bd 0864 8abd af75 d4bd 1415 023d
00000050: 8f01 773d ef3b 713d 05a3 bebd e6fd e8bc
00000060: e940 44bc bf66 a73d 8bba 8f3d e544 c1bd
00000070: 9860 9e3d ade5 2d3d 3c3c b9bd a517 0e3d
00000080: cc03 e5bd c240 a13d 17ec 0a3c f3aa 713d
00000090: 9042 243c 9924 8b3d 5631 b5bd b191 2bbd
000000a0: b8be d53d 5810 9fbd 6d9e 44bd 7ac9 ef3d
000000b0: 9263 de3b 9400 703c 83fe 113d 605b 63bd
000000c0: b849 b93d 9a1a 983d f05c e53d 98f2 b9bd
000000d0: bbc7 8c3d b9e4 21bc 616a cebd f9a4 6b3c
000000e0: cd09 9d3d 6e56 55bc 3ce8 333d 789d 15bc
000000f0: 1d1c 4e3b a7df 753d 089b fd3d 011b 12bd
00000100: dbf2 b5bd 74bc 70bd 63e7 e3bc 481e d33d
00000110: f730 c0bc 1cba a7bc 1a93 11be 5b9a 83bd
00000120: 23cb 94bc acd9 65bc fd7a a03c 1198 423d
00000130: 450b eabd 9033 e3ba d1ce a83d ec31 873d
00000140: 1f98 c8bd 1a59 d63d 06c0 51bd 5392 7bbd
00000150: 2c0a f3bd f013 ea3b 3412 153d fb6c 3ebd
00000160: 529a 343d 6f9c dfbd 80d7 b3bd 789e 763d
00000170: f70f f7bc ff59 a1bb 68e5 093d bc7c 38bd
00000180: 5708 6bbd bbf3 8fbd fd9d d9bd da9c 913d
00000190: 4a16 9dbd 21f5 083c aa6b 583b d87e e53c
000001a0: 30cc f3bd 969d c63d 7ea2 bdbd 6cf5 9ebc
000001b0: 71a8 e7bb 421e e63d f60f aa3c 6264 f03d
000001c0: 8663 e53d a2c4 9ebd 44b2 563d d7f9 2bbb
000001d0: 3f4c a9bd 4f94 66bd cd30 9fbd 528e e9bc
000001e0: 27f8 3d3d ff96 6bbd f307 c23d 78e0 363d
000001f0: 7279 48bb 3fd7 95bd 3e33 f2bd 9234 443d
00000200: 62d1 e83d b455 5bbd 682f b73d b0d2 b23d
00000210: 0622 c63c 622d f9bd da01 b5bd 6198 91bd
00000220: 91ea ca3d 4262 d8bd dadf ecbd 693a f4bd
00000230: 03a3 203d 283d 4abd a083 54bb 5ecc 7d3d
00000240: e2d1 45bd e74a a1bd fa2f cabd 6b4e 973d
00000250: 57a4 bdbd b95e 19bd bfd0 833d f520 c03d
00000260: d8a2 883d d517 bfbc 849a 083d 8f55 573c
00000270: 607c 093d 0fe4 4d3b 7158 b7bd eb73 8f3d
00000280: 0451 aebd 374f 8b3d 6ab6 2c3d e61d 253d
00000290: 7ae7 a43d bb9a 4b3c ebd5 f5bd 4d66 f63d
000002a0: 7342 363d 438b 5ebd f08d 42bd d459 dbbc
000002b0: 6447 63bd b509 4f3d cddd a0bd c373 a73d
000002c0: ce3f be3c e3fa 2d3c 5ab6 00bd 86a4 9a3d
000002d0: d425 9bbd f8c7 bc3c c0db 033b 8ce8 a53c
000002e0: 1aea 213d 10a9 eebd dab0 86bd 2b69 3dbc
000002f0: 2073 663d eb1f cfbd 6dc4 b23d 1d71 4dbd
00000300: 2a00 43bc 938c d03d 240b cf3d f4ba f2bc
00000310: 6c46 ba3b 3f61 993d a5eb 0b3d 0528 3e3d
00000320: 9697 d8bc 783f 00be ad62 893d 6ad3 8a3d
00000330: a508 f4bd 0e57 813d a759 34bd 1dbb 083d
00000340: cfb2 403d a012 ccbd 100d d0bd f54c b03c
00000350: c9be 583c c1a7 ca3d d6b1 8e3d 0f58 01be
00000360: 0a7d afbd dec7 863d 780a 9ebd 648c c4bd
00000370: 8140 27bd a4e1 e2bd c17e c33c 16fc b5bd
00000380: f8b1 be3d 8e25 203d 183d 87bd 0da5 613d
00000390: ccd5 60bd ff5f e1bd 8b25 3e3d ffcd b9bd
000003a0: 7d13 193d 71a9 a4bd fdf1 533d f51c f1bc
000003b0: fc80 943c 6e65 42bd 8788 05bd f6eb 013d
000003c0: 7d2f af3d ada6 593d abd0 96bd 7e1e dcbd
000003d0: a6f4 22bd 9902 0abc c448 8abc 39f9 fcbd
000003e0: 44e9 c33d 4feb 50bc 28d1 0fbd 4563 8d3d
000003f0: e1f4 cd3d eab0 153d de62 17bd 889c d4bd

rnn_layer.bias_ih_l0 f4 [64]
0.050776176 -0.10348929 0.12624788 -0.027829323 0.1153083 0.044143755 0.10999989 -0.024358604
0.09691614 0.066955395 -0.043323237 -0.09730349 0.11556023 -0.056105617 0.09110361 0.054461107
-0.06961621 -0.010925624 0.021346873 0.103260644 0.10362462 0.029333234 -0.0066007148 0.0233063
0.009273957 0.084908366 -0.09368744 0.048104297 -0.032960825 0.074184 0.059133977 -0.059729952
0.0061075897 0.0042962423 0.07810393 0.011515775 0.0014933059 0.050928235 0.075223416 0.10569027
0.1078311 -0.094020195 -0.10627791 0.10482637 -0.07176401 -0.12066725 -0.030526636 -0.1105645
0.038716342 0.011576019 0.038168866 0.06703949 -0.061106555 0.07767112 0.056479085 -0.048930608
-0.020596873 0.008700305 0.006289966 0.07635804 -0.0844798 0.09017123 -0.076746486 0.077166535
00000000: aefa 4f3d 31f2 d3bd 2047 013e 52fa e3bc
00000010: c226 ec3d 15d0 343d 9f47 e13d b28b c7bc
00000020: f87b c63d e91f 893d b573 31bd 0d47 c7bd
00000030: d8aa ec3d 01cf 65bd 8894 ba3d 9c12 5f3d
00000040: f292 8ebd 6301 33bc a3df ae3c 517a d33d
00000050: 2539 d43d 404c f03c cf4a d8bb dbec be3c
00000060: ccf1 173c 70e4 ad3d 33df bfbd 0309 453d
00000070: ee01 07bd c8ed 973d 7836 723d 65a7 74bd
00000080: 2d22 c83b 7ec7 8c3b f4f4 9f3d a9ac 3c3c
00000090: 08bb c33a 209a 503d bc0e 9a3d 2474 d83d
000000a0: 8dd6 dc3d a98d c0bd 3ca8 d9bd 35af d63d
000000b0: 02f9 92bd 6420 f7bd ff12 fabc a46f e2bd
000000c0: 0795 1e3d 58a9 3d3c f556 1c3d 004c 893d
000000d0: de4a 7abd 0912 9f3d 9d56 673d 766b 48bd
000000e0: c6ba a8bc b98b 0e3c 0f1c ce3b 9b61 9c3d
000000f0: bf03 adbd b2ab b83d 432d 9dbd 7d09 9e3d

rnn_layer.bias_hh_l0 f4 [64]
0.06912387 -0.04679975 -0.015794916 -0.005504018 -0.037568193 -0.06767928 -0.12459827 0.06910984
-0.008239056 -0.012648456 -0.009261088 0.04397577 -0.08418958 -0.050438512 0.09601876 0.07440928
-0.0635823 0.02973844 -0.10599406 -0.102276765 0.08484199 0.055685718 0.023130449 -0.11121858
0.05682305 0.07421756 -0.11896535 0.114114456 0.09304772 0.05698242 0.021708509 0.0086495755
-0.094975814 -0.09672202 -0.04373667 0.00784011 -0.035178617 0.08639497 0.009673595 -0.028544957
-0.021940721 0.111856766 0.0013791189 0.010299528 0.025457898 -0.08428867 0.06021587 -0.06691004
-0.0010623955 -0.027100291 0.091679804 -0.114228874 0.07753676 0.10595577 0.034908 -0.08102043
0.024577294 -0.1233798 -0.07128358 0.047253907 0.027675362 0.07633574 0.0053913067 -0.059000596
00000000: d190 8d3d 18b1 3fbd 5764 81bc 0d5b b4bb
00000010: 1be1 19bd 6f9b 8abd 612d ffbd 7689 8d3d
00000020: 1bfd 06bc 783b 4fbc d2bb 17bc f01f 343d
00000030: 966b acbd 9d98 4ebd 7ca5 c43d e563 983d
00000040: 7037 82bd 079e f33c 6a13 d9bd 7b76 d1bd
00000050: a3c1 ad3d b516 643d 117c bd3c 91c6 e3bd
00000060: 49bf 683d 60ff 973d 1ba4 f3bd d7b4 e93d
00000070: ce8f be3d 6666 693d 0bd6 b13c f3b6 0d3c
00000080: ae82 c2bd 3216 c6bd 3925 33bd ce73 003c
00000090: 7417 10bd d9ef b03d 007e 1e3c 1dd7 e9bc
000000a0: 07bd b3bc 2915 e53d 8dc3 b43a 5abf 283c
000000b0: 158d d03c 8a9f acbd eba4 763d 2208 89bd
000000c0: 1440 8bba 6e01 debc 9fc2 bb3d d4f0 e9bd
000000d0: 98cb 9e3d 57ff d83d b1fb 0e3d 0aee a5bd
000000e0: 5256 c93c 8cae fcbd 20fd 91bd 508d 413d
000000f0: 71b7 e23c ea55 9c3d 8fa9 b03b 9caa 71bd

fc.weight f4 [3, 64]
-0.008535594 0.0071611283 -0.013968041 -0.0408949 0.09311981 -0.07823944 -0.106077164 0.039074194
-0.022602329 -0.097236246 0.07699708 -0.051862814 -0.08714669 0.09448112 -0.0009155483 -0.047504235
-0.08177919 -0.01769495 0.025058588 -0.09380801 0.028331479 -0.029744843 0.00610442 -0.10227355
0.06021055 0.06130754 -0.052602585 0.005262842 0.085011125 -0.11980547 0.025864124 0.1170927
-0.08020735 -0.08277415 -0.086872905 0.019647947 0.012608307 0.092812315 -0.020613773 0.026049525
0.06889076 0.0915342 -0.045913283 0.09403068 -0.03298668 -0.13183051 0.11672442 -0.09394017
0.12525877 0.119882844 -0.1212028 -0.011806497 -0.0746531 -0.092202485 0.053501554 -0.09899065
0.029302856 -0.120087385 0.06377468 0.07607398 0.037726767 0.050165083 0.054470133 -0.096673965
-0.0466167 0.020991825 -0.121462226 0.0065140217 0.123192124 0.017754622 0.108528465 -0.053813927
0.03461759 0.03250782 -0.019945817 -0.0023072325 0.06255681 -0.06961023 -0.08391267 -0.11590815
-0.059097897 -0.014794875 -0.031718113 0.018113924 -0.037073728 -0.09231762 0.08912407 0.0658193
-0.029297085 -0.072327815 -0.103921056 0.009122391 -0.09454274 -0.038385298 0.031773277 0.020190226
-0.09653896 -0.10007802 0.028331265 -0.08804532 -0.019426005 0.04581469 0.06526128 -0.11176025
-0.098644644 0.012755842 -0.028265376 -0.055170573 -0.03049375 0.1007929 -0.0040225815 0.038916174
-0.10604466 0.022109093 -0.07300019 0.022355458 0.07138759 0.10962272 0.030829556 -0.036947027
-0.13734318 -0.023313582 0.0065221586 0.10109849 0.055828404 -0.010507978 -0.016526202 -0.091534875
-0.10058899 0.056867935 -0.10526402 0.059837352 0.039955504 -0.11803077 -0.039828144 0.042807937
0.08817425 0.070214204 -0.08953476 0.07649843 0.07113743 -0.08867761 -0.10715365 -0.004159571
0.01736803 -0.013021764 0.11055934 0.06300004 0.071301326 0.0892365 -0.036007185 -0.0060663447
0.10062556 -0.04606445 -0.085872 0.0031535616 -0.07276897 -0.12519284 -0.11351785 -0.005292047
-0.08532956 0.08760656 -0.12153693 0.069725744 0.045999113 -0.12786862 0.032592073 -0.07975531
0.03582702 -0.06363721 -0.053305935 0.06105364 -0.019675598 -0.022602964 0.05724888 -0.06420934
-0.002875971 0.0925325 -0.08771174 0.0047039613 -0.039699286 0.018918239 0.036798768 0.08822907
-0.056734663 0.1079548 0.06682861 -0.11249423 0.08457316 0.06402655 0.1359187 -0.05613051
00000000: e0d8 0bbc e6a7 ea3b 36da 64bc 6981 27bd
00000010: 99b5 be3d 003c a0bd fc3e d9bd 430c 203d
00000020: 8528 b9bc cc23 c7bd a5b0 9d3d 1a6e 54bd
00000030: f779 b2bd 517f c13d 6801 70ba cd93 42bd
00000040: d97b a7bd 00f5 90bc ab47 cd3c 6a1e c0bd
00000050: 6b17 e83c 75ab f3bc 9607 c83b cc74 d1bd
00000060: 569f 763d 9d1d 7b3d cf75 57bd eb73 ac3b
00000070: 501a ae3d 925c f5bd 00e1 d33c 4cce ef3d
00000080: c043 a4bd 7e85 a9bd 6cea b1bd bbf4 a03c
00000090: 1393 4e3c 6214 be3d 37de a8bc d065 d53c
000000a0: 9916 8d3d 4876 bb3d 910f 3cbd 2893 c03d
000000b0: 0a1d 07bd 94fe 06be 360d ef3d b463 c0bd
000000c0: d643 003e 2385 f53d 2c39 f8bd 0a70 41bc
000000d0: b9e3 98bd a8d4 bcbd 7224 5b3d 9cbb cabd
000000e0: 8b0c f03c 60f0 f5bd 4d9c 823d adcc 9b3d
000000f0: 6287 1a3d e779 4d3d 131c 5f3d 00fd c5bd
00000100: 27f1 3ebd 0cf7 ab3c 30c1 f8bd 9373 d53b
00000110: 274c fc3d 2472 913c 2c44 de3d fe6b 5cbd
00000120: 2dcb 0d3d eb26 053d 6965 a3bc f034 17bb
00000130: c91d 803d cf8f 8ebd 68da abbd 4161 edbd
00000140: a310 72bd 3466 72bc daea 01bd a763 943c
00000150: 9fda 17bd 0511 bdbd ae86 b63d 45cc 863d
00000160: 7100 f0bc 9b20 94bd 90d4 d4bd 1576 153c
00000170: a09f c1bd e739 1dbd b224 023d f965 a53c
00000180: 38b6 c5bd b4f5 ccbd f816 e83c 1b51 b4bd
00000190: 4923 9fbc 2fa8 3b3d b5a7 853d 8fe2 e4bd
000001a0: 3406 cabd e1fd 503c ca8c e7bc 8afa 61bd
000001b0: 07ce f9bc 826c ce3d dccf 83bb 9166 1f3d
000001c0: f12d d9bd 211e b53c 2081 95bd cb22 b73c
000001d0: a833 923d e081 e03d 448e fc3c c455 17bd
000001e0: b1a3 0cbe 20fc bebc d5b7 d53b ba0c cf3d
000001f0: 53ac 643d a729 2cbc f561 87bc a376 bbbd
00000200: 9a01 cebd 5aee 683d aa94 d7bd 0318 753d
00000210: 62a8 233d 1eba f1bd d622 23bd 6057 2f3d
00000220: b494 b43d 77cc 8f3d 005e b7bd 35ab 9c3d
00000230: 80b0 913d 9b9c b5bd 5f73 dbbd 034d 88bb
00000240: 6647 8e3c 3d59 55bc ef6c e23d 2a06 813d
00000250: 6e06 923d a0c1 b63d 457c 13bd 30c8 c6bb
00000260: c614 ce3d 14ae 3cbd a9dd afbd fcab 4e3b
00000270: e607 95bd 8d32 00be 0c7c e8bd e868 adbb
00000280: 44c1 aebd 116b b33d 5be8 f8bd 5fcc 8e3d
00000290: 9169 3c3d feef 02be 447f 053d c156 a3bd
000002a0: 5abf 123d 3a54 82bd 5357 5abd 6213 7a3d
000002b0: b82e a1bc da29 b9bc cd7d 6a3d 3080 83bd
000002c0: c97a 3cbb ae81 bd3d 36a2 b3bd b023 9a3b
000002d0: b89b 22bd 6cfa 9a3c 4eba 163d 71b1 b43d
000002e0: 9b62 68bd 6817 dd3d 70dd 883d 6063 e6bd
000002f0: b134 ad3d 5a20 833d 462e 0b3e 1be9 65bd

fc.bias f4 [3]
-0.11425929 0.036982387 0.08166719
00000000: c600 eabd d87a 173d 2141 a73d
