trainedModels/1620284454/rnn.pt (torch, 22538 bytes, 6 tensors)

rnn_layer.weight_ih_l0 f4 [64, 12]
00000000: d477 67bd 2b07 27ba 3ab4 9cbd 9e5a b7bc
00000010: e989 c13c d5d3 a63d f6a6 6dbd b640 593e
00000020: 72da f8bc 29f6 16bd 80bc 6bbc b987 e7bd
00000030: d9ea 883d 1345 7a3d 61f5 e9bd 3f4e ee3d
00000040: e8cd 6f3d 0d0b 933d 1659 493b 3519 6ebe
00000050: 097b f7bc e1b5 82bb 2ded 03be 739e 843d
00000060: 3547 7abd 5aea 1bbc 4eed 073c 29c2 e03d
00000070: 6c7e e43d 6b31 b6bd c020 36bd 200e bcba
00000080: 6eba 263d b98c 763d 6802 183d e098 503c
00000090: 8398 6abd d987 62bd d0bc 6a3d 41f3 833d
000000a0: ac64 ac3d 5eda 913c 279e 0c3b abba 86be
000000b0: b12e 6ebd c497 823d 2116 62bd 5865 0d3d
000000c0: cf6b a3bd c2e0 c7bc 24b7 b8bd 8804 103c
000000d0: 410f 4cbd 4d5f 54bd 7a2a 2abc 4025 38be
000000e0: 2705 d93b 4368 35bd 5561 b2bb ae65 553d
000000f0: a4da ad3d 017f 473d 1e0c 3c3d dc48 6abd
00000100: 18ca 123d 562b 233d e5bf bb3d d79a a7bd
00000110: 071b f23b a0e7 13be daba 88bd f5b3 87bd
00000120: 001e 5fbd ed18 b13c 920b 3d3d 431e d1bd
00000130: 6594 b3bd f320 0c3e 950c 203d 2101 953d
00000140: 2247 033e 52b7 be3d 9d33 9abc 7b2a d23d
00000150: 2baa 3d3c 4c7e 34bd 3841 283d 83b0 00be
00000160: 16cb 5abd f0d7 a23d 8cc9 5e3d 3935 83be
00000170: afc6 ccbd 9f1a 873d 1040 84bd 1c68 0dbe
00000180: 1b4a 0cbe 1679 24bd 3928 9dbd 2097 5cbd
00000190: 03bd 0dbe 6488 843d 2fce e8bb 4b77 863d
000001a0: a62d ec3d 5dc2 003e 6d56 813d 1b7c a23d
000001b0: a333 b3bd 8b47 bfbc 72d9 9f3d 8f48 dabc
000001c0: 78cb b83c e037 3abd 4082 343d 781c 4a3d
000001d0: 6e1b b6bd ed0c 983d 5813 203d 298d 0ebd
000001e0: 587b 00be de0e 09bd 44f6 923d 39fa 1c3d
000001f0: 2945 933d b2b7 4b3d d04d 16be 3b3e f83d
00000200: 21cd 7d3d 0b41 98bd 6b8d a03d 0665 1fbd
00000210: 5e81 36bd 4a19 b03d 065a 8d3d 2287 7e3d
00000220: 720f b1bd cbaa eebb 2462 abbc 0931 503e
00000230: 6c34 b43d 3857 b9bd ca37 2a3d ad89 073d
00000240: 590c b23d ba8d 6d3d e94a 1a3d 6e4f d8bd
00000250: 007b 44bd d274 213c 301a a5bd 50a1 71bc
00000260: d7eb 92bc 67fc fb3c c9d7 0a3d bbcf 433d
00000270: 80ee 013d 240c 833d bbf0 b4bd f398 f8bb
00000280: b4ee 8fbd c5d6 233d 4d5e 2f3d b85f 82bd
00000290: cf63 e2bd 0a14 353c b860 663d d938 40bd
000002a0: 5823 b3bd 7a0c 8c3c 94a5 86bd 5c3d 5d3d
000002b0: cf6e eb3c 73f5 113d b6ff 763c 56ca 393e
000002c0: 8df1 983d 04b6 1abd 4b3a 51bd b061 e73c
000002d0: 991a 563d c63e 513d 35fa 1d3d ba2e 11bd
000002e0: da25 203d 90e7 3d3d da60 983b 64c7 08bd
000002f0: 882f d5bd c423 00bc 7839 d0bd 548d e93d
00000300: df91 10be edd1 77bd fc8e 1f3d 9a54 3b3d
00000310: 4c64 3f3d a5a8 bc3c 3852 dbbd 3c1e 5abd
00000320: 0752 20bd cba5 bdbc 02d8 e53c d6d4 303d
00000330: 5caf f43d 3a55 34bd 8515 b03d 6346 97bc
00000340: 1b83 6fbd 9ec8 eb3c d0f4 bfbc b9dc 2d3e
00000350: bbe3 b23c 5c90 923d 51f7 3fbd 489f 933d
00000360: fdc8 77bd 9a48 01be bf9e 51bc 98f5 7c3d
00000370: 220d 013d 11ab 9abd 7e40 de3d afad edbd
00000380: d151 a0bd 7bb2 1e3d cdd2 3bbd 8182 75bd
00000390: 7b81 2a3d e02f 9c3c c0a8 edbb 6fff 1cbd
000003a0: 26bd 503c 5b51 91bd 4895 bd3d 16af 403d
000003b0: 2a04 003e 5e03 4ebd fba3 6b3d 8171 8bbd
000003c0: 5075 22bc 8228 7abd 5ea2 e43c 03e2 7abd
000003d0: 5d74 d7bc 0ad7 cbbc 6067 8fbd b128 7bbe
000003e0: 6237 5f3c ccac 66bc 2870 cbbc 9fef 8f3c
000003f0: 2728 6b3d 7a45 bb3c 9f67 0ebd 4ea2 d33c
-0.05651076 -0.00063716125 -0.07651563 -0.022382077 0.023625331 0.081458725 -0.058020554 0.21216092
-0.0303776 -0.03685585 -0.014388204 -0.11305184 0.06685419 0.06110103 -0.114237554 0.11636018
0.058545977 0.07179842 0.0030723265 -0.23251803 -0.030210035 -0.003988967 -0.12883444 0.06475534
-0.061103065 -0.009516323 0.008296324 0.10974533 0.111569256 -0.088961445 -0.044464827 -0.0014347471
0.040705137 0.060192797 0.03711167 0.012731761 -0.057274353 -0.055305336 0.057308972 0.064428814
0.08417639 0.01780432 0.002145657 -0.2631429 -0.058149997 0.06376603 -0.055196885 0.034520477
-0.07979547 -0.024399165 -0.09019306 0.008790143 -0.049819235 -0.0518487 -0.010386104 -0.1798296
0.0066229287 -0.044288885 -0.005443732 0.052098922 0.08488968 0.048705105 0.045909993 -0.05719839
0.035837263 0.03983625 0.0916746 -0.0818383 0.007388476 -0.14443827 -0.06676264 -0.06626121
-0.05447197 0.02161833 0.046153612 -0.1021085 -0.087685384 0.13684444 0.0390745 0.07275606
0.12820104 0.09312309 -0.01882344 0.10262009 0.011576216 -0.04406576 0.041077822 -0.12567334
-0.053416334 0.07951343 0.05439143 -0.25626543 -0.099988334 0.065968744 -0.064575315 -0.13809246
-0.13700144 -0.04015454 -0.076736875 -0.05385506 -0.13841633 0.06471327 -0.007104657 0.06565722
0.11532144 0.12574144 0.063153125 0.079338275 -0.08750083 -0.023349544 0.07805146 -0.026645927
0.022557959 -0.045463443 0.04406953 0.049343556 -0.088919505 0.074243404 0.039080948 -0.03480259
-0.12547052 -0.033461444 0.07175878 0.03832457 0.07190926 0.049735732 -0.1467812 0.121212445
0.061963204 -0.07434281 0.07839473 -0.038914703 -0.044556968 0.085985735 0.06901936 0.06214059
-0.08645524 -0.0072835437 -0.02092082 0.20331205 0.08799061 -0.09049839 0.04155711 0.033090282
0.086937614 0.05799649 0.037669096 -0.10562025 -0.047968864 0.009854512 -0.080616355 -0.014747933
-0.017934723 0.030760003 0.033897195 0.04780553 0.031721592 0.063988 -0.08834978 -0.0075865923
-0.07027951 0.039999742 0.04281454 -0.06365913 -0.11054193 0.011052141 0.056244582 -0.046929214
-0.08746976 0.017095793 -0.0657455 0.054013595 0.028739361 0.03563447 0.015075615 0.18143591
0.07467947 -0.03777124 -0.051080983 0.028244823 0.05227146 0.051085256 0.038568694 -0.035444953
0.039098598 0.046363413 0.0046502175 -0.03339328 -0.104094565 -0.007821027 -0.10167211 0.11403909
-0.14118145 -0.060502935 0.03895472 0.04573498 0.04672651 0.023029635 -0.10709041 -0.05325149
-0.039140727 -0.023150345 0.028057102 0.043171726 0.1194751 -0.04402659 0.085978545 -0.01846618
-0.05847464 0.028782185 -0.023432165 0.1697873 0.021837106 0.071564406 -0.04686672 0.07208115
-0.06049441 -0.12625352 -0.012794196 0.061757654 0.031506665 -0.075521596 0.10852145 -0.11605393
-0.07828105 0.03874443 -0.045855332 -0.05993891 0.04162739 0.019065797 -0.0072527826 -0.038329538
0.012740409 -0.070955954 0.09256989 0.047041975 0.12501588 -0.05029618 0.05752943 -0.068087585
-0.009915665 -0.061073788 0.027909454 -0.061250698 -0.026300604 -0.024882812 -0.07002139 -0.24527241
0.013624044 -0.014079284 -0.024833754 0.017570315 0.05741134 0.022860277 -0.03476679 0.025834229

rnn_layer.weight_hh_l0 f4 [64, 64]
00000000: 8e47 d93c f8b1 a23d 81b5 023d 4ba4 b33d
00000010: f540 e0bd bf18 47bd 902b 383d 8c1b e63a
00000020: ac16 ae3d 5b1b d83d 7d71 b9bd c29d 7e3b
00000030: c1f5 b4bd 1743 a63c c3cb 063e e66d 28bd
00000040: 2027 20bd e6e7 d1bc 1a24 3fbd 63c2 c5bd
00000050: 24df cd3b 9c77 40bc a024 80bc 8b3d b1bd
00000060: 068e a9bd bce8 81bd 8518 2c3d e491 c03d
00000070: e283 e6bd d647 a4bd a21e dcbd 4885 af3d
00000080: 8490 3abd 920f ef3c fca5 9dbc 5ca9 4c3d
00000090: f10d f8bd 0552 ccbc b216 b4bd abe6 eabd
000000a0: a328 46bd e76a d2bd d3dc aabc a853 cebd
000000b0: 6879 803d f42c fbbb 4bdf 243d 1760 5d3d
000000c0: b44a 3c3c 57d3 e43c ff79 babc 2b5c a53d
000000d0: 5b49 993d fcd6 293b 2bd9 a4bd a5ab aa3d
000000e0: 7905 8abd b5cf a43d a743 b03d c2ae 1e3d
000000f0: 5254 ccbb 0442 52bd 7491 e1bd 848f 27bd
00000100: 5a8b dc3d 40c0 8abd ca24 b13d 1874 e33d
00000110: a9e4 8f3d 4ebf b5bb 45a9 823d 349a c13d
00000120: f9d4 173d 16f4 da3d 3c11 d2bd 1774 283d
00000130: 1f0a 33bd baaa 9cbd e5ba 40bd 4dd2 17bd
00000140: c541 f7bc 1527 aebc 880f e1bd a604 093e
00000150: 742c 933d beea 3dbd e1ed 1bbd 9fe8 36bc
00000160: 2961 d33d 261b 6f3d 3895 8b3d 9c72 e43b
00000170: d735 d33d 1060 96bd e14f 26bd d201 823c
00000180: 4e44 25bd b118 8c3d fe65 60bd 75c8 c23d
00000190: 0fa7 baba 3ec2 ea3d c391 c63b 9fcb bebd
000001a0: 4808 c8bd 9985 bebd 4eb7 ebbd 6dca 55bd
000001b0: 66ec 8a3c 1b0d 22bc 27b3 c4bd 377c d3bb
000001c0: 24d2 b23c dba1 fc3d 3f3b d13d 04bf 18bc
000001d0: f635 b03d e562 aebc 49c8 02bd 4801 09bd
000001e0: a8b0 323c 520b d93c b319 813d b6fa e53c
000001f0: 53f4 07be de3a a5bd c22b 85bc 9087 513c
00000200: 8037 963d 5865 2abd c0cd 8b3d 935a ef3d
00000210: c169 eb3c bdf9 acbd c04d cd3d d089 193c
00000220: 6cc3 ffbc 476e afbd d65b e4ba b1cc 88bd
00000230: aec8 16bb a1df 443d d650 c1bc 8d5d dd3d
00000240: b0d0 10be 6a24 4f3d a7e0 df3c d499 43bc
00000250: ce89 47bd 6010 e03d 93b4 b33c 8468 abbd
00000260: 97e0 b13d 0ebf 7ebc a50d a7bc 9b6b 7f3d
00000270: 23d4 d33d 4a84 b0bb 14ac f33c 57bd 4d3d
00000280: f4c2 25bd 7526 fbbd efbd 803d 928e fcbc
00000290: 6545 dd3d fa80 7ebc 6520 f63c fb6a d3bd
000002a0: ae27 14bd 6d8d cabd eb77 01bd a239 bbbc
000002b0: 6bfc 3b3d 9a60 abbb 8db2 91bd fe22 a4bd
000002c0: bd50 56bc 16ad c63d 24dc 0b3d 02dd 09bc
000002d0: 1f6e a53d d0df 24bd 4b10 96bc 6aed a0bd
000002e0: 52d6 c5bc 3054 5c3b a86a 13be a60d a83b
000002f0: d8d9 a5bd 109a c13d c889 0f3d 8ec5 fbbd
00000300: c4a4 53bd 6345 e0bc f5d2 113e 8b15 29bd
00000310: a0b1 c03c 84b6 9ebc 133e d33d 5215 e8bd
00000320: 6a51 8abd b9be 423d 4836 143c b714 0b3c
00000330: 97bc 45bd e2e5 513e d7c9 64bc 97e6 193e
00000340: 8781 303c a8cd c7bd 6e06 653c 8b5a 163b
00000350: 89f7 ec3d b224 4d3d 545e 98bd 996f babd
00000360: 936d fd3c b5b2 aa3d 701f 4c3d b6b4 debd
00000370: 56bb 50bd 3f2c d53d f920 0fbe a76e d3bd
00000380: 389e 9bbd 2cff 063d 2eb8 6a3d 796b f6bd
00000390: d4bd 083d fd61 37bd d20c 373d 49a9 a5bc
000003a0: d151 07be 8981 173d 9276 7dbd 3e7c 993d
000003b0: f428 e8bd aa66 45ba 3c79 09be fb71 f1bc
000003c0: 627f 71bc 7894 913d e4c2 ee3d 9a8c 2abd
000003d0: cd13 f8bc 50cc 633d 7f00 dbbc a1e6 083e
000003e0: 9827 6fbc 5d3c 99bd 9acf 643d 273e c73b
000003f0: 3faa 63bd e332 443d cf77 a43d 44ff b9bd
0.026523378 0.07944101 0.031911377 0.08771571 -0.109498896 -0.048607584 0.04496342 0.0017555817
0.08500418 0.10552093 -0.09054849 0.0038851355 -0.08835936 0.020295663 0.13163666 -0.041120432
-0.039099813 -0.025623273 -0.04666529 -0.09656217 0.006282704 -0.011747267 -0.015642464 -0.086543165
-0.08279042 -0.06343219 0.04201557 0.094028264 -0.112556234 -0.08021514 -0.1074803 0.08570343
-0.045547977 0.02918223 -0.019244187 0.0499662 -0.12112034 -0.024941454 -0.08793391 -0.11469778
-0.048378598 -0.10274296 -0.02085725 -0.1007455 0.062731564 -0.007665271 0.04025201 0.054046717
0.01149242 0.027932806 -0.02276325 0.0807422 0.074846946 0.0025915494 -0.08049234 0.0833352
-0.06739325 0.080474295 0.08606654 0.03874088 -0.0062356377 -0.05133249 -0.11014071 -0.04090835
0.10768767 -0.0677495 0.08649595 0.111061275 0.07026035 -0.005546487 0.06379942 0.0945324
0.03706834 0.10691087 -0.102571934 0.041126337 -0.043710824 -0.07649751 -0.047053237 -0.037065793
-0.030182729 -0.02125887 -0.109892905 0.1338068 0.07186213 -0.046366446 -0.038068656 -0.01116386
0.10321266 0.0583755 0.068155706 0.0069716703 0.103130035 -0.07342541 -0.040603522 0.015870009
-0.040348344 0.06840647 -0.054784767 0.095108904 -0.0014240461 0.1146283 0.0060598566 -0.093161814
-0.097672045 -0.093028255 -0.11509572 -0.052195 0.016958427 -0.00989082 -0.09604483 -0.0064540165
0.021828718 0.12335559 0.102163784 -0.009322885 0.08604042 -0.021287391 -0.031929288 -0.033448488
0.010906376 0.026494656 0.0630373 0.02807365 -0.13276796 -0.08067869 -0.016256217 0.012788668
0.073348045 -0.041600555 0.06826353 0.116871975 0.02873695 -0.08446071 0.10024595 0.009371236
-0.031221114 -0.085659556 -0.0017422389 -0.06679667 -0.0023007798 0.04806483 -0.023598116 0.10808859
-0.14142108 0.050571837 0.027328802 -0.011938531 -0.048715405 0.10940623 0.02193669 -0.08369544
0.08685415 -0.015548481 -0.020392248 0.06235848 0.10343196 -0.005386864 0.02974514 0.050229397
-0.040469125 -0.122631945 0.06286227 -0.030829702 0.108042516 -0.01553368 0.030044744 -0.10323139
-0.036170654 -0.09890256 -0.031608503 -0.02285463 0.04589502 -0.0052300217 -0.07114134 -0.08014487
-0.013080773 0.09700982 0.03414549 -0.008414509 0.080776446 -0.040252507 -0.018318316 -0.07857783
-0.024150047 0.0033619516 -0.14396155 0.00512858 -0.08098191 0.09453213 0.035043508 -0.1229354
-0.051670805 -0.027376836 0.1424063 -0.04128031 0.023522198 -0.01937414 0.10314574 -0.113321915
-0.0675381 0.04754517 0.009046145 0.0084888255 -0.048275556 0.2049785 -0.013964138 0.1502937
0.010773069 -0.09756023 0.013978584 0.0022942151 0.11570651 0.050083824 -0.07439867 -0.09103317
0.030936038 0.08334867 0.04983467 -0.108743116 -0.050959907 0.1040883 -0.13977422 -0.1032384
-0.07598537 0.032958195 0.057304554 -0.120322175 0.03338416 -0.044771183 0.04468996 -0.020222323
-0.13214804 0.03698877 -0.061880656 0.074944004 -0.11335936 -0.0007530252 -0.13425153 -0.029473295
-0.014739843 0.07108396 0.11658266 -0.041637994 -0.03028288 0.05561477 -0.026733635 0.13369228
-0.014596842 -0.074822165 0.055862047 0.006080407 -0.05558228 0.04790009 0.08030664 -0.09081891

rnn_layer.bias_ih_l0 f4 [64]
00000000: 9ccd 9bbd 0c05 b5bd ea7f 89bd 87dd afba
00000010: b1ec 2c3d 0aed ca3c 67f0 f9bc 65fa 6b3d
00000020: cba2 0cbb 5c06 0b3d 62c1 d43c df96 91bd
00000030: 8552 c4bd e9ad 433d cbb6 79bd 65ff 62bd
00000040: f9c6 993c b49e 3abd cf43 a33c 6ca7 913c
00000050: 5ba3 a2bd eafc aabd 84c4 c9bd b51d 9b3d
00000060: 1be9 a43d fb36 3e3d c60f bcbd 2c67 9b3d
00000070: 738a dfbc e25c 95bd 71b5 90bc 6262 9ebd
00000080: 748f c8bd bdd4 a7bc 5acb 853d 652c b63d
00000090: 7c95 883d 69b8 2e3d 5d52 4a3d 21d4 31bd
000000a0: 0788 80bd 4b2a 3abd 4f35 a03d bb80 dc3b
000000b0: af24 ca3d d11e 94bd fd14 b6bd 2bdc 6abd
000000c0: a87b 9a3a 2e09 1dbd fcb9 743d 9ac0 ae3c
000000d0: 15a0 8e3d e76b 8b3c d550 87bd 9e87 8fbd
000000e0: fc6e 4e3d fb17 9cbd 4ce1 ec3d 620b 66bd
000000f0: ec67 6cbc 4285 a8bd 70b4 bebd ef2b 943c
-0.07607576 -0.08838853 -0.06713851 -0.0013417461 0.042217914 0.024771232 -0.03051014 0.05761184
-0.0021459337 0.03394161 0.025971118 -0.071088545 -0.09586052 0.047773276 -0.06096534 -0.055419344
0.018771635 -0.045561507 0.019929795 0.017780028 -0.07941314 -0.08349021 -0.098519355 0.075740255
0.08052274 0.046439152 -0.09182696 0.07588038 -0.027287697 -0.072931066 -0.017664643 -0.07733609
-0.097929865 -0.020487184 0.06532927 0.08895186 0.06669137 0.042656336 0.049394954 -0.043415193
-0.06275945 -0.04545049 0.07822668 0.006729213 0.09870278 -0.0723244 -0.08890722 -0.057338875
0.001178612 -0.038338833 0.05974768 0.021332074 0.06964127 0.017019225 -0.06607214 -0.07008289
0.05039881 -0.076217614 0.115664095 -0.0561632 -0.014429074 -0.08228542 -0.093117595 0.018087355

rnn_layer.bias_hh_l0 f4 [64]
00000000: 40d6 073e 4c95 773d e20a 123d df23 1cbc
00000010: f581 193d 718f e1bc 867e a0bd d0ac a93c
00000020: 4b93 4fbc d3ff ac3c 0c63 0ebd 6524 a83d
00000030: 0d6f 8c3d 93a9 85bc 2c79 a83d c3e9 373b
00000040: 1831 64bd 01a0 9c3d 1f38 863d 303a b4bd
00000050: 6565 ec3d 6424 b03d 82ef af3d 01e0 10bc
00000060: 6ff9 90bd 17a2 3b3d 7379 c93c 98c7 d8bd
00000070: aba4 60bc f4a2 b9bd 0019 4d3d 3ef5 84bd
00000080: 9a48 b13d 3686 68bd a666 ef3b 5f9c 04bc
00000090: 96fa 8e3d d9b9 b1bd fe0a 02bd 5307 8dbd
000000a0: 9bb8 9abd 6c7c 633d d8b7 3cbd 4e00 05bd
000000b0: 81d4 18bc 494b c33c a8c6 0d3e 91ee 6a3d
000000c0: 001b bbbd 9d70 13bd 5117 963d 2d68 a13d
000000d0: 8b77 cabd 253f 68bd b309 14bd c774 1dbc
000000e0: ebfa c5bc 0d64 843d e012 9cbd 86fb 223c
000000f0: 7dbf cd3d 56b7 d83d 00cf dbbd 9434 1fbd
0.13265324 0.060445115 0.03565491 -0.009530037 0.037477452 -0.027534219 -0.078366324 0.020712286
-0.012669395 0.02111808 -0.034762427 0.08210067 0.06857119 -0.01631621 0.08226237 0.0028062917
-0.055710882 0.07647706 0.06553673 -0.08800161 0.11542777 0.08600691 0.08590604 -0.008842469
-0.07078826 0.045808878 0.024594044 -0.105849445 -0.013711135 -0.09064284 0.05007267 -0.06492089
0.08656426 -0.05676862 0.007305938 -0.008093922 0.06981389 -0.08678026 -0.031748764 -0.068861626
-0.07554742 0.05553858 -0.046073765 -0.032470994 -0.009328009 0.02383961 0.13845313 0.05735642
-0.09136009 -0.03599607 0.07328666 0.07881198 -0.09886082 -0.056700844 -0.036142062 -0.009610361
-0.024167499 0.06464396 -0.076207876 0.009947663 0.10046289 0.105818436 -0.107328415 -0.0388685

fc.weight f4 [3, 64]
00000000: 6d13 3a3c 5a8b 22bd 6dfb 40bd 276d 603c
00000010: db73 86bd 7e9c 263d 5374 a0bd 5a97 39bc
00000020: adf2 70bd e6a0 81bd 743c 173d 9ad1 50bd
00000030: b3cb 423d 6b32 ecbc 34ef c33b 7640 b6bd
00000040: 769d 24bd f22b b83d c6fb 063d 9620 28bc
00000050: fd6c 3bbd 3538 7bbb b103 73bd fdf1 a13d
00000060: 8af1 27bd 57df 0a3d 5f18 a3bd 9db1 b33b
00000070: eefc e03c 1b31 4e3d 7c3b dc3c 6e22 2fbd
00000080: c98a f33d ba7d 453d 658a 88bd c496 703d
00000090: 683e c83c 2634 213d b88b 203d e8fc 3f3d
000000a0: 5ea5 f03c 37e1 e2bc 3ee9 983d 0ada d6bb
000000b0: 7208 a6bc dfef d1bb 980c 433b d367 24bb
000000c0: 6256 093d e171 5a3d 5c76 a1bc 52a0 fbbc
000000d0: 8623 1a3c f016 82bb f3d7 9e3d 9dee 4d3d
000000e0: e072 503b f634 a0bc bd6e 043d 0de2 3fbd
000000f0: 181a bb3d 1fe2 09bd ceeb 85bd 5285 b139
00000100: 8b20 85bb 91e0 06bd 0fe8 32bd 99db a03c
00000110: 7535 7cbd 1653 323d 6827 93bd c160 013d
00000120: 1dbe 8ebd 551f 93bd 53dc 35bd dcfa a6bd
00000130: fdea 513d 9b3c d2bc 30b8 15bc ec27 aebd
00000140: 93de 063c 4544 8c3b b679 b03c ddef eabb
00000150: 9bff 1ebd 1c77 c13b 66e1 3abd 3746 263b
00000160: 2c05 2ebd 8198 693d f0c7 e2bc 5114 863c
00000170: b738 efbc d812 bc3d 3e11 9a3c 2204 ddbc
00000180: d30e f63d 59fb 363d d26f 8fbd 13ea 863d
00000190: 1965 90bd 3ca8 2c3c daa8 7f3d 2079 493d
000001a0: 742b 893c 0610 46bd f4c6 5a3d 2f4e b1bc
000001b0: 9ad1 3fbd 6e15 0f3a 5b93 75bc 11a9 6cbc
000001c0: bcd6 8f3d a2e5 d53c db1b 80bd d4ed 913c
000001d0: 9c97 1c3b 5fa8 01bc 614e 803d 9ca1 2c3d
000001e0: 5571 67bc ce18 c1bc a050 f63c 9471 8bbd
000001f0: bcce c73d aacd 03bd 6fa6 543d 3c2c 1dbc
00000200: 9ed8 ddbb 9cd6 23bd c887 4ebd f434 3d3c
00000210: ff47 7fbd 1ac8 ee3c 104e 8abd c6fd a3bb
00000220: e51e 8dbd a8ec a3bd cff5 2bbd 05f3 733d
00000230: 36eb 463d 851a e9bc f0db 183c a54d b6bd
00000240: 266f 4cbd 8cc9 a33d 7b8a c13c c993 a939
00000250: d851 57bd d5f3 b0bb cf95 65bd 3a50 56bd
00000260: db16 37bd fc3f d83c 4de2 92ba 0ad1 043d
00000270: 1224 7a3d ad6b 883d 612a bc3c bf48 26bd
00000280: 167c f33d f9f4 823d c679 94bd b597 833d
00000290: 1d59 9ebd f4a2 3a3d 1dc8 873d 2fba 483d
000002a0: 8d83 193d e348 02bd 04a8 9e3d 67ff b1bc
000002b0: 04ac 5cbc 64bc 323c dd9e 58bc e65e 1d3d
000002c0: a9f9 72bd 9104 0e3d 43b1 f1bc 8c14 21bc
000002d0: ac80 8f3c 1ddc e63a b5fe 9d3d 574f 4e3d
000002e0: be9e 203d a149 e5bb 1178 103d bd42 3fbd
000002f0: e8ff cb3d 1528 adbb f838 963d 69f1 dcb7
0.0113571705 -0.039683677 -0.04711478 0.013697899 -0.065650664 0.040676586 -0.07834687 -0.011327589
-0.058825184 -0.06329517 0.036922887 -0.05098114 0.047557544 -0.028832635 0.005979443 -0.08899014
-0.04018923 0.08992757 0.032954954 -0.010261675 -0.045758236 -0.0038333063 -0.059329692 0.07907484
-0.041001834 0.0339044 -0.07963633 0.0054838196 0.027464356 0.0503398 0.026883833 -0.042757444
0.118917055 0.048215605 -0.06667022 0.05873753 0.02444382 0.039356373 0.039195746 0.04687205
0.029375728 -0.027695281 0.074663624 -0.006556754 -0.020267699 -0.0064067687 0.0029762145 -0.0025086298
0.033529647 0.05333126 -0.019709758 -0.030716095 0.0094078835 -0.0039700195 0.07756033 0.050276387
0.0031806752 -0.019556504 0.03233217 -0.04684644 0.09135836 -0.03366291 -0.06539117 0.00033859402
-0.0040627173 -0.032929007 -0.04367834 0.019635962 -0.061574418 0.04353627 -0.071852505 0.031586412
-0.06969855 -0.071837105 -0.04439957 -0.081533164 0.051249493 -0.025663665 -0.009138152 -0.08503708
0.008231777 0.0042805993 0.021542411 -0.007169707 -0.038817983 0.0059040915 -0.045625113 0.002537144
-0.0424854 0.057030205 -0.027683228 0.01636711 -0.029201848 0.09183282 0.01880705 -0.02697951
0.12014546 0.044673298 -0.0700375 0.06587615 -0.07050533 0.010538157 0.06241689 0.04918778
0.016744353 -0.048355125 0.053412393 -0.021643726 -0.04683075 0.00054582104 -0.014988746 -0.014444605
0.07023379 0.026110474 -0.06255313 0.0178136 0.0023894077 -0.007913678 0.062649496 0.04214631
-0.014126142 -0.023571398 0.030067742 -0.06808773 0.09756228 -0.03217856 0.051916536 -0.009593066
-0.0067702075 -0.03999959 -0.05042246 0.01154827 -0.06232452 0.02914815 -0.067531705 -0.0050046174
-0.06890658 -0.08004123 -0.04198247 0.059557933 0.04856416 -0.028455028 0.009329781 -0.08901528
-0.049910687 0.079974264 0.023625603 0.000323443 -0.052568287 -0.005400161 -0.05605107 -0.052322604
-0.04469953 0.026397698 -0.0011206359 0.032425918 0.061069556 0.066611625 0.022969427 -0.04059672
0.11888902 0.06394381 -0.07249789 0.0642542 -0.07731841 0.04556556 0.066299655 0.049005684
0.037478972 -0.03180779 0.0774689 -0.02172823 -0.013468746 0.010909174 -0.01322147 0.03842058
-0.059320126 0.034672324 -0.02950347 -0.009831559 0.01751741 0.0017613206 0.07714597 0.050368633
0.03921389 -0.0069973026 0.035270754 -0.046694506 0.099609196 -0.005284319 0.07335085 -2.6338459e-05

fc.bias f4 [3]
00000000: 93e3 02bd 6b69 373d b9f2 8e3c
-0.031955313 0.04477827 0.017449724
