trainedModels/1619627417/rnn.pt (torch, 22538 bytes, 6 tensors)

rnn_layer.weight_ih_l0 f4 [64, 12]
00000000: 5219 123d 1dee 91bd cbea e4bd 1003 87bd
00000010: b606 50bd c199 b7bd 31c5 a73d 757d f73c
00000020: 9349 823d fe03 10bd e06d 64bd 77e0 c13d
00000030: 5e0e 523d e9fe fabd bb4c dc3d 58af e4bd
00000040: 7979 ed3d 9578 fd3d bc65 5f3d 187c b8bc
00000050: 8d14 2e3d 5cbe b53d 8ff3 bcbd 9ec8 d8bb
00000060: c7db 003d f97d 6ebd 4b43 97bd 7f14 9ebc
00000070: 08fa ec3c 79dc 833d 35c9 b53d 80a3 19be
00000080: 747e 5b3d 9de5 973b 8744 f5bc 98b3 723d
00000090: ffa3 533d a196 eabd c6d3 943c 41be fcbb
000000a0: 1af7 81bd c414 e4bc a801 783d b4cb f9bb
000000b0: 5bba b9bd 568f ec3b 270e b33d 91c6 41bd
000000c0: 566b cf3d 8ebe 823d f7a0 9ebc 38fc 90bd
000000d0: 07d4 8abd d8a6 2b3a 3e14 723d a79d 283e
000000e0: 200a 043d a109 ddbc 1bad 90bd 3208 e4bd
000000f0: 0f33 823c d75f f23c 2a11 2cbc 8ee0 2c3d
00000100: 3881 85bb 70c8 a2bd 6759 9abc dfa4 1cbd
00000110: 7f6d f6bd 6fe3 bf3d 9efb b7bd e913 833b
00000120: 898d 9cbd f5fa 323d 4602 b33d 1d16 88bd
00000130: 97a2 cfbd b1ec 44bc 16eb 853d a922 43bd
00000140: 5677 f6bd ce1e d23b 6dfc e53d 7f10 923d
00000150: 476c 46bd afbf 953d 5a26 753d 0af7 f23d
00000160: ad74 f63d 21a9 5a3d c748 a7bd f997 ed3d
00000170: baea bebd 5c14 f33d 5974 b0bd a2fc 1cbc
00000180: 31b1 b93d 3913 89bd ddd1 d63c 244a 02be
00000190: 1c2e d3bd 35b1 173d 5ce7 b03d 603e 30be
000001a0: a409 ff3c e525 313c fe12 6bbd b550 00be
000001b0: 2cc6 cfbd e50d fdbc b67b 833b 5435 9fbd
000001c0: c4c9 aabd 10db 903d 21e2 12bd da15 5e3d
000001d0: 2e41 b63c 428d 1cbd 6c49 1abd 1cb0 b13d
000001e0: 4b41 df3d 9af1 a3bd 2a48 973d 524c 5f3d
000001f0: ca7c 5f3c 2b83 5cbd bf7d e1bd 21e6 8d3d
00000200: 255b 05bd 36ec 613d b4e3 4ebd ebfa 74bc
00000210: 2476 61bd 9183 dcbd 2001 8dbc 00d0 b7bd
00000220: 8951 d4bd 27a7 afbd 6af6 103d d4f5 04be
00000230: 66ca ef3d 5c27 85bd b184 a23d 91c8 c1bd
00000240: 22a0 233d 9cff f43b 216c cebc 804b 573c
00000250: 93bc 04bd afbd 8bbd 7b4b 98bc 9d68 26be
00000260: 1666 773c 3562 8dbd c4a1 adbc 46e1 0bbd
00000270: a61d ecbd aa92 50bc 57bc 443d bcea 9d3d
00000280: 794c febd 1558 423d b34b 87bc de2c aebd
00000290: da55 b93d 86d7 5abd c9d3 673d 56f0 ff3d
000002a0: 9e80 e03d 570e f5bd 71b7 c2bd 5d5c c5bd
000002b0: 4190 ac3c ea9a e6bd a93f d23d d4df 233e
000002c0: 32a8 64bc 9961 05bd 08c0 fa3d b4cf a13d
000002d0: 8f7c 533d 0493 bd3d 0adc 10bd 4b90 873c
000002e0: 58a6 953d 87d0 f0bd 39dd d8bd 9ab0 c23d
000002f0: b528 22bd cf67 b0bd bd57 343d 34d2 533d
00000300: 3d8b a83c a7ea 403d 9751 0f3d 76d1 03bd
00000310: 1e90 12bd 67ba 2a3c 9ebe a03c f4c7 12bc
00000320: 20c6 003d f94b 8d3d 699a da3d bfeb 8bbc
00000330: 59ce c83b 5c7d c5bc 64ca 7ebd 20e4 473d
00000340: 34c2 b73d 7081 a33d 3dad d7bc c26e 083c
00000350: cac6 46bd 3256 f0bc d7d2 28bd 3393 903c
00000360: e9ba d3bc 14c3 dabc f6cd aebc 3ef3 b53d
00000370: 7562 bf3d bd59 babc 361c cd3d 1bc0 833d
00000380: ab0b 0b3d c466 aabd 8315 d13d 1463 b83d
00000390: 870f 18bd 1e6b 12bd 08f4 c03d 2a19 44bd
000003a0: ee6a c6bc e4b6 9fbd 7652 d9bd b2ad 28bd
000003b0: 1f90 d1bb 56ca 7a3d 62a0 ab3c 085c d93c
000003c0: 5a56 04be b762 7a3d 35ee 82bd f8f3 00bc
000003d0: e7bc e4bd 5024 4d3d ef3d a83d 330e d2bd
000003e0: 3069 003d aa96 973d 51c5 afbb 2756 2dbc
000003f0: 2184 db3d 4f2e e53d 4e81 c7bd b9b3 5abc
0.03566868 -0.07125495 -0.11177596 -0.06592381 -0.05078765 -0.08964873 0.08191908 0.03021119
0.063616894 -0.035160057 -0.055768847 0.094666414 0.051283233 -0.122556515 0.10756823 -0.11166257
0.11595435 0.12376515 0.05454038 -0.02252011 0.042500068 0.08874199 -0.092261426 -0.0066157123
0.031459596 -0.058225606 -0.07385882 -0.019296883 0.028927818 0.06438536 0.08876268 -0.15003777
0.053587392 0.0046355263 -0.029939903 0.059253305 0.05167007 -0.114545114 0.018167388 -0.0077131097
-0.06345959 -0.027841933 0.060548455 -0.0076231603 -0.090687476 0.0072192354 0.08742934 -0.04730851
0.101278946 0.06384002 -0.019363863 -0.07079357 -0.06778722 0.0006547994 0.059101336 0.1646639
0.03223622 -0.02698213 -0.07064267 -0.11134376 0.015893487 0.029586716 -0.010502139 0.04220634
-0.004074242 -0.07948387 -0.018841458 -0.03824317 -0.120326035 0.093695514 -0.08983539 0.004000176
-0.07644183 0.043696363 0.08740668 -0.06644843 -0.101384334 -0.012019322 0.0653898 -0.047640476
-0.1203448 0.0064123636 0.11229787 0.07132053 -0.048443105 0.07311951 0.059851028 0.11863525
0.12033973 0.05338395 -0.08168178 0.11601252 -0.09322114 0.118691176 -0.086159416 -0.009581717
0.09067 -0.066931196 0.026223117 -0.12723595 -0.10311529 0.037034232 0.08637878 -0.17211294
0.031132527 0.010812257 -0.05739116 -0.12530787 -0.1014522 -0.030890414 0.00401255 -0.077738434
-0.08339265 0.07073033 -0.035860185 0.054220058 0.022247877 -0.03822065 -0.037667677 0.08676168
0.109011255 -0.08005066 0.07386811 0.054516144 0.013640592 -0.05383603 -0.11010312 0.06928659
-0.032557625 0.05515691 -0.050510123 -0.014952402 -0.05504431 -0.10767282 -0.01721245 -0.0897522
-0.10367114 -0.08576804 0.03539125 -0.12984401 0.11708526 -0.06501648 0.07935465 -0.09462083
0.039947636 0.00747676 -0.025198044 0.013140559 -0.0324064 -0.06823289 -0.01859068 -0.16250844
0.015100023 -0.06903497 -0.0211953 -0.034150384 -0.115290925 -0.01273028 0.048031177 0.07710788
-0.1241693 0.047447283 -0.016515588 -0.085046515 0.09049578 -0.053428195 0.05659846 0.12497012
0.10962032 -0.11965626 -0.09507645 -0.096367575 0.02106488 -0.11260016 0.102660485 0.16003352
-0.0139561165 -0.03256378 0.12243658 0.07900944 0.05163246 0.09256557 -0.035366096 0.016548296
0.07307118 -0.117585234 -0.1058907 0.0950634 -0.039589603 -0.0861355 0.044028986 0.051714137
0.020574206 0.047098782 0.03498992 -0.03218218 -0.035781972 0.010420418 0.019622143 -0.008958805
0.031438947 0.06899256 0.10673983 -0.017080186 0.006128114 -0.024107628 -0.062204733 0.04880154
0.08972588 0.079836726 -0.026327724 0.008327188 -0.048529424 -0.029337976 -0.041216698 0.017648315
-0.025845962 -0.026704349 -0.021338444 0.088842854 0.09344951 -0.022747869 0.100151464 0.064331256
0.033946674 -0.08320382 0.10209181 0.09003273 -0.037124183 -0.035746686 0.09421545 -0.04787556
-0.02422091 -0.077985555 -0.10611431 -0.041181274 -0.0063953544 0.06122812 0.0209505 0.026533142
-0.12923566 0.061129298 -0.06393091 -0.007870667 -0.11168843 0.05008346 0.08214938 -0.102566145
0.031350315 0.07401784 -0.005364098 -0.010579622 0.10718561 0.11190473 -0.0974146 -0.013348513

rnn_layer.weight_hh_l0 f4 [64, 64]
00000000: 4a5a e0bd 8b25 b03d 8639 b4bd 6126 df3d
00000010: ec6f cf3d d2f6 d3bd 8884 29bd f475 a9bc
00000020: 2af8 79bd 34d1 30bd 5a03 d1bd dbc5 d33d
00000030: a5ba 4fbd ec46 923d 1078 8c3d a93a 4ebd
00000040: 2c5f fe3d 9ad2 82bc f39c d0bd 6e13 b8bd
00000050: 9e14 e4bd c037 bebd d0b9 6fbd 7494 bfbc
00000060: 6a1c 9fbd 4ff4 433c 985d 213d efad 3abd
00000070: 6a96 dbbd 144c a73d 0b6c aa39 0b2e 8fbc
00000080: 98a9 1e3d 2bda 133d 1350 c83d 5aea aa3d
00000090: 8ca6 41bd f0de 49bc bc40 c9bd 19f6 c0bd
000000a0: ac33 2f3b b61c 9e3d 6da0 75bc 7667 773d
000000b0: 4942 aabc 264c 57bd 0e75 a83c 5b24 5fbd
000000c0: dadf 95bc 6903 0f3d c40d 4bbd b948 b7bd
000000d0: 1fbf 8abd 8d0e d3bd 0dae c03d 7e6e 1b3c
000000e0: 902b efbd febd fabd a67d 8dbb 6d4b 553c
000000f0: 0bd5 edbd 403a c33d a055 5f3b b71f 42bd
00000100: 5836 58bd 054b 5dbd d87e 97bc d6e3 033c
00000110: 523a b2bd ace5 efbd 34d8 c5bd 52ca 83bb
00000120: 5abf 56bb b433 ac3d 4a5e 063e 5e51 a2bd
00000130: 77d3 67bd 1e4a eabd 85f0 373d 07af b3bd
00000140: ac04 613d bbb8 9dbc 89c1 c5bd 4df4 f2bd
00000150: 39bf a73d eddf c53c 190c bbbd 855d f23c
00000160: 14af 383d f93e f93d 70f6 a03d 1762 2dbb
00000170: 98f7 99bd c48c 9a3d 2f6b bf3b 8ac5 82bd
00000180: a950 a23d a652 e43d a33a c23d 663f 8abd
00000190: 4dc2 dd3d 306d 2c3d 9832 a4bd 7349 1c3c
000001a0: 0d87 713d 4c7d c43c f383 ddbd 73b3 e03d
000001b0: f5ca c2bd 6dfd 443d 46d8 86bd fc58 b13d
000001c0: afaf eebd 2a38 8a3c 3f9f 3a3d be9b 8a3d
000001d0: a649 c93d d0a9 95bc e36f c63c 8dc4 87bb
000001e0: fa88 edbd 9742 c23d cba9 09bd bf64 62bb
000001f0: f45b fabd 65dd 02be e439 e63d 3416 93bd
00000200: 210f febc d62b d7bd 8655 e2bd 62e9 883c
00000210: 321b d83d aac2 82bd 6b6a 2d3c de47 163d
00000220: f602 38bc d56f 003c 93de 383d b6e4 ec3d
00000230: a2fc 48bc e01f 8e3d faf8 9fbc 7af0 653c
00000240: 36b9 a0bd 6926 a23d e363 9e3d dca4 cebd
00000250: b5f4 433d 7bb0 333d d60f 1abd de83 c7bd
00000260: ebf5 a2bb ac95 9cbd e1d7 14bd 240b de3d
00000270: e87f 763d ead4 fbbc 7161 ecbd fe91 31bc
00000280: a7ff 40bd 9318 e6bc 0227 e83d db72 b2bd
00000290: 46e5 063d 624c c7b9 078d 2dbd f91a a1bc
000002a0: 8ea9 7dba d02d 04bd 7156 933d 9c98 bf3d
000002b0: bcc2 8abc 25b5 5b3d 1899 d2bd d95c 9c3d
000002c0: 0e1f 1c3d 5265 17bd 53fb 29bd 529f 0a3e
000002d0: 5eeb 983d d05f c9bd 50dc ca3d 10b7 a0bd
000002e0: a1d2 d2bd df15 ce3d 3172 9b3d b409 9d3c
000002f0: dd73 c53d b64d edbd b631 c9bd b42a a3bd
00000300: ecc5 5fbc 3a00 cebd 3d36 203d 73c0 a43d
00000310: 8e6c c63d 8cdc 283d 7d17 67bd 8409 e5bc
00000320: 2b80 b5bd 667b 93bd 481e e03c 0255 d7bc
00000330: dfc0 053d 7077 6cbd 7f4b 55bb d259 36bc
00000340: 32cd 223d 6e23 10bc 4c4c 9d3d b3a1 d7bd
00000350: db10 ac3d a48c 913c f69f bebc 46e6 2e3d
00000360: 7222 d0bd a8be 6b3d a4b4 eebb 9e6f afbd
00000370: 5d3d e5bd dcbc f2bd 1268 9abc a935 893d
00000380: 0e30 d3bd a783 983c adc9 3dbd 7d0f b83d
00000390: 828f 8d3d 21be b7bd a8cf 613d 76c6 8f3d
000003a0: eb7d 103d 130e b4bd af26 253c ee39 ad3d
000003b0: feed 4b3d 0cd5 b5ba bf49 853d d96c 81bd
000003c0: 71e5 123d 3d9c d6bd cb81 56bd ca28 febd
000003d0: 55d6 e03d 9462 a43d 53e7 853d 2cf7 ce3d
000003e0: c9ad d23d 9481 c6bc 5b18 8f3d 56b6 a43d
000003f0: 7e4a fabd 442b dd3d 56dd 4f3d 94b2 d6bc
-0.10954721 0.08600911 -0.08800034 0.10895992 0.10128769 -0.103498116 -0.041386157 -0.020686127
-0.061027683 -0.04316826 -0.102057174 0.10340472 -0.050715107 0.071424335 0.068588376 -0.05034891
0.12420496 -0.015969563 -0.10186186 -0.08988081 -0.11136745 -0.09287977 -0.058526814 -0.023386218
-0.077690914 0.011960103 0.0393959 -0.045576032 -0.107220486 0.081688076 0.00032505425 -0.01747801
0.038735956 0.036096733 0.09780898 0.0834548 -0.047277972 -0.012321219 -0.098268 -0.094219394
0.002673368 0.0772032 -0.014991862 0.060401402 -0.02078356 -0.052562855 0.020563629 -0.05447803
-0.018295217 0.03491536 -0.049573675 -0.089494176 -0.06774735 -0.1030551 0.094081976 0.009486793
-0.11678231 -0.122432694 -0.004317957 0.013018471 -0.116129 0.09532595 0.0034078136 -0.047393527
-0.0527862 -0.054026622 -0.018493101 0.008049926 -0.0870253 -0.11713728 -0.09660378 -0.004021921
-0.0032767863 0.08408299 0.13121906 -0.07925676 -0.056598153 -0.11439918 0.04490711 -0.08773618
0.054936096 -0.019253125 -0.096560545 -0.11863003 0.0819077 0.024154628 -0.09133167 0.02958561
0.045088843 0.12170214 0.07859504 -0.0026456171 -0.07517928 0.0754638 0.0058416347 -0.06385334
0.07925541 0.111485764 0.0948384 -0.067503735 0.108280756 0.042096317 -0.080174625 0.009538996
0.058966685 0.023985527 -0.10816183 0.10971727 -0.09511367 0.04809325 -0.0658422 0.086595505
-0.11654603 0.016872484 0.045562025 0.06767987 0.098285004 -0.01826945 0.024223274 -0.0041433037
-0.11598392 0.09485357 -0.033609193 -0.0034544913 -0.1222457 -0.12779768 0.112415105 -0.07181969
-0.031013073 -0.10506408 -0.110514686 0.016712848 0.10552062 -0.063847855 0.010584454 0.03668963
-0.011231175 0.007839163 0.04513414 0.11567061 -0.012267264 0.069396734 -0.019527901 0.014034385
-0.07847826 0.079174824 0.07733896 -0.10090038 0.047840793 0.043869477 -0.03761276 -0.097419485
-0.0049731634 -0.07645735 -0.03633869 0.10841969 0.060180575 -0.030741174 -0.11542023 -0.01083803
-0.04711881 -0.02808789 0.11335565 -0.08713313 0.032933496 -0.00038013147 -0.042370822 -0.019666182
-0.00096764497 -0.032270253 0.07194222 0.0935528 -0.01693856 0.05363955 -0.102831066 0.07634897
0.038115554 -0.03696186 -0.041499447 0.13537338 0.07466768 -0.09832728 0.099053025 -0.078474164
-0.102940805 0.10062765 0.0759014 0.019169666 0.0964124 -0.11587088 -0.09823935 -0.07967129
-0.013658028 -0.10058637 0.039114226 0.08044519 0.09688674 0.041225955 -0.056418885 -0.027958639
-0.08862337 -0.07201271 0.02735819 -0.026285652 0.03265464 -0.057731092 -0.003254622 -0.011129813
0.03974647 -0.00879751 0.07680568 -0.105288886 0.084016524 0.017767258 -0.023269635 0.042700075
-0.1016282 0.05755487 -0.0072847176 -0.08566211 -0.11193345 -0.11852428 -0.018848453 0.06699688
-0.103119 0.018617464 -0.04633491 0.08987329 0.069121376 -0.08971811 0.055129677 0.07020275
0.035276335 -0.08791747 0.010080024 0.08458315 0.049787514 -0.0013872697 0.065082066 -0.06319589
0.035863344 -0.10479019 -0.052369874 -0.12410124 0.109783806 0.08026615 0.06538262 0.10105738
0.10287053 -0.02423171 0.06987067 0.0804259 -0.122212395 0.10799268 0.05074819 -0.0262082

rnn_layer.bias_ih_l0 f4 [64]
00000000: 9581 a7bc a8a1 b43c 76dd 55bd 8da9 5cbc
00000010: a881 893d d7a2 983d 332d 8a3c 0a62 6239
00000020: e074 703d 7107 d1bd 8554 903d 9ec9 96bd
00000030: ea57 c93d 03ff 57bd 71ce 0abb 0512 f4bd
00000040: 8528 bb3d 1d42 9bbc fff7 25bc 8f7a d1bd
00000050: d3ff a1bd 8489 afbc 8c0d 943d 8521 df3b
00000060: 142e fdbc 6c88 0f3d 69d0 043d 2616 cdbd
00000070: 512d 143d d7bd 7bbd 6aab f03d 67c2 15bd
00000080: 730e 23bd 5a2a 083b 3667 dbbd 1c00 24bc
00000090: c826 983d 5855 c0bd 8034 02be a311 20bd
000000a0: ea83 123d 1fd0 b8bd 761d cb3d 2225 bc3d
000000b0: e3e6 033e 2bec 09bc a99b 12bd 5b09 2d3d
000000c0: 272c 97bd 62ca 193d 23e8 9abd 50ce 46bd
000000d0: 0477 27bd 13d0 5e3c 6817 ddbd e1aa 9f3d
000000e0: ae6b 3f3d 1f42 fc3d a983 90bd 4103 9c3c
000000f0: 3214 0cbd 15af 36bd 53b5 7a3d f243 a63d
-0.020447532 0.02204974 -0.052213155 -0.013468158 0.06714183 0.07452934 0.016867256 0.00021589562
0.05870521 -0.102064975 0.07047371 -0.07362674 0.098312214 -0.052733433 -0.0021180178 -0.119174995
0.09138588 -0.018952424 -0.010129928 -0.10228454 -0.07910123 -0.021427877 0.07229146 0.0068094158
-0.03090576 0.03504221 0.032425318 -0.1001399 0.03617603 -0.061460342 0.11751445 -0.03656235
-0.0398087 0.0020777197 -0.10713045 -0.010009792 0.07429272 -0.09391278 -0.1271534 -0.03907932
0.035770334 -0.09024071 0.099177286 0.0918677 0.12881045 -0.008418123 -0.03579298 0.04224525
-0.07381468 0.037546523 -0.07563808 -0.0485366 -0.040884987 0.013599413 -0.1079548 0.077962644
0.04673355 0.12317299 -0.07056362 0.01904452 -0.034198947 -0.044600565 0.06120808 0.08118428

rnn_layer.bias_hh_l0 f4 [64]
00000000: dcfe 11bd b273 f1bd 85ad 983d 438e 873c
00000010: 888b a93c b165 3bbc acd4 92bb fc46 a4bd
00000020: 475a a6bd 781b 0a3d 9408 b2bc 22ec 8cbd
00000030: 7f7d 55bd 979c 813d 66e6 e8bd 7778 de3d
00000040: 976e fe3c ce8a 743d 9ce3 bebc a835 073d
00000050: cfe1 213d 3556 bd3d 0829 ca3c df4b 79bc
00000060: 32bb 0dbd 9044 303d a505 243c 5175 963d
00000070: 59c9 b83c 9c99 17bd b062 d1bd 4aaa b53d
00000080: c755 9bbd feba ddbd 2981 24bd 7d6c cdbd
00000090: e273 a6bd ee82 5a3d f2c1 75bd a627 773d
000000a0: a409 fbbb 670f e83c 28ca 863d 73af 283b
000000b0: 7a9f 94bd c529 92bd bdc4 febd 00c5 ee3d
000000c0: 67f7 f03a af44 a8bc 0563 d5b8 a027 50bd
000000d0: 82f0 ae3d d0b0 fbbd d0f0 cbbd 0581 883d
000000e0: 43b0 e83c e565 abbd 7055 dc3b bf1a 83bc
000000f0: d735 b6bd 46c4 0bbc 940d 2f3d 4c77 c3bd
-0.035643443 -0.11789645 0.07454971 0.016547328 0.020696416 -0.011437819 -0.004480919 -0.08021352
-0.08122688 0.033717602 -0.021732606 -0.06880976 -0.052121636 0.06328695 -0.1137207 0.108628206
0.031058593 0.059702687 -0.023301892 0.033010155 0.03952199 0.09244958 0.024677768 -0.015215843
-0.03460235 0.043034136 0.010011111 0.07346595 0.022556948 -0.037011728 -0.10223901 0.08870371
-0.0758472 -0.108266816 -0.04016224 -0.10030458 -0.08127572 0.05334752 -0.059999414 0.060340546
-0.0076610614 0.028327657 0.06581527 0.0025739342 -0.0725698 -0.07136873 -0.124398686 0.116586685
0.0018384279 -0.020540563 -0.00010175075 -0.05081904 0.08541967 -0.12289584 -0.09958041 0.066652335
0.02840436 -0.08369044 0.006724052 -0.016003964 -0.08896988 -0.008530682 0.04273756 -0.095442384

fc.weight f4 [3, 64]
00000000: 1ada 69bd 4f11 76bd e2cb bf3c 19af 513b
00000010: 52b5 f03a c7fa 40bc 3cd3 42bd ad0a 0e3d
00000020: f619 1a3d 753a ccbd fe2d c93d c90a a4bc
00000030: 74ad e6bd 0ad5 86bd e1eb d6bd b47d 963b
00000040: 56e7 94bd 68db 72bd 28ac 92bd 8e96 a33d
00000050: a891 b03d b342 ca3d 315b 7abc 60ea 88bd
00000060: 7f4d f73d 2d9a a1bd 6d54 4ebd f936 c4bd
00000070: 21d1 7ebd a6bc 9c3d c1f1 9b3d 46f6 90bd
00000080: 3489 02bd 7308 ca3d 544a 283d 442b 03bc
00000090: 4889 98bd beb6 af3d 8fca 8f3d b718 a6bd
000000a0: c885 943d 7443 813d aea5 dc3c 42e9 e4bc
000000b0: 696e 51bd 49d7 1f3d b08e 933d b7bd 66bc
000000c0: 3aba a23c a457 b03b 126d d23d f0b9 353d
000000d0: 0d14 2fbb a9a3 21bd 8bec 19bd 67ea 31bd
000000e0: d698 ae3c 44d8 a43d a9dc 843d 4f6d 40bd
000000f0: 5212 c5bc 7224 9a3d b4ad cfbc 75ae 82bd
00000100: 9b7e 543c aed6 5f3d 3c44 ccbc da0d 9cbd
00000110: 62f3 85bd 111b 98bd c14f 2f3d 0b70 2dbd
00000120: e16b a53d 7ef8 90bd 9505 00be 2a17 f23d
00000130: cf9d ecbd b9d3 18bd ee15 b0bd e328 b1bd
00000140: 8a4c 333d 2375 923d b712 96bd 5517 ddbd
00000150: 5115 b93d c09b fabd ed42 973d ecbf f8bd
00000160: ebe9 58bd 316d f7bd 0be4 bcbd f9c2 ff3d
00000170: 6433 8abd 2511 8f3c d6be 913d 4200 ad3d
00000180: 991a 93bd c9df 573d 5b58 b5bd aaf5 f83d
00000190: 059d e63c bcdc 983d fe49 453d db89 89bd
000001a0: 5f18 d0bd b146 e83d 71a1 703d 41c0 a7bd
000001b0: b8e8 cebd 387f 843d 4ee9 efbd 4d75 b0bd
000001c0: cd56 e23d b28e ce3b ae4e dfbc 317d c7bd
000001d0: 54e5 413d 5591 953d cfdb eabc 0006 bd3d
000001e0: cfd4 6a3d 2793 a3bd b5c8 43bb c6e3 edbd
000001f0: ac21 323d 2392 e4bd 116f 2abd 14fa ae3d
00000200: f063 273d ec66 86bc 8886 7cbd 9a3e 893d
00000210: dc7c d53d a613 bc3d 59f4 5a3b b727 b33d
00000220: a3af 78bd bd9c fd3c b549 033e a1bd ddbd
00000230: 3082 8cbd 900f 40bd d121 e33c b9f0 df3b
00000240: 4c18 893c d5e8 353c 71d0 4a3d 5101 a53d
00000250: 9c9b aebc 46c1 b53d c20d c2bd ea2f 98bd
00000260: e7ee a6bd 12af 77bd 2be5 5e3d 73bd a43d
00000270: 42ee 59bd 68f5 ca3c 1b81 8a3d 69b8 31bd
00000280: 6f8d 56bd e3ac 90bd 73fb 8d3c 92ca 67bb
00000290: 2a33 963d c7ac 3ebd 4b45 683c 2951 e4bd
000002a0: af01 b03c d0c0 a2bd 9f15 213d 6da6 d8bd
000002b0: bea3 243d 5c47 97bd dbc4 98bd 6a60 4fbc
000002c0: 1ee9 953c df9f 983d 1c52 c03d 4acc bd3d
000002d0: eda7 ee3d e769 a0bd a3f4 a63d c70c 493c
000002e0: 2987 153d 1812 013e 6a91 ad3d e376 be3d
000002f0: 8ea6 cc3d e827 843c 2cdc 0ebd de94 383d
-0.057092763 -0.0600751 0.023412649 0.0031995235 0.0018364585 -0.01177854 -0.04756473 0.03467815
0.037622415 -0.09972087 0.098232254 -0.020024674 -0.11263552 -0.06583603 -0.10494209 0.0045926217
-0.07270686 -0.059291273 -0.071617424 0.079877004 0.08621532 0.09876003 -0.015280531 -0.066853285
0.12075328 -0.07890735 -0.050373483 -0.09580798 -0.06221116 0.07653169 0.0761447 -0.07078223
-0.03186913 0.09864893 0.04108651 -0.008005921 -0.07448059 0.08579777 0.07021057 -0.08110183
0.07252079 0.06311694 0.026934471 -0.027943257 -0.051130686 0.03902367 0.0720495 -0.0140833175
0.01986419 0.0053815413 0.1027471 0.044366777 -0.0026714832 -0.03946272 -0.0375791 -0.043436434
0.021313112 0.08049062 0.064874 -0.046979245 -0.024056587 0.07526483 -0.025351383 -0.06380931
0.012969638 0.054648094 -0.02493488 -0.076198295 -0.06540562 -0.074270375 0.04280067 -0.04234318
0.08077217 -0.07078646 -0.1250213 0.118208244 -0.11553537 -0.03731129 -0.08597933 -0.08650377
0.043774165 0.07151248 -0.07327788 -0.10795466 0.09037269 -0.12236738 0.07385812 -0.12145981
-0.052957457 -0.120813735 -0.09223183 0.1248836 -0.06748083 0.01746423 0.07116477 0.08447315
-0.071828075 0.052703653 -0.08854743 0.12156232 0.028151045 0.07463977 0.048166268 -0.06715747
-0.101608984 0.11341608 0.058747713 -0.081909664 -0.10102981 0.064695776 -0.11714421 -0.08616123
0.11051712 0.0063036317 -0.027259197 -0.09740675 0.047337845 0.073031105 -0.028669266 0.0922966
0.057331856 -0.079870515 -0.002987427 -0.1161571 0.043489143 -0.11160686 -0.041609827 0.08543792
0.040866792 -0.016406499 -0.061651736 0.067013934 0.10424206 0.09183435 0.0033409803 0.087478094
-0.060714375 0.030958528 0.12821086 -0.108271845 -0.06860769 -0.04688984 0.027726086 0.0068341163
0.016735218 0.011102875 0.04951519 0.08056892 -0.021314435 0.088747546 -0.0947528 -0.07431014
-0.08151036 -0.060469694 0.05441777 0.08043947 -0.053205736 0.024775222 0.06762906 -0.043388758
-0.052380975 -0.070642255 0.017331814 -0.0035368544 0.073339775 -0.046551492 0.014176677 -0.111482926
0.021485178 -0.07946932 0.03932726 -0.10578618 0.04019522 -0.073866576 -0.07459422 -0.012657264
0.018299635 0.07452368 0.09390661 0.09267481 0.11653123 -0.07832699 0.081521295 0.012271113
0.036505852 0.12604558 0.08475001 0.093000196 0.09992705 0.01613231 -0.03487794 0.045063846

fc.bias f4 [3]
00000000: 6d06 f73c bcbd fc3c 062b b3bd
0.030154431 0.030852191 -0.087484404
