trainedModels/1620283680/rnn.pt (torch, 22538 bytes, 6 tensors)

rnn_layer.weight_ih_l0 f4 [64, 12]
-0.09641172 -0.05895894 0.058064334 -0.09525074 -0.10457468 0.055686045 -0.06781365 -0.028752789
0.05124182 -0.030304354 0.0059863925 -0.10032223 0.039921895 -0.0048609474 0.0683165 0.12362205
-0.101639986 0.10842263 0.118354455 -0.07865599 -0.11848027 -0.022543943 0.09440379 -0.01536483
0.032632396 0.10503331 0.046440866 -0.11363282 0.054229006 -0.016370034 0.10702455 0.088744834
0.019538635 -0.121614434 -0.039253816 -0.02871508 0.06560682 0.00089660793 0.055508066 0.033143204
-0.087194294 0.036142465 0.119675905 0.05337186 0.01438714 -0.06895829 -0.0423079 0.12088535
0.026097596 0.063324794 -0.11427662 -0.08910878 0.012550265 -0.059719052 -0.07599191 -0.11458804
-0.10331042 0.05286971 -0.09387408 0.036015455 -0.099919796 0.016125998 -0.051022585 -0.09601883
0.030249044 0.109450124 0.04632178 -0.12040454 0.07412241 0.04666775 0.020809636 -0.108627446
0.05889885 0.12323753 -0.012754117 -0.0019662618 -0.0066117197 0.06808639 -0.020729542 0.090963945
-0.101475544 0.07574714 0.058183625 -0.008703927 -0.02789633 -0.04994955 -0.035040013 -0.0857579
0.04940398 0.06994031 -0.11913201 0.06708178 -0.016005935 0.011310904 -0.012662455 -0.06567693
0.016866088 0.10311174 0.034734968 0.0783912 -0.082334265 -0.07744441 -0.004035309 0.05884251
-0.011896722 0.10818111 0.0749564 -0.0013497545 -0.024388552 -0.09081799 -0.09682113 -0.05886004
0.11869529 -0.09297498 -0.05222115 -0.075302884 -0.009792484 0.10649309 -0.11304374 -0.041734792
-0.11444838 0.04310284 0.049068224 0.02578856 0.00092734396 0.05737841 -0.040718183 -0.010212362
0.123398975 0.02506642 -0.046562463 0.10698785 0.029921949 0.088135 -0.06780968 -0.070913546
-0.027745485 0.049402244 -0.087388426 -0.11959788 0.1020836 -0.09051164 -0.043854386 -0.0689409
0.11956453 -0.11610291 -0.018075963 -0.106388845 0.072102115 0.03937315 0.038121417 -0.07216984
-0.11533635 -0.04422347 -0.06319825 -0.11254998 0.077707306 0.041788463 0.1174103 -0.041318778
0.057139754 0.09232032 -0.065274104 0.07181725 -0.104571894 0.07575376 -0.056673184 0.041858565
-0.017737567 0.022540264 0.07090474 -0.094984144 -0.09141463 0.059355382 -0.06520134 0.020464942
0.12136029 -0.030676587 0.06892775 -0.0698311 0.09389202 0.059604127 0.022415537 -0.09211547
0.014973223 0.12222599 0.067780375 -0.06148629 -0.04223534 0.09974197 -0.06463462 0.1149609
-0.07636593 -0.08638518 0.07796004 -0.109143265 -0.039060578 0.07713675 0.12348209 0.120203465
0.07816274 -0.11354897 -0.09562148 0.101816155 -0.10952608 0.11438761 0.09146283 -0.004287619
0.0794107 0.044006955 0.033041432 -0.120301306 0.08533286 -0.05429602 -0.07775222 0.07996579
-0.024009496 0.085657835 -0.08538477 -0.111761145 -0.06936376 0.05922653 0.10307717 0.07125084
-0.016063789 0.06941553 -0.020163178 -0.052005123 0.09396011 -0.10153594 0.024117088 -0.0426022
0.11662513 -0.017205736 -0.016043201 -0.016277745 0.03478558 -0.1243475 -0.037873656 0.06993117
0.076224804 -0.10797905 -0.028597707 0.019611116 0.05655463 -0.076822676 -0.056259334 -0.02377668
0.10300306 0.006503414 0.09847289 -0.08139021 -0.0010891706 0.032086026 -0.086977236 -0.097501375
00000000: 8273 c5bd ee7e 71bd ded4 6d3d d212 c3bd
00000010: 402b d6bd 0d17 643d e2e1 8abd f88a ebbc
00000020: f1e2 513d d640 f8bc 8029 c43b be75 cdbd
00000030: 2485 233d 9548 9fbb 85e9 8b3d 8f2d fd3d
00000040: a028 d0bd af0c de3d d263 f23d 6416 a1bd
00000050: c9a5 f2bd 13ae b8bc c656 c13d c5bc 7bbc
00000060: 8ca9 053d b41b d73d c738 3e3d 53b8 e8bd
00000070: 3c1f 5e3d 731a 86bc b02f db3d dabf b53d
00000080: 7d0f a03c fd10 f9bd 9cc8 20bd e33b ebbc
00000090: de5c 863d 570a 6b3a 6d5c 633d 2bc1 073d
000000a0: ec92 b2bd 1f0a 143d a418 f53d 749c 5a3d
000000b0: 0ab8 6b3c 013a 8dbd 0c4b 2dbd bd92 f73d
000000c0: a0ca d53c 6eb0 813d dc09 eabd aa7e b6bd
000000d0: a09f 4d3c f79b 74bd a6a1 9bbd 22ad eabd
000000e0: 6a94 d3bd e98d 583d 0e41 c0bd f184 133d
000000f0: c0a2 ccbd ab1a 843c 0ffd 50bd 85a5 c4bd
00000100: d8cc f73c 6327 e03d e8bb 3d3d a896 f6bd
00000110: 7dcd 973d af26 3f3d f878 aa3c 1178 debd
00000120: ec3f 713d f563 fc3d a5f6 50bc 66dc 00bb
00000130: 20a7 d8bb e170 8b3d 00d1 a9bc 4e4b ba3d
00000140: 69d2 cfbd 5121 9b3d f451 6e3d ea9a 0ebc
00000150: d886 e4bc e697 4cbd 1e86 0fbd d6a1 afbd
00000160: d45b 4a3d de3c 8f3d 7cfb f3bd 2c62 893d
00000170: e11e 83bc 5f51 393c 3076 4fbc a081 86bd
00000180: c02a 8a3c 3f2c d33d 4146 0e3d 918b a03d
00000190: de9e a8bd 2d9b 9ebd a03a 84bb d804 713d
000001a0: 78ea 42bc 0f8e dd3d be82 993d 3fea b0ba
000001b0: 80ca c7bc c8fe b9bd 284a c6bd 3a17 71bd
000001c0: 8416 f33d ab69 bebd d8e5 55bd 6638 9abd
000001d0: a870 20bc 0d19 da3d 7a83 e7bd 1af2 2abd
000001e0: ea63 eabd 9b8c 303d c3fb 483d 8842 d33c
000001f0: 0019 733a a005 6b3d 1cc8 26bd c051 27bc
00000200: 9ab8 fc3d 1858 cd3c 48b8 3ebd 721c db3d
00000210: e01e f53c 1f80 b43d cddf 8abd 1f3b 91bd
00000220: 804a e3bc 025a 4a3d b4f8 b2bd bcef f4bd
00000230: 3511 d13d 2b5e b9bd a8a0 33bd e330 8dbd
00000240: 40de f43d 5dc7 edbd 0b14 94bc 65e2 d9bd
00000250: 46aa 933d bd45 213d 3425 1c3d c8cd 93bd
00000260: 7735 ecbd ab23 35bd 166e 81bd 9b80 e6bd
00000270: 0225 9f3d 612a 2b3d d074 f03d e13d 29bd
00000280: 600b 6a3d 7012 bd3d 6eae 85bd ec14 933d
00000290: ca29 d6bd ca24 9b3d 2422 68bd e373 2b3d
000002a0: 604e 91bc 5ca6 b83c 8136 913d 0c87 c2bd
000002b0: 9837 bbbd a11e 733d 4888 85bd 18a6 a73c
000002c0: be8b f83d 774d fbbc fe29 8d3d 9c03 8fbd
000002d0: 764a c03d 7523 743d caa0 b73c 09a7 bcbd
000002e0: 4052 753c 9f51 fa3d 70d0 8a3d 0cd9 7bbd
000002f0: f7fe 2cbd 8545 cc3d 285f 84bd 9f70 eb3d
00000300: be65 9cbd b7ea b0bd 83a9 9f3d 8186 dfbd
00000310: fcfd 1fbd dff9 9d3d 2ee4 fc3d 3c2d f63d
00000320: c913 a03d 5d8c e8bd 32d5 c3bd fd84 d03d
00000330: 364f e0bd 0d44 ea3d dd50 bb3d 287f 8cbb
00000340: 14a2 a23d a340 343d 7456 073d 8860 f6bd
00000350: ffc2 ae3d 8165 5ebd 8e3c 9fbd 1bc5 a33d
00000360: 90af c4bc 606d af3d 36de aebd 07e3 e4bd
00000370: 960e 8ebd 8597 723d 201a d33d f6eb 913d
00000380: 3598 83bc bb29 8e3d 402d a5bc 5303 55bd
00000390: 286e c03d 13f2 cfbd 3391 c53c a57f 2ebd
000003a0: 28d9 ee3d 0bf3 8cbc 086d 83bc e858 85bc
000003b0: 537b 0e3d e7a9 febd 6821 1bbd 1338 8f3d
000003c0: c01b 9c3d 1f24 ddbd bd45 eabc 7ea7 a03c
000003d0: d4a5 673d 3555 9dbd 3070 66bd 50c7 c2bc
000003e0: 45f3 d23d 971a d53b 28ac c93d e9af a6bd
000003f0: 80c2 8eba a36c 033d 1f21 b2bd cdae c7bd

rnn_layer.weight_hh_l0 f4 [64, 64]
0.07872981 -0.084869675 0.11477035 -0.082472205 0.0650551 0.04549522 -0.058282632 0.10952606
0.018940244 0.06753345 -0.08543958 0.048087027 0.11639382 -0.004044237 0.03883089 -0.0015411025
0.009006491 -0.06379221 -0.048084304 0.08455188 0.07160253 0.061287023 -0.05136391 0.030463645
-0.09405573 0.020007616 0.100077555 -0.10960393 0.07110829 -0.09709901 0.021134296 0.06639018
-0.021803617 0.0430788 0.06570288 0.067173705 -0.1092862 -0.020063624 0.07587083 -0.1088366
-0.05759759 -0.09313164 0.013539136 0.025195323 -0.04193284 -0.035880946 -0.051770885 0.02601884
0.114342265 -0.048634436 -0.06683609 0.12261993 -0.055223115 0.11407818 0.039389048 0.057653274
-0.045263607 -0.03833891 0.023828028 0.020466058 -0.11777641 -0.04812327 -0.02759831 -0.08549754
-0.008181909 -0.082789734 0.057974372 0.047501456 0.10891369 -0.021381887 -0.022816999 0.08292467
-0.029417092 -0.034757107 -0.036856625 -0.08457773 -0.12122524 -0.069073536 0.09287567 0.052007083
0.0047617895 0.044321705 0.09890267 0.10511057 -0.010809495 -0.028935572 -0.073730595 0.07325471
0.040608272 -0.05998369 0.032224335 0.061368663 0.07176152 -0.11071615 0.11778554 -0.04207427
-0.08491464 0.114211105 0.114696786 -0.031533014 -0.009987283 -0.06472788 -0.013384472 0.068973765
-0.0064489194 -0.048977796 -0.033802375 0.020037055 -0.04866035 0.046085313 -0.058805063 -0.02397232
0.12162925 -0.04956453 -0.04756522 -0.043909725 0.07580766 0.10039262 0.039998006 -0.06549381
0.024003359 0.084720545 -0.078433685 -0.05446236 0.101312906 -0.077964045 -0.030523086 -0.09103944
0.06097591 0.00030995128 0.10540544 0.06642001 0.074036375 0.11084126 0.04808875 0.09600221
0.04286676 -0.10753646 -0.036776375 0.0049905153 0.06313183 0.051565364 -0.051602066 0.11403027
0.04709818 0.08686896 -0.025741508 -0.025076099 -0.07494359 0.03163452 -0.04587719 -0.11883161
-0.07281507 -0.08976697 0.04711914 0.013205362 -0.0694345 0.04685866 0.006536822 -0.11379456
0.043619 0.034776855 -0.11226572 0.095886655 0.06681183 -0.061177175 -0.07328042 -0.009625225
-0.030215915 -0.06417638 0.004582054 -0.04470258 0.10654772 0.047637947 0.062139496 0.053220246
-0.060367644 0.0015816631 -0.06547127 0.07593608 -0.08135243 0.069575615 -0.08642141 -0.087220825
-0.014024817 0.08438865 0.074726604 0.013918074 0.103864565 -0.049042303 0.03070145 -0.038769286
0.09378644 0.080155894 -0.036429416 0.097741105 0.00795081 0.0689811 0.08962788 0.07618743
0.08957241 -0.08782223 -0.02093052 -0.003691865 -0.024693204 -0.023631694 0.04263702 -0.08058579
0.094339006 0.016980218 -0.024513785 0.12084846 0.018079342 0.06318117 0.043660942 0.10635135
0.005636259 0.11255975 -0.03251556 0.09810744 0.10855234 -0.014459267 -0.022142477 -0.04081575
-0.10658905 -0.04602673 -0.12363537 -0.08215902 0.0017693774 -0.070366494 -0.074714325 -0.018395923
0.008720689 -0.084756106 0.018986138 0.07813536 -0.12160525 -0.069076866 -0.10201459 0.041712817
-0.10934067 -0.053899396 -0.07191649 0.06437777 0.060851306 0.016569192 0.045531016 -0.07930504
0.056500837 0.10961885 0.012251948 0.05721056 0.012377011 0.039520968 0.034736875 0.08713017
00000000: 183d a13d 27d0 adbd b80c eb3d 30e7 a8bd
00000010: 9c3b 853d 3259 3a3d c5b9 6ebd 334f e03d
00000020: 9228 9b3c fa4e 8a3d f2fa aebd e7f6 443d
00000030: e25f ee3d 8585 84bb 240d 1f3d d2fe c9ba
00000040: f68f 133c 7da5 82bd 0cf4 44bd 8929 ad3d
00000050: 59a4 923d 1a08 7b3d f762 52bd e58e f93c
00000060: 4aa0 c0bd 03e7 a33c 76f5 cc3d 0678 e0bd
00000070: 39a1 913d d9db c6bd d521 ad3c 93f7 873d
00000080: 809d b2bc 6573 303d 3b8f 863d 5e92 893d
00000090: 71d1 dfbd 785c a4bc 2a62 9b3d b9e5 debd
000000a0: 73eb 6bbd cdbb bebd 41d3 5d3c 6c66 ce3c
000000b0: c5c1 2bbd e6f7 12bd b50d 54bd 7625 d53c
000000c0: 472c ea3d e734 47bd 5ce1 88bd 2820 fb3d
000000d0: a231 62bd d2a1 e93d 6956 213d d725 6c3d
000000e0: 5566 39bd 4309 1dbd ff32 c33c 6fa8 a73c
000000f0: c234 f1bd e81c 45bd da15 e2bc 5619 afbd
00000100: 6a0d 06bc aa8d a9bd 8976 6d3d e390 423d
00000110: 240e df3d 1129 afbc b7ea babc 69d4 a93d
00000120: 1dfc f0bc 785d 0ebd f9f6 16bd 1737 adbd
00000130: f044 f8bd 6d76 8dbd 9935 be3d 6105 553d
00000140: c908 9c3b ad8a 353d 7c8d ca3d 3644 d73d
00000150: 4f1a 31bc 4b0a edbc 1100 97bd 9106 963d
00000160: dc54 263d 75b1 75bd aafd 033d b55d 7b3d
00000170: b4f7 923d 26bf e2bd 8c39 f13d 1256 2cbd
00000180: bae7 adbd 83e7 e93d 26e6 ea3d c328 01bd
00000190: b3a1 23bc 0d90 84bd 8b4a 5bbc 1e42 8d3d
000001a0: 7551 d3bb f19c 48bd 5c74 0abd c024 a43c
000001b0: 1350 47bd f4c3 3c3d 94dd 70bd 9961 c4bc
000001c0: c218 f93d 2d04 4bbd c0d3 42bd afda 33bd
000001d0: 0c41 9b3d a59a cd3d f3d4 233d 9e21 86bd
000001e0: b1a2 c43c f781 ad3d d7a1 a0bd ec13 5fbd
000001f0: 247d cf3d 9dab 9fbd 8d0b fabc e372 babd
00000200: e0c1 793d f580 a239 cfde d73d 3707 883d
00000210: 62a0 973d be00 e33d b6f8 443d cf9c c43d
00000220: 0e95 2f3d 133c dcbd d3a2 16bd 7a87 a33b
00000230: 434b 813d 3436 533d b05c 53bd b488 e93d
00000240: 05ea 403d 5ae8 b13d dbdf d2bc 646c cdbc
00000250: 067c 99bd 3393 013d b8e9 3bbd fd5d f3bd
00000260: 1120 95bd bfd7 b7bd 0000 413d 4d5b 583c
00000270: ad33 8ebd deee 3f3d d632 d63b 1f0d e9bd
00000280: d6a9 323d 2d72 0e3d 92eb e5bd 3960 c43d
00000290: a4d4 883d eb94 7abd 0b14 96bd 1fb3 1dbc
000002a0: 5e87 f7bc e86e 83bd 0e25 963b 0d1a 37bd
000002b0: b135 da3d 0220 433d fc85 7e3d 79fd 593d
000002c0: 1044 77bd cf4f cf3a cd15 86bd 6084 9b3d
000002d0: 1a9c a6bd a97d 8e3d b5fd b0bd d5a0 b2bd
000002e0: 59c8 65bc f5d3 ac3d 430a 993d a208 643c
000002f0: f2b6 d43d 95e0 48bd 9b81 fb3c 8bcc 1ebd
00000300: 1b13 c03d c628 a43d 0337 15bd 7d2c c83d
00000310: 1d44 023c f745 8d3d d28e b73d 2808 9c3d
00000320: bd71 b73d 24dc b3bd 7b76 abbc 37f3 71bb
00000330: 6749 cabc 4197 c1bc 28a4 2e3d 2a0a a5bd
00000340: cf34 c13d 191a 8b3c 22d1 c8bc 667f f73d
00000350: 211b 943c 2165 813d d1d5 323d bdce d93d
00000360: 5eb0 b83b ba85 e63d 092f 05bd 8eec c83d
00000370: b050 de3d 90e6 6cbc 2464 b5bc 6a2e 27bd
00000380: 5c4b dabd 8686 3cbd 8a34 fdbd fd42 a8bd
00000390: 74ea e73a 4f1c 90bd d303 99bd 0cb3 96bc
000003a0: 39e1 0e3c 9c94 adbd d188 9b3c 6e05 a03d
000003b0: 2c0c f9bd 2c78 8dbd 06ed d0bd 0fdb 2a3d
000003c0: 00ee dfbd 9dc5 5cbd f448 93bd 7ed8 833d
000003d0: 383f 793d 1dbc 873c bb7e 3a3d ae6a a2bd
000003e0: 6c6d 673d d97f e03d 65bc 483c 9f55 6a3d
000003f0: f2c8 4a3c bde0 213d 4148 0e3d 4d71 b23d

rnn_layer.bias_ih_l0 f4 [64]
0.023211028 0.048223812 -0.10732381 0.08809826 -0.059487812 -0.11030394 0.047870647 -0.057016205
0.00043264346 -0.024664238 -0.066076085 0.07765901 0.0307686 0.025726745 0.07492743 -0.05513046
-0.048051987 -0.061260533 0.065796286 -0.09157145 -0.0068991445 -0.10407971 -0.04509103 -0.0485383
0.007166347 -0.04383402 0.030179545 0.10127385 0.058699403 0.051727917 0.11770314 0.039087705
0.037028555 -0.001255247 0.056153234 -0.08084083 0.028877707 0.013582941 -0.08901749 0.071462326
0.052123573 0.051622268 -0.10699158 0.0014853661 0.104349285 0.035214864 0.0065303994 0.02207928
0.11816623 0.11613178 0.03019588 0.04738904 0.025150154 -0.046806447 -0.025277171 -0.0701102
0.009494226 0.054979566 -0.056417916 0.08276478 0.10751795 -0.022862013 -0.05282737 0.021546353
00000000: 0e25 be3c 5586 453d 96cc dbbd dc6c b43d
00000010: 7ea9 73bd 08e7 e1bd 0314 443d d389 69bd
00000020: 6cd4 e239 a80c cabc e652 87bd b00b 9f3d
00000030: 6e0e fc3c e5c0 d23c 8d73 993d 7ad0 61bd
00000040: 29d2 44bd 53ec 7abd 34c0 863d d089 bbbd
00000050: 3812 e2bb be27 d5bd 5fb1 38bd 19d0 46bd
00000060: add3 ea3b 4d8b 33bd 183b f73c aa68 cf3d
00000070: c96e 703d a7e0 533d 580e f13d 6e1a 203d
00000080: 41ab 173d 1a87 a4ba ef00 663d e18f a5bd
00000090: f190 ec3c fc8a 5e3c cd4e b6bd d75a 923d
000000a0: 877f 553d df71 533d 671e dbbd 9eb0 c23a
000000b0: 14b5 d53d 763d 103d f6fc d53b 9bdf b43c
000000c0: 2301 f23d 80d6 ed3d 5a5d f73c 031b 423d
000000d0: b207 ce3c 1eb8 3fbd 1212 cfbc f095 8fbd
000000e0: ac8d 1b3c 4132 613d 7916 67bd 9580 a93d
000000f0: 5f32 dc3d 1e49 bbbc 8361 58bd fa81 b03c

rnn_layer.bias_hh_l0 f4 [64]
0.09415602 0.014542986 0.057959225 0.09675805 0.04173804 0.027417261 0.00038996 -0.042450752
-0.09105082 0.011663556 -0.0049006357 -0.040153246 -0.05178878 -0.028634911 -0.11133977 -0.075058125
0.029951807 -0.008369338 0.05847246 -0.023282032 0.036657143 0.08230871 0.10002181 0.08245941
0.012707016 -0.09270674 -0.03761621 -0.07774307 0.08408013 0.086850464 0.022082608 -0.099881776
0.08017409 0.11188467 -0.0327697 -0.11373351 -0.09268904 0.03234404 0.014022996 -0.037555598
0.07560263 -0.12315524 -0.08976101 -0.031507682 0.003301993 0.055942394 -0.0020884918 0.0053774468
0.0027981214 0.083060995 0.060742635 0.0583602 0.011621137 0.04111276 -0.041512746 0.009230184
0.10947251 -0.014632221 -0.07949787 -0.0080908 -0.077728905 -0.025431957 -0.091064736 -0.014855442
00000000: dfd4 c03d b445 6e3c a766 6d3d 1629 c63d
00000010: 82f5 2a3d 2a9a e03c 8c73 cc39 d7e0 2dbd
00000020: da78 babd 8018 3f3c 8395 a0bb bb77 24bd
00000030: 7920 54bd c393 eabc 1b06 e4bd 13b8 99bd
00000040: 7e5d f53c 8c1f 09bc d180 6f3d f6b9 bebc
00000050: cd25 163d 7891 a83d 3cd8 cc3d 7be0 a83d
00000060: 1731 503c 08dd bdbd 7413 1abd c237 9fbd
00000070: 3432 ac3d a8de b13d 96e6 b43c d18e ccbd
00000080: 5032 a43d ca23 e53d 8539 06bd 1ded e8bd
00000090: c0d3 bdbd 2f7b 043d b5c0 653c e6d3 19bd
000000a0: 8dd5 9a3d d138 fcbd 9fd4 b7bd 330e 01bd
000000b0: 4066 583b da23 653d 14df 08bb 4b35 b03b
000000c0: b060 373b e21b aa3d 45cd 783d 1b0b 6f3d
000000d0: 9566 3e3c da65 283d 4509 2abd 333a 173c
000000e0: 2033 e03d fcbb 6fbc c7cf a2bd 468f 04bc
000000f0: 5530 9fbd ae56 d0bc 2680 babd 3d64 73bc

fc.weight f4 [3, 64]
-0.101699546 -0.0049533066 -0.122356616 -0.030396607 0.11057056 0.09571762 -0.102967516 -0.011810412
0.070944086 -0.086101174 -0.070036516 -0.06448236 -0.028411675 0.055879086 0.021775765 0.04763339
-0.105345435 0.095832475 0.118506566 0.10264191 0.062269505 -0.10356513 0.059350003 -0.060762767
0.10123202 -0.11194067 0.039890155 0.1213543 0.052137602 -0.115191855 -0.078831635 0.11985896
0.046132807 -0.11590854 -0.07574103 0.10948102 0.016552042 0.054742042 0.02537339 0.04944905
-0.07386654 -0.04600119 0.057122957 -0.065994196 0.10352893 -0.10516826 0.047533263 -0.111182325
0.032706823 -0.094451666 -0.07164693 -0.06487138 -0.041265804 0.087854564 -0.06450483 0.07959125
-0.060305934 0.059775118 -0.065669954 0.0654829 0.06992816 0.06689332 0.11386791 0.059948493
0.056298677 0.11199026 0.02976823 -0.08360126 0.07096163 0.097669154 -0.06798586 -0.10843876
0.03365687 -0.03552148 -0.08391932 -0.051978257 -0.06598127 -0.019062575 0.012531922 0.06339276
-0.056356747 0.11273714 -0.088549815 -0.07970744 0.024690708 -0.0014038678 0.040205248 -0.1063316
0.07411733 -0.038183942 -0.10498053 0.053158164 -0.06828612 0.06257585 0.045422606 0.055833653
-0.11865937 -0.09178965 -0.10039565 0.039988138 -0.00021725109 0.09875479 0.012815133 0.06766747
-0.119418524 -0.033932935 0.08056306 -0.07550553 -0.0097694285 -0.09878528 0.12084811 0.044782393
0.038043573 -0.12305986 0.10792189 -0.12318008 0.08255971 0.049280673 0.08974767 -0.11592587
0.05595398 0.12055804 0.02850949 -0.11167108 -0.09467231 -0.05215245 0.11805419 0.02987291
-0.06456845 -0.05757949 0.03130547 -0.039898206 0.06306064 -0.06147169 0.116440445 0.008699198
-0.118166625 -0.062991485 -0.07439148 -0.05187668 0.065593034 0.057925165 -0.01609124 0.005595317
0.12336197 0.024821425 -0.04421187 -0.025519919 -0.069207795 -0.08025488 -0.09216697 0.0197444
0.045298483 0.038274396 0.026835067 -0.102221414 0.022859868 -0.051569737 0.11648845 0.047261763
-0.0618005 0.11281326 0.05477312 0.074075535 -0.09413869 0.0814682 0.043842565 0.114229694
0.08110578 0.05573424 -0.050748017 -0.11964055 0.045188773 -0.06936283 0.11050043 -0.058798764
0.11930051 -0.08503835 -0.10133487 0.020822475 -0.05088551 0.026930276 0.0010909922 0.00461503
-0.01790649 -0.029671092 -0.011108232 -0.04448682 0.06427042 0.053684745 -0.041817334 -0.08937916
00000000: da47 d0bd 594f a2bb 1b96 fabd 4e02 f9bc
00000010: d172 e23d 9907 c43d a2e0 d2bd 7580 41bc
00000020: 224b 913d d055 b0bd 4e6f 8fbd 540f 84bd
00000030: 9abf e8bc 78e1 643d 1763 b23c 3b1b 433d
00000040: 59bf d7bd d143 c43d 92b3 f23d ec35 d23d
00000050: 4f0e 7f3d f419 d4bd fd18 733d 61e2 78bd
00000060: bc52 cf3d 2641 e5bd dc63 233d 9a88 f83d
00000070: 3d8e 553d b5e9 ebbd 7b72 a1bd 9d78 f53d
00000080: c1f5 3c3d 7561 edbd 1d1e 9bbd 9637 e03d
00000090: 2698 873c 3139 603d dbdb cf3c 168b 4a3d
000000a0: 5747 97bd be6b 3cbd c3f9 693d f727 87bd
000000b0: fa06 d43d 7562 d7bd 3db2 423d 8fb3 e3bd
000000c0: 97f7 053d e06f c1bd a0bb 92bd 49db 84bd
000000d0: 5506 29bd 18ed b33d 1c1b 84bd bd00 a33d
000000e0: 5b03 77bd c1d6 743d f87d 86bd e61b 863d
000000f0: 7f36 8f3d 5dff 883d 9433 e93d 8d8c 753d
00000100: 7199 663d 265b e53d 81dc f33c 2337 abbd
00000110: 5554 913d c406 c83d 2c3c 8bbd 2415 debd
00000120: c9db 093d f97e 11bd e4dd abbd 27e7 54bd
00000130: 3021 87bd 1e29 9cbc b152 4d3c 10d4 813d
00000140: 55d6 66bd bbe2 e63d 9b59 b5bd a83d a3bd
00000150: 2b44 ca3c fd01 b8ba 42ae 243d 62c4 d9bd
00000160: d4ca 973d c466 1cbd 0800 d7bd 60bc 593d
00000170: 98d9 8bbd c427 803d 0e0d 3a3d d4b1 643d
00000180: af03 f3bd 36fc bbbd 3c9c cdbd 9aca 233d
00000190: e5cd 63b9 f43f ca3d 90f6 513c 3e95 8a3d
000001a0: b391 f4bd 43fd 0abd 3ffe a43d a5a2 9abd
000001b0: f40f 20bc f04f cabd 377f f73d be6d 373d
000001c0: 94d3 1b3d cf06 fcbd 2706 dd3d d645 fcbd
000001d0: 1115 a93d 88da 493d a0cd b73d 8b6a edbd
000001e0: 0030 653d 22e7 f63d bc8c e93c cfb3 e4bd
000001f0: 8ee3 c1bd cf9d 55bd 65c6 f13d 08b8 f43c
00000200: 773c 84bd 79d8 6bbd 2a3a 003d 4d6c 23bd
00000210: f025 813d bdc9 7bbd 5478 ee3d 1587 0e3c
00000220: 5801 f2bd ae01 81bd 8f5a 98bd a47c 54bd
00000230: a455 863d f042 6d3d c7d1 83bc ec58 b73b
00000240: 33a5 fc3d 4d56 cb3c 8117 35bd 260f d1bc
00000250: d1bc 8dbd ac5c a4bd 09c2 bcbd 02bf a13c
00000260: e78a 393d 9dc5 1c3d 37d5 db3c 7659 d1bd
00000270: 9e44 bb3c ca3a 53bd 7f91 ee3d 8d95 413d
00000280: 8522 7dbd a30a e73d c759 603d eab4 973d
00000290: c9cb c0bd cdd8 a63d 4394 333d 42f1 e93d
000002a0: ca1a a63d 9649 643d 27dd 4fbd 1b06 f5bd
000002b0: dd17 393d 190e 8ebd 0d4e e23d f9d6 70bd
000002c0: d353 f43d 9628 aebd a888 cfbd e593 aa3c
000002d0: 536d 50bd e29c dc3c a0ff 8e3a ad39 973b
000002e0: a2b0 92bc ca10 f3bc 4dff 35bc d037 36bd
000002f0: 36a0 833d 89e4 5b3d a748 2bbd 6c0c b7bd

fc.bias f4 [3]
0.045346905 0.007500123 -0.07213168
00000000: adbd 393d 98c3 f53b c6b9 93bd
