trainedModels/1619582976/rnn.pt (torch, 22538 bytes, 6 tensors)

rnn_layer.weight_ih_l0 f4 [64, 12]
0.120345674 0.026235996 0.046175104 0.0066333637 -0.041508704 0.032466512 0.148287 0.0015734372
0.0071584587 0.09282379 0.11109527 -0.10951878 0.039967414 -0.060273197 0.07749838 0.08485561
0.07454179 0.005148767 -0.0110293925 -0.14629962 -0.022915743 -0.11199183 0.05007935 -0.043578945
0.041236944 -0.04266175 -0.009586939 0.071385086 -0.01890571 -0.0017024564 0.0017020251 0.00594959
0.082088806 -0.096698895 -0.04094557 -0.076322936 -0.12182172 0.081602186 0.08470285 0.03480713
-0.08649361 0.027801253 0.07530807 -0.12393889 -0.13193463 -0.123382926 0.08207917 0.082980394
0.030108653 0.069227695 0.042376984 0.1050397 -0.11095841 -0.04069964 -0.065712 -0.06180494
0.07426304 0.078719646 0.11293204 -0.00941823 0.01971991 -0.0013164678 -0.08989913 0.0744472
0.040347766 -0.07384869 -0.010326496 0.16084217 0.09382094 -0.11061977 0.12239446 -0.03172519
0.0882373 0.028972626 0.017818991 0.03760018 -0.06802253 0.056159936 -0.08504471 0.022372711
-0.094103776 -0.0675154 0.0062282314 -0.050617117 -0.060621843 0.0894347 0.0077304216 0.11926503
0.070126474 0.006910263 -0.05060773 0.06558286 0.08433409 0.11327506 0.0020119525 0.118512414
-0.1223781 0.0146229435 -0.10385167 0.018179856 -0.09305978 -0.061053608 0.123317055 0.010979557
-0.09523344 -0.03903322 0.053370778 0.096047044 0.03472231 0.06450919 -0.021166036 -0.07951874
-0.021471813 -0.021001427 -0.1313593 -0.093742594 -0.06328573 -0.028049406 0.07648262 0.07327701
0.10913605 0.065037526 0.017187107 0.088461846 0.065180294 0.036724433 -0.06587557 -0.12973963
-0.1039881 -0.1000762 0.03840202 0.0057156174 -0.03486102 0.0691328 -0.025930531 -0.06835008
-0.026206922 0.10424712 0.0554754 0.20545943 -0.07087244 0.0072324295 -0.0895854 -0.08262026
0.037316278 -0.043111354 0.06745348 0.09458678 0.06774361 0.015203978 -0.11175057 0.15209876
-0.008536686 -0.06885675 -0.08033643 0.10650585 -0.07034311 0.11973882 0.00025057964 0.008800999
0.033421718 -0.047954023 0.04308673 -0.06281905 -0.08404884 0.10832459 -0.038960904 -0.029934261
0.07217002 0.10576283 -0.025548782 0.0030055621 0.075954534 -0.045637272 -0.019677019 -0.13539091
-0.016220339 0.024786284 -0.014355097 -0.12346167 0.091822006 -0.010836652 0.05584976 -0.10224526
-0.062821314 -0.04849154 0.0277003 -0.013897983 -0.023398116 0.022758286 0.079157434 0.079670995
0.017520638 0.07651748 0.094558224 0.1278795 0.07003865 0.045436945 -0.102671355 0.15415381
-0.0583889 0.048249606 0.0870174 0.09983057 0.14529368 -0.09906881 0.079469405 -0.03789476
0.028302634 0.078063406 0.044841677 0.057554763 -0.021554125 0.03318041 0.10379575 -0.012445426
-0.10494732 0.082333736 -0.04320567 0.090276934 -0.07116769 -0.102820344 0.027151247 -0.12573893
0.06092696 -0.015759258 0.085565254 0.04140637 -0.048445474 -0.012691462 0.024326343 0.034862936
0.051907375 -0.04572954 -0.04426023 0.020591639 0.09774367 -0.10750116 0.022303823 -0.0063332017
0.026952285 0.029335732 0.07743547 -0.05239985 -0.0808679 0.109798 0.015451796 0.12023625
-0.0009762172 -0.08431158 -0.088378176 0.0419068 -0.1300719 -0.08973958 -0.097102925 0.09432815
00000000: cb77 f63d dfec d63c 1b22 3d3d b05c d93b
00000010: 0805 2abd 9bfb 043d 8cd8 173e cb3b ce3a
00000020: 8191 ea3b 661a be3d eb85 e33d 624b e0bd
00000030: dfb4 233d 07e1 76bd 78b7 9e3d c7c8 ad3d
00000040: 5ea9 983d fdb6 a83b a0b4 34bc 91cf 15be
00000050: ccb9 bbbc f95b e5bd 0120 4d3d d67f 32bd
00000060: 12e8 283d 16be 2ebd 8912 1dbc 5832 923d
00000070: 26e0 9abc f524 dfba 7c16 df3a c7f4 c23b
00000080: 2d1e a83d 120a c6bd 8bb6 27bd 334f 9cbd
00000090: aa7d f9bd 0c1f a73d b078 ad3d ec91 0e3d
000000a0: 9023 b1bd 74bf e33c 1e3b 9a3d acd3 fdbd
000000b0: df19 07be 30b0 fcbd 2019 a83d a0f1 a93d
000000c0: 6ca6 f63c 40c7 8d3d 7d93 2d3d 0e1f d73d
000000d0: 2a3e e3bd aab4 26bd 0394 86bd 2d27 7dbd
000000e0: 3917 983d c437 a13d ea48 e73d eb4e 1abc
000000f0: a68b a13c 548d acba 091d b8bd c677 983d
00000100: b343 253d fb3d 97bd 7730 29bc cfb3 243e
00000110: 3125 c03d 9e8c e2bd f2a9 fa3d 46f2 01bd
00000120: c2b5 b43d 0058 ed3c 22f9 913c a502 1a3d
00000130: 654f 8bbd f607 663d ec2b aebd fa46 b73c
00000140: 7bb9 c0bd 8445 8abd 3116 cc3b e553 4fbd
00000150: 9c4e 78bd 8a29 b73d 7a4f fd3b 3941 f43d
00000160: 789e 8f3d 7d6f e23b 0d4a 4fbd 4e50 863d
00000170: 5ab7 ac3d c1fc e73d f6da 033b a3b6 f23d
00000180: 5fa1 fabd 1295 6f3c 2fb0 d4bd eced 943c
00000190: 2096 bebd 5913 7abd a78d fc3d 9ae3 333c
000001a0: c009 c3bd 4ce1 1fbd 519b 5a3d 50b4 c43d
000001b0: fb38 0e3d 651d 843d 6564 adbc b9da a2bd
000001c0: a8e5 afbc 2f0b acbc 0d83 06be 1efc bfbd
000001d0: f39b 81bd dec7 e5bc eba2 9c3d 4212 963d
000001e0: b982 df3d 6532 853d facb 8c3c 7c2b b53d
000001f0: 3f7d 853d 5c6c 163d c5e9 86bd 77da 04be
00000200: b7f7 d4bd c0f4 ccbd 704b 1d3d 134a bb3b
00000210: 6eca 0ebd 7f95 8d3d 446c d4bc 20fb 8bbd
00000220: e6af d6bc 847f d53d 2c3a 633d f563 523e
00000230: 9225 91bd 04fe ec3b 8d78 b7bd d034 a9bd
00000240: f4d8 183d 8895 30bd 0d25 8a3d b7b6 c13d
00000250: 29bd 8a3d 1b1a 793c 7cdd e4bd c7bf 1b3e
00000260: 75dd 0bbc c504 8dbd 6d87 a4bd bd1f da3d
00000270: 0c10 90bd a039 f53d 3b60 8339 1132 103c
00000280: 36e5 083d 706b 44bd b67b 303d 46a7 80bd
00000290: cc21 acbd 48d9 dd3d 7895 1fbd b238 f5bc
000002a0: e0cd 933d 2f9a d83d ae4b d1bc f7f8 443b
000002b0: 0d8e 9b3d 26ee 3abd b331 a1bc eaa3 0abe
000002c0: 84e0 84bc 9b0c cb3c a431 6bbc 79d9 fcbd
000002d0: 2d0d bc3d 368c 31bc b8c2 643d f665 d1bd
000002e0: 76a8 80bd 119f 46bd bdeb e23c 5eb4 63bc
000002f0: 68ad bfbc 966f ba3c 4b1d a23d 8c2a a33d
00000300: 7187 8f3c 32b5 9c3d bea7 c13d d8f2 023e
00000310: 6c70 8f3d 171c 3a3d 5c45 d2bd 7fda 1d3e
00000320: 3329 6fbd 61a1 453d 2e36 b23d f873 cc3d
00000330: dec7 143e 97e4 cabd dbc0 a23d 8937 1bbd
00000340: edda e73c b5df 9f3d e8ab 373d 8bbe 6b3d
00000350: 4792 b0bc 2ee8 073d de92 d43d e6e7 4bbc
00000360: 9fee d6bd 979e a83d 6ef8 30bd 1de3 b83d
00000370: 5ec0 91bd 7993 d2bd 4b6c de3c b5c1 00be
00000380: 8c8e 793d 8f19 81bc d63c af3d ba99 293d
00000390: c36e 46bd daef 4fbc 0a48 c73c 70cc 0e3d
000003a0: d49c 543d e64e 3bbd 374a 35bd ccaf a83c
000003b0: d52d c83d 9129 dcbd 82b6 b63c bf86 cfbb
000003c0: 0acb dc3c 7d51 f03c 7d96 9e3d 3aa1 56bd
000003d0: 129e a5bd c6dd e03d 8829 7d3c 6c3e f63d
000003e0: d4e8 7fba 8dab acbd 9eff b4bd 77a6 2b3d
000003f0: 9131 05be 63c9 b7bd e6dd c6bd 1e2f c13d

rnn_layer.weight_hh_l0 f4 [64, 64]
0.099621974 0.02487815 -0.037496768 -0.11441611 -0.077119984 -0.023945466 0.030077083 0.11834118
-0.11756486 -0.0029771354 -0.058468286 0.062306084 0.08106432 0.011195817 -0.054507896 0.015359658
-0.09229662 -0.023799313 0.05678756 0.0192737 0.10222851 -0.11237639 0.0802433 -0.103548005
-0.109613284 -0.03356447 -0.025314221 -0.053949084 -0.06618301 -0.09127562 0.07999401 -0.13337831
0.05600988 -0.008779749 -0.0074539585 -0.011255741 -0.021391487 0.111607864 0.117839836 -0.02475149
0.027783548 -0.011452677 -0.11920167 -0.058531124 -0.025437381 0.09958022 0.092953146 0.06522964
0.035203855 0.093852505 -0.007822056 0.037429307 -0.06813643 -0.010330438 -0.06742722 0.06591573
0.11950736 -0.08789705 -0.11512471 0.04869087 0.001008867 0.098140515 -0.11177145 0.11026609
0.1238076 0.0009924115 -0.08764418 -0.013088145 -0.06640945 0.051945284 0.022320673 -0.0026636592
0.09105632 -0.0695601 -0.05432793 0.017428147 0.019184861 -0.10058436 0.05345146 -0.12363063
-0.0038080474 -0.057331555 -0.11001526 0.111311175 0.12562492 0.08523475 0.0776486 0.10495702
0.09999062 0.015522286 0.037072286 0.10681152 -0.0082525015 -0.041288465 0.10676227 0.0010001147
-0.07733862 -0.06586891 0.021950372 -0.061118133 0.017247114 -0.09967332 -0.03765379 0.13819042
-0.028304843 0.043691747 0.009319682 0.06479563 0.10760742 0.06475248 -0.082151264 0.009958485
-0.032970622 -0.00067140773 -0.058411285 -0.015109927 0.08980528 0.02369597 -0.09987139 -0.10859529
-0.059204806 -0.020219589 0.11024729 0.11201285 -0.11825503 -0.03799411 -0.08996543 0.09565564
0.019812025 0.10118128 -0.019369554 0.05069735 -0.016626123 0.020436378 -0.027697042 0.06686057
-0.0019481898 0.11155794 -0.02574748 0.048497908 0.0633757 0.055764712 -0.06466675 0.08726216
-0.07724293 0.07865855 -0.052304618 -0.012647701 0.059392706 0.10498717 0.0064962027 0.06792952
0.08208925 0.10985413 -0.01845437 -0.07425021 0.016985388 0.11917963 -0.11360696 0.03890485
-0.044659995 0.112854995 -0.11201451 0.12177179 -0.004714238 0.10906343 0.047210775 0.10575951
-0.014448245 0.0040515633 -0.07909946 0.03183769 -0.059658203 0.061123244 0.026901092 0.13192901
-0.09254802 -0.0143196145 -0.03667256 -0.07503404 0.106200084 -0.10095049 0.08456151 -0.08187277
-0.005014191 0.038477723 0.052151274 -0.10975228 -0.02867725 -0.09139363 0.07041529 -0.107629105
0.013163742 0.10599025 0.050627425 0.021693083 -0.05324215 0.07900893 -0.12201409 0.029792514
-0.014001953 0.08181794 -0.11537995 0.07394243 0.01897145 0.09806555 -0.03861224 0.05530929
0.026481984 0.07051071 -0.006794832 0.090410955 -0.027915834 0.0014876481 -0.10027906 -0.05252103
0.045018207 -0.100714095 0.11115005 0.12396998 0.0056406534 -0.008199908 0.093530655 -0.050604224
-0.10153114 -0.05322142 0.054213263 0.102695145 0.03826432 0.025385773 -0.039442714 0.026327511
-0.013510353 -0.019803224 0.038159594 -0.049818154 -0.010277551 0.11000008 -0.07551239 0.003037401
0.051898412 0.089470245 -0.11106958 -0.0017043629 0.08835005 0.0044771214 -0.085743666 0.09976902
-0.09417491 0.05339648 0.09552056 -0.09902254 0.058901016 -0.06520085 0.05226729 -0.0064770705
00000000: 9b06 cc3d 43cd cb3c 3696 19bd fe52 eabd
00000010: 15f1 9dbd 4829 c4bc 3764 f63c dc5c f23d
00000020: d8c5 f0bd 0b1c 43bb 717c 6fbd aa34 7f3d
00000030: 0d05 a63d a96e 373c ac43 5fbd 13a7 7b3c
00000040: 0306 bdbd c7f6 c2bc 139a 683d e1e3 9d3c
00000050: 2e5d d13d 9825 e6bd 9956 a43d fa10 d4bd
00000060: ee7c e0bd e67a 09bd c55f cfbc b7f9 5cbd
00000070: f58a 87bd b6ee babd e6d3 a33d 5394 08be
00000080: 9e6a 653d f0d8 0fbc 5640 f4bb 006a 38bc
00000090: 333d afbc aa92 e43d 0356 f13d a3c3 cabc
000000a0: 539a e33c 02a4 3bbc 0120 f4bd 55be 6fbd
000000b0: 0e62 d0bc b7f0 cb3d 385e be3d 1e97 853d
000000c0: eb31 103d be35 c03d 1528 00bc 794f 193d
000000d0: 1d8b 8bbd ff40 29bc 4817 8abd d4fe 863d
000000e0: 46c0 f43d 5e03 b4bd 81c6 ebbd 1470 473d
000000f0: f63b 843a e5fd c83d 6ee8 e4bd 30d3 e13d
00000100: d78e fd3d ce13 823a cb7e b3bd a96f 56bc
00000110: ad01 88bd 94c4 543d d8d9 b63c c990 2ebb
00000120: bc7b ba3d 8775 8ebd f786 5ebd 79c5 8e3c
00000130: 9229 9d3c 2cff cdbd ebef 5a3d 0e32 fdbd
00000140: 6f90 79bb 7ed4 6abd ae4f e1bd 1df7 e33d
00000150: d2a3 003e 8e8f ae3d 3b06 9f3d b5f3 d63d
00000160: e2c7 cc3d 3051 7e3c 1cd9 173d 00c0 da3d
00000170: 8035 07bc 181e 29bd 2da6 da3d 4816 833a
00000180: b663 9ebd 47e6 86bd 44d1 b33c 0257 7abd
00000190: d249 8d3c 8721 ccbd dc3a 1abd ca81 0d3e
000001a0: 8fdf e7bc 1ef6 323d 94b1 183c 92b3 843d
000001b0: 4761 dc3d f39c 843d ec3e a8bd ea28 233c
000001c0: 340c 07bd 6901 30ba ac40 6fbd a18f 77bc
000001d0: d5eb b73d 0d1e c23c 5f89 ccbd 3567 debd
000001e0: bd80 72bd 8da3 a5bc 55c9 e13d fe66 e53d
000001f0: b12f f2bd b69f 1bbd cc3f b8bd 1be7 c33d
00000200: d44c a23c 2238 cf3d e6ac 9ebc 06a8 4f3d
00000210: 8233 88bc 316a a73c e8e4 e2bc 32ee 883d
00000220: 675a ffba 7d78 e43d 61ec d2bc bea5 463d
00000230: 1ecb 813d 8a69 643d 0070 84bd 81b6 b23d
00000240: 8b31 9ebd bc17 a13d 5e3d 56bd 4e38 4fbc
00000250: c445 733d 8303 d73d 19de d43b a21e 8b3d
00000260: 691e a83d 34fb e03d 9e2d 97bc 7e10 98bd
00000270: f124 8b3c 7314 f43d c4aa e8bd b15a 1f3d
00000280: 66ed 36bd 8520 e73d dd67 e5bd 7d63 f93d
00000290: e579 9abb a65c df3d 1660 413d 7198 d83d
000002a0: 55b8 6cbc fac2 843b e6fe a1bd 3d68 023d
000002b0: 295c 74bd 5e5c 7a3d ae5f dc3c 6618 073e
000002c0: d189 bdbd d19c 6abc f735 16bd 72ab 99bd
000002d0: 6e7f d93d 21bf cebd 962e ad3d e9ac a7bd
000002e0: 154e a4bb d19a 1d3d 939c 553d cec5 e0bd
000002f0: 8dec eabc 952c bbbd e435 903d a66c dcbd
00000300: bcac 573c 6b11 d93d b45e 4f3d b1b5 b13c
00000310: 7114 5abd 6fcf a13d 86e2 f9bd 6e0f f43c
00000320: 7368 65bc 2a90 a73d 534c ecbd 216f 973d
00000330: 046a 9b3c 97d6 c83d de27 1ebd fe8b 623d
00000340: bff0 d83c eb67 903d 2fa7 debb 6129 b93d
00000350: bfaf e4bc 30fd c23a 1c5f cdbd 4b20 57bd
00000360: 0365 383d 3143 cebd a3a2 e33d f9e3 fd3d
00000370: 3bd5 b83b e858 06bc 008d bf3d 6046 4fbd
00000380: 8fef cfbd b4fe 59bd ba0e 5e3d d551 d23d
00000390: 0cbb 1c3d d3f5 cf3c af8e 21bd cbac d73c
000003a0: 875a 5dbc 5f3a a2bc 3c4d 1c3d 1f0e 4cbd
000003b0: 2c63 28bc b947 e13d 3da6 9abd 220f 473b
000003c0: 6e93 543d 2d3c b73d 7378 e3bd ee64 dfba
000003d0: dff0 b43d d1b4 923b 609a afbd b353 cc3d
000003e0: c6de c0bd 44b6 5a3d 49a0 c33d 54cc cabd
000003f0: 3142 713d 0688 85bd 3a16 563d 9b3d d4bb

rnn_layer.bias_ih_l0 f4 [64]
-0.011015032 0.089988284 -0.011554622 0.11438932 -0.040134624 -0.061035577 0.06811827 -0.030715454
0.07674524 -0.001042128 -0.085959114 -0.0010186491 -0.09415536 0.01564729 -0.0064092637 0.098012015
-0.03862171 -0.055191178 -0.04370146 -0.022286866 0.05668123 0.071199544 -0.030098382 0.021364504
0.027835527 -0.09787667 -0.1027483 0.013272807 -0.04656777 -0.018618735 -0.092104256 -0.095164865
-0.10009904 -0.03101577 0.016701214 -0.06181163 0.041694462 0.08123175 -0.042570233 -0.05142806
-0.10526607 -0.053020295 -0.03642337 -0.045097478 -0.110827185 0.08658379 0.08540225 0.07443406
0.061662935 -0.04235492 0.0058809314 -0.043200973 0.029654888 -0.08380159 -0.12031978 -0.040257808
-0.002154964 -0.010019978 -0.03830571 0.06896277 0.0659074 0.0048466115 0.029771313 -0.06020219
00000000: 6578 34bc c74b b83d 994f 3dbc f344 ea3d
00000010: 3464 24bd 7100 7abd 9781 8b3d fa9e fbbc
00000020: 9c2c 9d3d 0398 88ba 550b b0bd 3184 85ba
00000030: 86d4 c0bd bf2e 803c cd04 d2bb 86ba c83d
00000040: cc31 1ebd 2510 62bd 4d00 33bd f292 b6bc
00000050: 942a 683d 11d1 913d e290 f6bc 9d04 af3c
00000060: 5507 e43c 9073 c8bd b36d d2bd 3076 593c
00000070: d9bd 3ebd 5186 98bc 28a1 bcbd cce5 c2bd
00000080: ba00 cdbd c914 febc fcd0 883c 312e 7dbd
00000090: d0c7 2a3d d55c a63d 205e 2ebd 3ba6 52bd
000000a0: bd95 d7bd cf2b 59bd ac30 15bd 22b8 38bd
000000b0: 5df9 e2bd d852 b13d 60e7 ae3d e270 983d
000000c0: 4692 7c3d 5a7c 2dbd d4b4 c03b 81f3 30bd
000000d0: cfee f23c 2ba0 abbd 386a f6bd 5fe5 24bd
000000e0: 4c3a 0dbb d52a 24bc 73e6 1cbd 5a3c 8d3d
000000f0: 75fa 863d 53d0 9e3b f8e2 f33c 9296 76bd

rnn_layer.bias_hh_l0 f4 [64]
-0.07534009 0.088730775 0.0058896476 0.00801195 -0.027722405 -0.05070425 0.06843037 0.025781732
-0.051137682 0.05756817 0.10894621 0.11830799 0.008488224 0.0038819131 0.07420781 0.016936107
-0.11997057 -0.070905596 0.07825668 0.10570787 -0.049766243 -0.05040365 -0.014896258 -0.035196807
-0.075236715 0.06626527 -0.047462076 -0.06605404 0.06637745 0.08871142 -0.12286961 0.013463878
0.10753307 0.092912026 -0.07838089 -0.116365485 0.08211194 -0.07514573 0.059605986 0.08879774
-0.019142814 0.12916145 0.09127601 0.049886934 0.067209475 0.0645022 -0.08189821 -0.10749668
-0.023574114 0.060293883 0.03458577 0.07343307 -0.12278509 -0.12014521 0.09174271 -0.005394798
0.00937114 -0.10876352 -0.10985161 0.007815049 0.037380848 0.106372796 -0.090300195 0.0402508
00000000: e84b 9abd 7bb8 b53d f2fd c03b 8e44 033c
00000010: 191a e3bc 42af 4fbd 3925 8c3d 3634 d33c
00000020: bf75 51bd 9acc 6b3d 311f df3d 764b f23d
00000030: 3112 0b3c b267 7e3b 44fa 973d 97bd 8a3c
00000040: 21b3 f5bd f436 91bd 0a45 a03d 5e7d d83d
00000050: b0d7 4bbd 0f74 4ebd 6f0f 74bc 872a 10bd
00000060: b515 9abd 16b6 873d 9867 42bd 5747 87bd
00000070: e7f0 873d 55ae b53d 10a3 fbbd 9997 5c3c
00000080: 4c3a dc3d a948 be3d 2986 a0bd 0751 eebd
00000090: 4e2a a83d 01e6 99bd 6825 743d 97db b53d
000000a0: 64d1 9cbc e642 043e ebee ba3d 3e56 4c3d
000000b0: 1fa5 893d bb19 843d 40ba a7bd 3827 dcbd
000000c0: 801e c1bc b8f6 763d cfa9 0d3d 1464 963d
000000d0: c076 fbbd b10e f6bd 9ae3 bb3d d8c6 b0bb
000000e0: 6989 193c 69bf debd e2f9 e0bd b10a 003c
000000f0: a91c 193d fbd9 d93d 4fef b8bd 06de 243d

fc.weight f4 [3, 64]
0.08570213 -0.02862994 0.024005193 0.009515778 -0.025531856 -0.046602163 -0.051392995 -0.045987703
0.07535943 -0.013707118 -0.006834017 0.11561097 0.08476131 -0.07632167 -0.0831191 -0.11230404
0.051667847 -0.05515081 -0.016319696 -0.008023203 0.08385356 -0.10737184 0.031175522 0.087802246
0.04553383 0.034568526 0.10239654 0.042985696 -0.081955545 -0.100469925 -0.07544679 0.10887561
0.05699455 -0.017744435 -0.058686122 -0.089100175 -0.08572374 0.077925965 0.07101639 -0.014881485
0.06371529 0.004270674 0.003693888 0.10361496 0.036195185 0.09792069 -0.004092127 0.051848743
-0.00610756 -0.03403003 -0.09843975 -0.1165808 -0.030033056 0.039248206 -0.08055828 0.11774893
-0.013936518 -0.096289985 -0.07485354 -0.047362525 0.05192745 0.117078416 0.11502551 0.1074147
0.040919222 -0.08457351 -0.012455348 0.08195774 0.086867794 0.09861818 -0.09200088 -0.020877466
-0.075360574 0.10035017 -0.0507894 0.10734043 0.042488143 0.024923934 0.079065956 -0.079847865
-0.027218081 0.09906846 -0.038018513 -0.04289605 0.072352536 0.09729074 -0.03408382 -0.04592522
0.051563986 -0.082934044 0.028465757 0.08557479 0.06899725 0.006945477 -0.1199581 -0.06064584
0.06925778 -0.0040456895 -0.078038625 -0.029018808 -0.049483854 -0.092877276 -0.036867335 0.05727146
0.08945504 0.122019365 -0.059631232 -0.065663405 0.000964135 -0.012214592 -0.10730425 -0.08098774
0.0062276917 -0.07501036 -0.056644082 -0.029248074 -0.069221534 -0.07710858 -0.03310063 0.07075649
0.10783509 0.061376017 0.013386054 0.055103995 -0.016627986 -0.04645395 0.0048874584 -0.09006446
0.06280432 0.04343232 0.07799896 0.0670677 0.0041568405 -0.05537159 -0.066667266 -0.07922306
0.0056015933 0.10216862 -0.0034583819 0.03897872 0.020981856 -0.04396563 0.053752918 0.046651337
-0.09303123 -0.069227934 0.09270237 -0.01674525 -0.039926913 0.102181196 0.09628049 -0.07889032
0.0028735977 -0.06726964 0.023707323 -0.11796744 0.059376568 -0.060386945 0.0775697 -0.07296525
-0.112422585 -0.014211256 0.05760248 0.099277616 0.06394267 -0.043321405 -0.015617172 -0.041442603
-0.09924589 -0.041707896 -0.12045654 0.052620552 0.02941577 -0.10709014 0.038837068 -0.09750106
0.09486871 0.103808545 -0.019518256 -0.009193016 0.08671175 -0.051551983 -0.0010816358 0.078678995
0.10220943 -0.08137271 -0.10880337 -0.06374275 -0.06261948 -0.098951295 0.077111736 -0.09384726
00000000: 9984 af3d 5689 eabc 8aa6 c43c 11e8 1b3c
00000010: 2f28 d1bc e9e1 3ebd 7681 52bd 9a5d 3cbd
00000020: 0b56 9a3d d293 60bc e4ef dfbb 72c5 ec3d
00000030: 5697 ad3d 894e 9cbd 593a aabd a9ff e5bd
00000040: aaa1 533d d1e5 61bd e2b0 85bc c173 03bc
00000050: 6abb ab3d c4e5 dbbd cf63 ff3c aad1 b33d
00000060: ae81 3a3d ba97 0d3d 47b5 d13d c511 303d
00000070: 4fd8 a7bd 2dc3 cdbd d983 9abd 2dfa de3d
00000080: 1e73 693d c75c 91bc dc60 70bd 277a b6bd
00000090: ee8f afbd a697 9f3d 0b71 913d 79d1 73bc
000000a0: 297d 823d 03f1 8b3b 2815 723b 1534 d43d
000000b0: 6741 143d a58a c83d 4017 86bb 595f 543d
000000c0: ed21 c8bb 1363 0bbd c89a c9bd eac1 eebd
000000d0: e207 f6bc bac2 203d bdfb a4bd 5a26 f13d
000000e0: fe55 64bc af33 c5bd d04c 99bd 35ff 41bd
000000f0: e1b1 543d cfc6 ef3d 7f92 eb3d 3dfc db3d
00000100: ea9a 273d e034 adbd 8411 4cbc 76d9 a73d
00000110: bee7 b13d 54f8 c93d f56a bcbd 3807 abbc
00000120: a556 9abd 6484 cd3d 8c08 50bd 4dd5 db3d
00000130: 0c08 2e3d 472d cc3c 55ed a13d 4787 a3bd
00000140: 74f8 debc 68e4 ca3d 4db9 1bbd c5b3 2fbd
00000150: 912d 943d 5e40 c73d 7a9b 0bbd 151c 3cbd
00000160: c234 533d 53d9 a9bd 0531 e93c d641 af3d
00000170: 6e4e 8d3d e296 e33b 98ac f5bd c667 78bd
00000180: 06d7 8d3d b491 84bb b7d2 9fbd dab8 edbc
00000190: 95af 4abd 7136 bebd 3402 17bd 7a95 6a3d
000001a0: 3434 b73d 4ae5 f93d e13f 74bd 897a 86bd
000001b0: 01be 7c3a b61f 48bc 55c2 dbbd e6dc a5bd
000001c0: aa11 cc3b 089f 99bd a003 68bd a899 efbc
000001d0: 05c4 8dbd 1aeb 9dbd 8794 07bd c7e8 903d
000001e0: a5d8 dc3d 6b65 7b3d 2e51 5b3c bab4 613d
000001f0: 6a37 88bc 7f46 3ebd f926 a03b b773 b8bd
00000200: 8d9f 803d 17e6 313d ebbd 9f3d ca5a 893d
00000210: 1b36 883b 52cd 62bd d988 88bd b33f a2bd
00000220: 928d b73b c83d d13d 05a6 62bb 26a8 1f3d
00000230: 24e2 ab3c 4e15 34bd 052c 5c3d 7915 3f3d
00000240: 2887 bebd 60c7 8dbd bdda bd3d 562d 89bc
00000250: 678a 23bd 6044 d13d b52e c53d 4091 a1bd
00000260: f852 3c3b aac4 89bd dc35 c23c ea98 f1bd
00000270: d834 733d 4d58 77bd dddc 9e3d ce6e 95bd
00000280: d03d e6bd 54d6 68bc 94f0 6b3d 1052 cb3d
00000290: 60f4 823d c971 31bd 2bdf 7fbc b8bf 29bd
000002a0: 6e41 cbbd e6d5 2abd ebb1 f6bd a688 573d
000002b0: 57f9 f03c 1352 dbbd 9e13 1f3d a3ae c7bd
000002c0: 874a c23d 9399 d43d c0e4 9fbc 4e9e 16bc
000002d0: ee95 b13d 2c28 53bd adc5 8dba 7422 a13d
000002e0: 2d53 d13d bca6 a6bd 4dd4 debd 8f8b 82bd
000002f0: a43e 80bd faa6 cabd c2ec 9d3d fe32 c0bd

fc.bias f4 [3]
-0.08958787 -0.066544294 -0.009301299
00000000: d879 b7bd 6048 88bd 7a64 18bc
