trainedModels/1620928408/rnn.pt (torch, 22538 bytes, 6 tensors)

rnn_layer.weight_ih_l0 f4 [64, 12]
0	0xbd4afd03	-0.049557697
1	0xbde75861	-0.11296154
2	0x3d6bb41d	0.057544816
3	0xbd136913	-0.03598888
4	0x3c9df446	0.019281518
5	0xbe155356	-0.14582571
6	0xbc5a68fb	-0.013330693
7	0x3d03ff37	0.032225814
8	0xbdfda1ea	-0.12384398
9	0xbb194718	-0.0023388322
10	0xbbef3af6	-0.00730073
11	0xbcb6b5d1	-0.022303494
12	0x3dcc2dc0	0.099696636
13	0x3d2cbc12	0.042171545
14	0x3d448671	0.047979776
15	0x3dcf58ed	0.10124383
16	0x3de898aa	0.11357243
17	0xbd2ec55f	-0.042668696
18	0xbc2dfdba	-0.010619575
19	0xbd868678	-0.06568617
20	0x3ddd3a1b	0.10802098
21	0xbcc9fa52	-0.024655495
22	0x3cd2ed60	0.025747955
23	0xbdb3dfcd	-0.08782921
24	0xbd128712	-0.035773344
25	0x3c59d9d7	0.013296566
26	0xbdb5f921	-0.08885408
27	0xbd292232	-0.041292377
28	0xbd31acfb	-0.043377858
29	0xbdc70e9b	-0.09719583
30	0xbc231305	-0.009953265
31	0xbc21ad5e	-0.009867994
32	0x3ca0a2c1	0.019608857
33	0xbe1f709a	-0.15570298
34	0x3cdb0fcf	0.026740937
35	0xbd74e82f	-0.05979174
36	0xbda89e48	-0.08233315
37	0xbd9f0cd1	-0.077661164
38	0x3d7429eb	0.05961029
39	0xbd313fd7	-0.043273773
40	0xbe04fbd9	-0.12986697
41	0xbd312be3	-0.043254744
42	0x3c62db74	0.013846267
43	0xbd68deb2	-0.056853004
44	0x3d18cf90	0.037307322
45	0xbe03c22e	-0.12867042
46	0x3da5db84	0.0809851
47	0x3be6e6ee	0.007046572
48	0x3cf4f0c7	0.029899968
49	0xbda28c6a	-0.07936938
50	0x3d1871df	0.03721797
51	0xbc4a072e	-0.012330813
52	0x3dc89263	0.09793546
53	0xbdcddd8d	-0.10052023
54	0xbcb528ce	-0.022114184
55	0x3d547ae7	0.05187502
56	0xbe24c6bb	-0.16091435
57	0x3d3b96fe	0.045798294
58	0xbd2d4ccc	-0.042309567
59	0xbdaf4b63	-0.08559301
60	0x3ba4a08c	0.0050240215
61	0xbdba79f0	-0.09105289
62	0x3df6cfa8	0.12051326
63	0xbd002342	-0.031283624
64	0xbcc5a189	-0.024124878
65	0xbdcd5080	-0.1002512
66	0xba944ee1	-0.0011315012
67	0x3d60df18	0.05490026
68	0xbd8fbcac	-0.07018408
69	0x3d7c2801	0.06156159
70	0x3ccb360a	0.024806041
71	0x3d43a6ca	0.047766484
72	0x3d59630c	0.053072974
73	0xbdba1532	-0.09086074
74	0xbc7e6f32	-0.015529441
75	0xbd68887d	-0.05677079
76	0xbddc77f1	-0.107650645
77	0x3dd9026f	0.10596167
78	0x3c8f8c50	0.01752296
79	0xbe7486e0	-0.23879576
80	0x3d04bd95	0.032407362
81	0x3dcf97bb	0.10136362
82	0xbc923a48	-0.017850056
83	0xbd80ac19	-0.06282825
84	0x3dc48615	0.095958866
85	0x3dd7a451	0.10529388
86	0xbdc4c44e	-0.09607755
87	0x3c6d2f02	0.01447654
88	0x3b900a75	0.004395778
89	0x3b22a4f8	0.0024817567
90	0xbd02687f	-0.031837936
91	0x3d331c2f	0.04372805
92	0xbdc49075	-0.095978655
93	0xbd1303c7	-0.035892274
94	0x3d11dffb	0.035613995
95	0xbd229bf8	-0.039699525
96	0x3d35b5c3	0.044362795
97	0x3d8befe9	0.068328686
98	0x3c83dd63	0.016096776
99	0x3c218726	0.009858882
100	0x3d6e06ba	0.058111884
101	0xbdc29856	-0.09501712
102	0xbb5d99e4	-0.003381365
103	0x3e21564b	0.15755574
104	0xbd9287f8	-0.0715484
105	0xbdb8cbcc	-0.09023246
106	0xbb03e586	-0.002012582
107	0x3cdcb080	0.02693963
108	0x3c6e03d0	0.014527276
109	0x3d5a2a3a	0.053262927
110	0x3e08d050	0.13360715
111	0xbdcceaec	-0.10005745
112	0x3ce4400f	0.027862577
113	0x3e0d5f72	0.13805941
114	0xbc78ab3a	-0.015177542
115	0x3e49a032	0.19690016
116	0xbc5dce1c	-0.01353791
117	0x3da19b8e	0.07890998
118	0x3d7957df	0.060874816
119	0xbd893225	-0.066990174
120	0xbb30d767	-0.0026983859
121	0x3d84a764	0.0647724
122	0x3e376631	0.17910077
123	0x3e291ffc	0.16516107
124	0x3dc8ed48	0.09810883
125	0x3da9dba6	0.08293848
126	0xbcf4b12b	-0.029869637
127	0x3e569b0b	0.20957582
128	0x3d898801	0.06715394
129	0xbcedd19f	-0.02903062
130	0xbbc02f50	-0.005865015
131	0x3e0470d7	0.1293367
132	0xbd09cd82	-0.033643253
133	0xbd931052	-0.07180847
134	0xbd0aebe5	-0.033916373
135	0xbe079d67	-0.13243638
136	0xbd233832	-0.039848514
137	0xbd1f6448	-0.038913995
138	0x3aba57a2	0.001421679
139	0xbdcd188d	-0.10014448
140	0xbcf4b3e6	-0.029870939
141	0x3cb6e4bd	0.022325868
142	0xbd3b0d76	-0.045667134
143	0xbd14a80f	-0.036293086
144	0xbd566706	-0.052344345
145	0x3ced0aa1	0.028935732
146	0x3d8b044b	0.06787928
147	0x3dc299a5	0.095019616
148	0x3dc2ff56	0.09521358
149	0x3d7a879a	0.061164476
150	0xbcde54ca	-0.02714004
151	0x3e3f728d	0.18696041
152	0xbc40686e	-0.011743648
153	0xbc46df9f	-0.012138276
154	0x3d5f7dc9	0.054563317
155	0xbddc0a01	-0.107440956
156	0x3e123149	0.14276613
157	0x3d52a986	0.0514312
158	0x3d3f5168	0.046708494
159	0xbd34dfe0	-0.044158816
160	0x3cb3dd9f	0.021956263
161	0xbd85c075	-0.06530849
162	0xbccd9a90	-0.025098115
163	0xbcef1a50	-0.029187351
164	0x3d49e364	0.049289122
165	0x3d257ed2	0.04040415
166	0x3d4f6259	0.0506309
167	0xbd16c99a	-0.036813356
168	0xbd51583f	-0.05110955
169	0x3c77c49d	0.01512256
170	0xbd410a3f	-0.047128912
171	0x3e110cb8	0.14165008
172	0x3db41a35	0.08794061
173	0x3da51cf5	0.08062164
174	0x3c31767a	0.01083147
175	0x3d30f0bd	0.043198336
176	0xbda59348	-0.08084732
177	0x3cbe7ab9	0.023251878
178	0x3b937415	0.004499922
179	0xbe09d825	-0.13461359
180	0x3d81f016	0.06344621
181	0x3c89d675	0.016825894
182	0x3d89339f	0.06699299
183	0x3ce62865	0.028095433
184	0x3e049477	0.1294726
185	0xbdf973db	-0.12180301
186	0xb9696c30	-0.00022260915
187	0x3dcfd2cf	0.101476304
188	0xbd0851a4	-0.033280984
189	0xbe037293	-0.12836675
190	0x3d3bf830	0.045890987
191	0xbe16802c	-0.14697331
192	0x3d1143a8	0.035464913
193	0xbd05d279	-0.032671425
194	0x3df75d33	0.12078323
195	0x3cf37a6e	0.029721465
196	0x3c96f33e	0.018426534
197	0xbcd070a6	-0.02544434
198	0x3d008f88	0.031386882
199	0x3ce45d3e	0.027876493
200	0xbcf2b487	-0.029627098
201	0x3d72bdd8	0.05926308
202	0x3d94be65	0.072628774
203	0xbd269d40	-0.04067731
204	0xbd4e8b18	-0.05042562
205	0xbd5c6131	-0.053803626
206	0x3dc31aed	0.0952662
207	0xbae75f88	-0.0017652372
208	0xbd8e55e4	-0.06949976
209	0xbd5f3edf	-0.054503318
210	0xbbbf131d	-0.005831136
211	0x39ffe447	0.0004880747
212	0x3d8af1cd	0.06784401
213	0xbe4a22f4	-0.19739896
214	0xbd2bec13	-0.041973185
215	0x3dfe3866	0.12413101
216	0xbd9b73a3	-0.07590415
217	0x3d67d993	0.05660398
218	0xbde96a99	-0.11397285
219	0xbc7ac501	-0.015305758
220	0xbd82a7e4	-0.06379679
221	0x3cfe50c6	0.031044375
222	0x3cb62c69	0.022237973
223	0xbd5c6f67	-0.05381718
224	0x3d1c3a36	0.03814145
225	0xbbfbf744	-0.0076893885
226	0x3c819089	0.01581599
227	0x3de0e8d5	0.10981909
228	0x3d33a50f	0.043858584
229	0xbc0393de	-0.00803086
230	0x3d4efb08	0.05053237
231	0x3dcf10a4	0.10110596
232	0xbde96f92	-0.113982335
233	0x3e0df0df	0.13861416
234	0x3baceb52	0.005277076
235	0x3d6077dd	0.05480181
236	0xbd2c75a4	-0.04210438
237	0x3d999bfb	0.07500454
238	0x3dfc30e3	0.12314012
239	0xbd3bab67	-0.04581776
240	0xbda97f7a	-0.08276267
241	0xbceaf46d	-0.028681004
242	0xbd05e4cf	-0.032688912
243	0x3e35ae67	0.1774231
244	0xbda941f2	-0.08264531
245	0x3d9c1cc2	0.076226726
246	0xbc32dd67	-0.010917044
247	0xbde366d4	-0.11103597
248	0x3de7ba14	0.113147885
249	0x3be67588	0.007033054
250	0x3d33129f	0.04371893
251	0x3da18ff9	0.07888789
252	0xbd94f243	-0.0727277
253	0x3ddfe63d	0.10932586
254	0xbe069675	-0.13143332
255	0x3c49b5c0	0.012311399

rnn_layer.weight_hh_l0 f4 [64, 64]
0	0xbef5ae32	-0.47984463
1	0x3cc6de14	0.024275817
2	0x3d66a823	0.05631269
3	0xbc0fe346	-0.008782214
4	0xbd18be4e	-0.037290864
5	0x3cacfdcc	0.021117114
6	0x3cd6a813	0.02620319
7	0xbd77fd64	-0.060544387
8	0x3df51dc6	0.119685695
9	0xbdb2d1b7	-0.08731406
10	0x3c687ef2	0.014190422
11	0x3d725a7f	0.059168335
12	0x3cdcc2f3	0.026948428
13	0x3d02ea89	0.03196195
14	0x3d538dff	0.05164909
15	0xbdf08855	-0.11744753
16	0xbda99050	-0.082794785
17	0xbc08bca9	-0.008345761
18	0x3b96b40e	0.004599101
19	0x3d94dea5	0.072690286
20	0xbd650488	-0.055912524
21	0xbda6188d	-0.081101514
22	0x3e10bd48	0.14134705
23	0x3ccbf1d8	0.024895594
24	0xbe374559	-0.17897548
25	0x3cfe547a	0.031046141
26	0xbd9684f1	-0.07349575
27	0xbcff6af5	-0.03117893
28	0xbd2fd7fc	-0.042930588
29	0xbde4664b	-0.11152323
30	0xbcedd0b0	-0.029030174
31	0x3da824ec	0.08210167
32	0x3d574400	0.052555084
33	0x3dc8826e	0.097905025
34	0xbbfab444	-0.007650884
35	0x3bc75be6	0.006083953
36	0xbda86413	-0.08222213
37	0xbdf6a30f	-0.1204282
38	0xbd1dc1b5	-0.03851481
39	0xbdf7332f	-0.12070309
40	0x3d5386ac	0.051642105
41	0xbd71ce57	-0.05903467
42	0x3bc32b20	0.0059560686
43	0x3e043e0b	0.12914293
44	0xbd11c09d	-0.03558408
45	0x3d6209aa	0.055184998
46	0x3d704eda	0.05866895
47	0xbd991aeb	-0.07475837
48	0x3c158ddb	0.009128059
49	0xbcdc6eec	-0.02690836
50	0x3ca0f319	0.019647168
51	0xbc18f1d3	-0.009334999
52	0x3d4f2b26	0.05057826
53	0x3db45989	0.0880614
54	0x3da528a2	0.08064391
55	0xbde63c56	-0.11241977
56	0xbdd2228e	-0.10260497
57	0x3de7e387	0.11322694
58	0xbd75c6a5	-0.060003895
59	0xbd4df8c8	-0.050286084
60	0xbddeb814	-0.10874954
61	0x3d5ae042	0.053436525
62	0xbc518bbd	-0.012789664
63	0xbc639989	-0.013891586
64	0x3beab6b9	0.0071628955
65	0xbf09f414	-0.5388806
66	0x3d69b8cd	0.057061005
67	0xbbe69584	-0.0070368666
68	0xbdede65d	-0.11616204
69	0xbdb09af4	-0.08623305
70	0x3bf234ac	0.007391533
71	0xbb68a553	-0.0035498932
72	0xbc82563b	-0.015910259
73	0x3de3b12e	0.11117779
74	0x3cf28fbb	0.029609552
75	0xbd1b112c	-0.037858173
76	0x3d3fa174	0.046784833
77	0xbd182174	-0.03714128
78	0xbd2df9e9	-0.04247466
79	0xbdbafe08	-0.09130484
80	0xbd0a6402	-0.03378678
81	0xbdbd9996	-0.0925781
82	0x3dd6606c	0.1046761
83	0xbda8f0aa	-0.08249028
84	0x3d51081f	0.051033136
85	0x3d966c0a	0.073448256
86	0xbb763a66	-0.003757143
87	0x3d04576b	0.03230993
88	0xbd8fb473	-0.0701684
89	0x3dc8125d	0.097691275
90	0x3dee9901	0.11650277
91	0x3b02fda0	0.0019987598
92	0x3a5c88a7	0.0008412697
93	0xbbf907bd	-0.0075997994
94	0xbe17b8c8	-0.14816582
95	0xbcafa028	-0.021438673
96	0xbcdafd85	-0.026732216
97	0xbd55f829	-0.052238617
98	0x3d8b6f36	0.06808321
99	0x3daab6dd	0.0833566
100	0x3e02ae91	0.12761904
101	0xbe1370d6	-0.14398512
102	0xbcfaeaf3	-0.03062961
103	0x3d8a09c1	0.06740142
104	0x3c3f8fde	0.011692015
105	0xbd31eec9	-0.043440614
106	0x3e107ae6	0.14109382
107	0xbdb06bf0	-0.086143374
108	0x3e024199	0.12720336
109	0xbe0582c6	-0.13038167
110	0xbdec9cbb	-0.115533315
111	0xbd13b998	-0.036065668
112	0x3c9d732f	0.019219963
113	0xbdf89be6	-0.1213911
114	0xbd85370e	-0.065046415
115	0x3dc403e0	0.095710516
116	0xbdb4ec05	-0.0883408
117	0x3b245c68	0.0025079492
118	0xbd803115	-0.06259362
119	0x3d3138c8	0.04326704
120	0xbd6cc98b	-0.057809394
121	0xbdac79b7	-0.08421653
122	0xbc8af491	-0.016962321
123	0x3e26ddaa	0.16295496
124	0x3ce94cfb	0.02847909
125	0xbc317743	-0.010831657
126	0x3d1dce31	0.038526718
127	0x3dba54d3	0.0909821
128	0x3cfc29b9	0.030781614
129	0xbceb1ca0	-0.028700173
130	0xbf133da1	-0.57515913
131	0xbdab3f1c	-0.083616465
132	0xbd85829b	-0.06519052
133	0x3dc9ef39	0.09860081
134	0x3d1606bc	0.036627516
135	0x3da165f6	0.07880776
136	0xbdbd2f92	-0.09237589
137	0x3d1f631e	0.038912885
138	0x3d47d04c	0.04878263
139	0x3cc1c921	0.023655476
140	0x3c8c4d2e	0.017126646
141	0xbd5eb6ee	-0.054373674
142	0xbd174c85	-0.03693821
143	0xbdf06ea5	-0.11739854
144	0xbdaece1f	-0.08535408
145	0x3c4c4a9c	0.01246896
146	0xbd3e8a6f	-0.04651874
147	0x3ddc0fec	0.10745224
148	0xbcbc03a5	-0.022950957
149	0x3cf27381	0.029596092
150	0xbcb4c4d7	-0.022066517
151	0xbbe04e3c	-0.0068452638
152	0x3cbe2a11	0.023213418
153	0x3d4e6a98	0.050394624
154	0x3d2198bb	0.039452296
155	0x3c0df9fe	0.00866556
156	0x3cf14b16	0.02945475
157	0x3c45413b	0.012039478
158	0x3b81e0b1	0.003963553
159	0xbd2ded20	-0.04246247
160	0x3d9dc0f8	0.077028215
161	0xbd4c4f19	-0.04988012
162	0x3dfb086e	0.12257467
163	0x3dd120e7	0.10211354
164	0xbdcc18a6	-0.09965639
165	0x3d692b82	0.056926258
166	0x3d12472b	0.035712402
167	0xbd489d8a	-0.048978366
168	0x3d9d3311	0.07675756
169	0xbccae22a	-0.024766047
170	0xbb952290	-0.0045512393
171	0x3d61e858	0.05515322
172	0xbd6c316f	-0.05766433
173	0x3dbd3605	0.09238819
174	0xbc0306bf	-0.007997214
175	0x3d3ed813	0.046592783
176	0xbbd16fd4	-0.006391505
177	0xbcb53898	-0.022121713
178	0xbe1b3141	-0.15155508
179	0x3b1e0b9e	0.002411581
180	0x3caef772	0.021358225
181	0xbd231a22	-0.039819844
182	0xbc60f430	-0.013730094
183	0xbc9107d0	-0.01770392
184	0x3d2645ed	0.04059403
185	0x3e15d909	0.14633574
186	0x3dd19df6	0.10235207
187	0x3cd65a43	0.026166087
188	0xbbbabfec	-0.0056991484
189	0xbd4e2575	-0.05032869
190	0xbdd9414b	-0.10608157
191	0x3b09a5ed	0.002100344
192	0xbd070080	-0.03295946
193	0xbc2fc96e	-0.010729177
194	0xbd7f7754	-0.06236966
195	0xbf1752d8	-0.59110785
196	0x3c88ff6f	0.016723363
197	0xbcc904ca	-0.024538416
198	0xbb767742	-0.0037607704
199	0x3d982995	0.07429806
200	0xbd94f689	-0.07273585
201	0xbdddf926	-0.10838537
202	0xbda32da1	-0.079676874
203	0xbcd4e273	-0.025986886
204	0x3d5a428e	0.053286128
205	0xbd711e64	-0.058866873
206	0xbd0f2004	-0.03494264
207	0xbc334dda	-0.010943854
208	0xbdea694c	-0.11445865
209	0x3c6ee920	0.0145819485
210	0xbd824ee4	-0.063627034
211	0x3d7dd701	0.06197262
212	0x3dc4474d	0.09583912
213	0x3e072621	0.13198139
214	0xbd83ebcc	-0.06441459
215	0xbe0da20b	-0.13831346
216	0xba987dcc	-0.001163417
217	0xbdab2a2a	-0.083576515
218	0x3de4a126	0.11163549
219	0xbd473998	-0.04863891
220	0x3bbdafa4	0.0057887603
221	0x3d283102	0.041062362
222	0xbd36c7b1	-0.044624034
223	0xbc3db3a2	-0.011578472
224	0xbc479eba	-0.012183839
225	0x3c9f15f5	0.01941965
226	0x3dbc8d81	0.09206677
227	0x3d0cdbba	0.034389235
228	0xbd87ef51	-0.06637443
229	0xbc216e11	-0.009852902
230	0x3d3513b5	0.044208247
231	0x3da5c4ce	0.08094178
232	0xbd549539	-0.051900122
233	0x3d607c27	0.0548059
234	0xbd63b712	-0.05559451
235	0x3dc6f918	0.097154796
236	0x3d3025ff	0.043004986
237	0x3c44763c	0.01199108
238	0xbd21ee03	-0.039533626
239	0x3d4990d3	0.04921038
240	0xbdb3fa62	-0.08787991
241	0xbc578795	-0.013154884
242	0x3d04d1c1	0.0324266
243	0x3d5ed821	0.054405335
244	0xbc0f6333	-0.008751678
245	0x3d067f55	0.032836277
246	0xbc3080e1	-0.010772915
247	0x3d1daa88	0.03849271
248	0xbaa46975	-0.0012543636
249	0x3d82b814	0.06382766
250	0x3d9baa53	0.07600846
251	0xbd8b5eea	-0.06805213
252	0xbd2e9315	-0.042620737
253	0xbdacaf4b	-0.08431872
254	0x3d99dca8	0.0751279
255	0x3dcef347	0.10104995

rnn_layer.bias_ih_l0 f4 [64]
0	0x3d6a9e8e	0.057280116
1	0x3b07be72	0.002071288
2	0x3da31094	0.079621464
3	0x3b870744	0.004120739
4	0x3ccd4ed1	0.025061997
5	0xbd964839	-0.07337994
6	0x3bbf6ad9	0.0058415947
7	0x3d26c281	0.040712837
8	0x3ddb4c5b	0.10707923
9	0xbd5918f4	-0.053002313
10	0xbddac227	-0.10681563
11	0x3dc7c032	0.09753455
12	0xbad15327	-0.0015970216
13	0xbdb1573b	-0.08659216
14	0x3c38bd30	0.011275575
15	0x3cf525a5	0.029925177
16	0x3d4e77bc	0.050407156
17	0xbdd190dd	-0.102327086
18	0xbd7b94c3	-0.061421167
19	0xbd08dffb	-0.03341673
20	0xbbdb074f	-0.006684221
21	0xbd92e1df	-0.07171988
22	0x3d090aad	0.033457447
23	0xbda37314	-0.07980934
24	0x3de8727f	0.113499634
25	0xbda2ced2	-0.07949604
26	0xbd49caa1	-0.049265508
27	0x3d81402a	0.063110664
28	0xbd3c8a89	-0.046030555
29	0xbdb0b6d2	-0.0862862
30	0x3d96f6b6	0.07371275
31	0x3c3fecd9	0.011714184
32	0x3d023c0f	0.031795558
33	0x3d0dc866	0.034614943
34	0x3c8a7bed	0.016904796
35	0xbc881267	-0.016610337
36	0x3d45149e	0.048115365
37	0xbdabf308	-0.08395964
38	0x3de254ca	0.110513285
39	0x3cb36f9a	0.021903802
40	0x3ca0a50c	0.01960995
41	0x38384f24	4.3942724e-05
42	0x3a4d5f15	0.0007834298
43	0xbd3c11b6	-0.045915328
44	0x3d763aa1	0.060114507
45	0x3da621e0	0.0811193
46	0x3cab14f7	0.02088402
47	0x3d78b637	0.06072065
48	0x3db6d11e	0.08926605
49	0xbd5cf0ec	-0.0539407
50	0x3c9cd4ff	0.019144533
51	0x3d4290cc	0.04750137
52	0x3d640bca	0.055675305
53	0x3d9361ec	0.071964115
54	0xbd64acdc	-0.055828914
55	0x3e03110e	0.12799475
56	0x3c82bbe2	0.01595873
57	0x3d054947	0.032540586
58	0xbdd72e1c	-0.105068415
59	0xbd1669b2	-0.036721893
60	0xbdd1e7a2	-0.102492586
61	0x3d9b3ee8	0.07580358
62	0xbda7b59e	-0.081889376
63	0x3d34e2b1	0.044161502

rnn_layer.bias_hh_l0 f4 [64]
0	0x3d36e713	0.044653963
1	0xbd5d6d32	-0.054059215
2	0x3ccc403a	0.02493297
3	0x3d102e4d	0.035200406
4	0x3d7a1305	0.061053295
5	0x3d9e3868	0.077256024
6	0x3cd93438	0.026514158
7	0xbc7cbdba	-0.015426094
8	0xbdc8fd87	-0.098139815
9	0xbd5698b0	-0.052391708
10	0xbdbf356b	-0.093363605
11	0xba61a794	-0.000860804
12	0xbd5823f5	-0.052768666
13	0x3d6b3c96	0.057430826
14	0x3a84af90	0.0010123122
15	0x3b330506	0.0027316227
16	0xbdac6a6c	-0.08418736
17	0x3dc38d48	0.09548432
18	0x3d3cdec2	0.046110876
19	0xbcf23c32	-0.029569719
20	0xbd597085	-0.053085823
21	0x3d9c2354	0.07623926
22	0x3cd8cc24	0.02646453
23	0xbd81c7da	-0.06336947
24	0xbd0b0a62	-0.03394545
25	0x3d679b64	0.056544676
26	0xbd7eeeb2	-0.062239356
27	0x3af262ab	0.001849254
28	0xbddd529f	-0.10806774
29	0x3e08f870	0.13376021
30	0xbd984bc3	-0.074363254
31	0xbd919a9d	-0.07109568
32	0xbd0cd8c9	-0.03438643
33	0xbcede32e	-0.029038992
34	0xbcf599c8	-0.029980555
35	0x3d0c7cdd	0.034298766
36	0xbd08664c	-0.033300683
37	0x3dac8622	0.08424021
38	0xbdd98e2f	-0.106228225
39	0x3d8f38c9	0.06993253
40	0xbcf7941b	-0.03022199
41	0xbd9533e6	-0.072852895
42	0x3cac9064	0.021064945
43	0x3c2eeeb8	0.010677032
44	0x3b4cabd0	0.0031230338
45	0xbb4720a0	-0.0030384436
46	0xb930bdef	-0.00016855424
47	0xbdd11092	-0.10208239
48	0xbdd0a610	-0.10187924
49	0x3cb3aca5	0.02193291
50	0xbd8f414b	-0.069948755
51	0x3c5c41b8	0.013443403
52	0xbdcd62dd	-0.10028622
53	0xbdeefd79	-0.1166944
54	0x3d7c4d3f	0.061597105
55	0xbdabc7a1	-0.083876856
56	0xbd1f1959	-0.038842533
57	0x3da8e198	0.082461536
58	0x3d06490f	0.032784518
59	0xbd843eee	-0.064573154
60	0x3d022162	0.031770118
61	0x3cc417ab	0.023937067
62	0x3d3f43d3	0.04669554
63	0xbcfabf01	-0.030608656

fc.weight f4 [3, 64]
0	0x3daac94e	0.08339177
1	0xbd5d51f3	-0.05403323
2	0xbd05e81c	-0.03269206
3	0xba581922	-0.0008243491
4	0x3b769a6a	0.003762866
5	0xbcfa59b9	-0.030560361
6	0xbdbed309	-0.093175955
7	0x3d7eafcb	0.062179368
8	0x3d224a20	0.039621472
9	0x3d26e2cb	0.04074363
10	0x3ae1accb	0.0017217634
11	0xbd40a741	-0.047034506
12	0xbc12b027	-0.008953131
13	0x3d9ceebf	0.07662725
14	0x3cbb7bed	0.02288624
15	0x3aca8181	0.0015449972
16	0x3cde6954	0.027149834
17	0x3d9b1017	0.07571428
18	0x3dde3177	0.108492784
19	0x3b2820fb	0.0025654424
20	0xbcfc3b32	-0.030789945
21	0xbc51164d	-0.012761665
22	0xbce25fe8	-0.027633622
23	0x3be57ed8	0.0070036463
24	0x3dd181f9	0.102298684
25	0x3d775e25	0.060392518
26	0xbd229642	-0.03969408
27	0xbbed7775	-0.0072469064
28	0xbd71f8f7	-0.059075322
29	0x3d714b58	0.058909744
30	0x3a6d4c9a	0.0009052247
31	0xbd6f2660	-0.058386207
32	0x3bf7dd51	0.007564225
33	0x3d7a5d62	0.061124213
34	0x3d89d3dc	0.06729862
35	0xbd82331b	-0.06357404
36	0xbb9381e2	-0.004501567
37	0xbd97d706	-0.07414059
38	0x3d10908e	0.035294108
39	0x3cf0783d	0.02935421
40	0xbd7d8053	-0.061889958
41	0x3b4c1f3d	0.003114655
42	0x3ba667ac	0.0050782766
43	0x3d4c6c7d	0.04990815
44	0x3db559bc	0.08855006
45	0xbc82673c	-0.015918367
46	0xbd3279d9	-0.043573234
47	0xbd0afbc6	-0.033931516
48	0xbb33ff86	-0.0027465536
49	0xbca14e52	-0.019690666
50	0xbdd279d5	-0.10277144
51	0x3c41d1c2	0.011829795
52	0xbc295d89	-0.010337242
53	0x3d37a77b	0.044837456
54	0xbca82107	-0.020523561
55	0x3d39fd7d	0.04540776
56	0x3d07a5cc	0.0331171
57	0xbc84fe5b	-0.016234567
58	0xbc6834cb	-0.014172743
59	0x3d11ac79	0.035564873
60	0xbd148481	-0.036259178
61	0xbc34d5e6	-0.0110373255
62	0xbd8a3fa3	-0.06750419
63	0x3c172243	0.009224477
64	0x3dab656f	0.08368956
65	0xbd5b129e	-0.05348455
66	0xbcdcbc91	-0.026945384
67	0x39f1760e	0.0004605506
68	0x3b6a8666	0.0035785674
69	0xbd0f9754	-0.035056427
70	0xbdc0cdff	-0.09414291
71	0x3d77cfd4	0.060500935
72	0x3d2dd2cf	0.04243737
73	0x3d2eb7cd	0.042655755
74	0x3ab8118f	0.0014043319
75	0xbd48c82a	-0.049019016
76	0xbc23aa36	-0.009989312
77	0x3d972e33	0.07381859
78	0x3cb8cf89	0.022559898
79	0x3b2e20c2	0.0026569818
80	0x3cef45f3	0.02920816
81	0x3d8e1d53	0.06939187
82	0x3de43e44	0.11144689
83	0x3aafe9a9	0.0013421077
84	0xbd066b5a	-0.032817222
85	0xbc739914	-0.01486804
86	0xbcf79e6b	-0.030226907
87	0x3ab1ce70	0.0013565551
88	0x3dcaee07	0.09908681
89	0x3d7aa131	0.06118888
90	0xbd19115e	-0.03737008
91	0xbc4481d6	-0.011993846
92	0xbd6690e2	-0.056290515
93	0x3d7c80b3	0.061646175
94	0x3aff1e17	0.0019463924
95	0xbd64690b	-0.05576424
96	0x3c3bf901	0.011472941
97	0x3d5204c5	0.05127408
98	0x3d881250	0.06644118
99	0xbd738b31	-0.059458915
100	0xbbf71088	-0.0075398125
101	0xbd8ce497	-0.068795376
102	0x3d05401f	0.032531854
103	0x3ce935c7	0.028468026
104	0xbd7c1e95	-0.061552603
105	0x3b872fb0	0.004125558
106	0x3b6cc9e6	0.0036131083
107	0x3d385755	0.04500516
108	0x3db4e546	0.08832793
109	0xbc851136	-0.016243558
110	0xbd4596cf	-0.048239525
111	0xbd0961eb	-0.033540647
112	0xbbbc3850	-0.0057440177
113	0xbc94f231	-0.018181892
114	0xbdcc4349	-0.09973771
115	0x3c7bd3ac	0.015370291
116	0xbc1329f5	-0.008982171
117	0x3d400669	0.046881113
118	0xbc6894d7	-0.014195642
119	0x3d3f4480	0.046696186
120	0x3d0cd271	0.03438038
121	0xbc97a9f1	-0.018513652
122	0xbc30300e	-0.010753645
123	0x3d07e7e9	0.03318015
124	0xbd119110	-0.035538733
125	0xbc4d6158	-0.012535416
126	0xbd8a3367	-0.067480855
127	0x3c2813cc	0.010258626
128	0x3dac0ead	0.08401237
129	0xbd5edb1e	-0.054408185
130	0xbcd018fb	-0.025402537
131	0x3b168c30	0.0022971742
132	0x3afe4ee8	0.0019402178
133	0xbd09571d	-0.033530343
134	0xbdbd1fd4	-0.09234586
135	0x3d7e6d08	0.0621157
136	0x3d2abf6c	0.04168646
137	0x3d31ead5	0.043436844
138	0x3a601ffb	0.00085496873
139	0xbd5119cc	-0.051049992
140	0xbc0ae57c	-0.008477565
141	0x3d953d82	0.07287122
142	0x3cb9f1b7	0.022698266
143	0x3b6e0231	0.0036317224
144	0x3cfa3e3e	0.030547258
145	0x3d94f2a8	0.072728455
146	0x3dead537	0.11466449
147	0x3ae13043	0.0017180521
148	0xbd0c7534	-0.03429146
149	0xbc8a4e50	-0.016883045
150	0xbcfeb28e	-0.031091
151	0xb9f616d4	-0.00046937785
152	0x3dc66182	0.09686567
153	0x3d751021	0.059829835
154	0xbd1b5ebe	-0.03793215
155	0xbc3ba06a	-0.01145182
156	0xbd682b42	-0.05668188
157	0x3d82233f	0.06354379
158	0x3b0c83c3	0.002144084
159	0xbd5efbf3	-0.054439496
160	0x3c3e7434	0.011624385
161	0x3d3fab4c	0.04679422
162	0x3d866100	0.0656147
163	0xbd63b363	-0.055591
164	0xbc05e12d	-0.008171362
165	0xbd8bcc0c	-0.06826028
166	0x3cffe8ae	0.03123888
167	0x3ce4d0a8	0.027931526
168	0xbd7e8292	-0.06213624
169	0x3bcd3802	0.00626278
170	0x3b5a4d41	0.0033310207
171	0x3d3db639	0.04631636
172	0x3db3cfdc	0.087798804
173	0xbc8107e1	-0.015750827
174	0xbd3c1247	-0.045915868
175	0xbd0a62c0	-0.03378558
176	0xbbee2686	-0.007267776
177	0xbc89f959	-0.016842531
178	0xbdcd5e2c	-0.100277275
179	0x3c5cb148	0.0134700015
180	0xbc244a73	-0.010027516
181	0x3d441adf	0.04787719
182	0xbc598cd7	-0.013278208
183	0x3d43fa84	0.047846332
184	0x3d0ede35	0.034879882
185	0xbcb333ac	-0.021875225
186	0xbc165fbe	-0.0091781
187	0x3d05fd7d	0.03271245
188	0xbd10da02	-0.03536416
189	0xbc4d7751	-0.012540654
190	0xbd8837cf	-0.0665127
191	0x3c48112d	0.012211126

fc.bias f4 [3]
0	0x3d68bad4	0.0568188
1	0x3d689b2a	0.0567886
2	0x3d68afa0	0.056808114
