trainedModels/1620284078/rnn.pt (torch, 22538 bytes, 6 tensors)

rnn_layer.weight_ih_l0 f4 [64, 12]
-0.06128241 -0.07443022 0.10974602 0.058524348 -0.0688961 0.033542074 0.07321198 0.03965339
-0.057845004 0.08375787 -0.015605494 0.109855 0.00985311 -0.11039708 -0.07313632 -0.09945697
0.10471824 0.033546142 -0.011375383 -0.08865981 -0.07557606 -0.031424873 0.03450194 -0.11221171
0.052254915 0.020349933 -0.076304965 0.0111825215 0.06170951 -0.07310366 -0.0068603307 0.056466296
0.0944112 -0.030123707 -0.092398435 -0.04165321 -0.044727176 -0.056048106 0.077818304 -0.098375596
-0.03891246 0.11249506 0.06103669 0.041278094 0.06159805 -0.034312632 0.059046477 -0.016631378
0.045019954 0.06943857 -0.01684419 -0.08718707 -0.017429098 -0.033891242 0.08918229 -0.054832876
-0.068725854 0.088589534 0.018593788 -0.1129498 -0.11912911 0.019874156 0.12102348 -0.076712124
0.06552012 -0.029562527 0.086701825 -0.044383243 -0.08222144 0.06503507 -0.035944536 -0.04305487
0.08215563 -0.056395914 0.10862506 0.09275034 -0.093327284 -0.10265644 -0.087559596 0.045783624
-0.109888956 -0.07058558 0.056874454 -0.088898614 0.09755091 0.022112316 -0.025558913 0.070694074
-0.11081272 -0.042699713 0.11541338 -0.11564882 0.0008846774 0.05055965 0.014988616 -0.111261755
-0.11383204 -0.07780796 -0.03958381 -0.03116545 -0.030015573 -0.06782912 -0.014577076 0.03547004
0.113205194 -0.025008872 -0.103615105 -0.06382543 -0.031629965 -0.07333802 0.100677505 -0.119069815
-0.03241539 -0.093361914 0.07554366 0.035537228 -0.05528736 -0.08410755 -0.03062053 0.038437113
0.060103893 0.11782798 -0.09273456 -0.083979264 -0.008468211 0.10046926 -0.082211256 0.10292022
0.06113063 -0.006133198 -0.119254574 0.08313528 -0.10922572 -0.033528302 0.11681264 -0.010958602
-0.083503634 0.019405061 0.008373782 -0.027390704 0.0970153 -0.057123818 0.0061635375 0.08733048
0.004040554 0.0010854086 0.071530916 0.014547069 0.08512114 -0.035355773 0.11897674 -0.04185556
0.025063816 0.03353906 -0.059168845 0.09792312 -0.09411691 0.062447675 -0.0044386145 0.041934893
-0.0732684 0.06928348 0.044804707 -0.06536083 -0.06531113 -0.040368203 -0.07409552 0.047444727
0.040476963 -0.119860485 0.03308824 -0.04419717 0.0257712 0.118652724 0.02216895 0.1185914
-0.07356083 0.09066392 -0.008446366 -0.06472593 -0.08321601 0.031628463 0.113175794 -0.119271986
-0.060378 -0.051842712 0.109576866 -0.090153605 -0.04531575 -0.057802223 -0.08160302 -0.12009511
-0.044119 0.014246655 -0.03610775 -0.051563337 0.08047545 -0.04870887 -0.06333035 0.007858515
-0.11790995 0.06518656 0.057383537 -0.10448216 0.066345945 -0.0634918 -0.12168599 -0.115520306
0.019132793 0.04022943 -0.054608107 -0.05420938 -0.049553197 -0.041436147 -0.06786804 0.032292087
0.089828864 0.016727692 0.027139416 -0.0049883053 -0.0343249 -0.09719735 0.0544001 -0.055751428
-0.10080678 0.11714683 0.004615888 0.07445998 -0.11302626 0.012982432 0.044949878 0.11400812
-0.035680845 0.1168307 -0.076081514 0.07951881 0.09021195 -0.070704915 -0.028317451 0.02793171
0.09427674 -0.03324483 0.07971365 -0.06921648 0.10465273 0.060265657 0.09640573 -0.054143324
-0.09519408 -0.0825836 0.010155827 -0.049231876 0.0040578246 -0.05614525 0.11412503 0.09342787
00000000: 4403 7bbd df6e 98bd 85c2 e03d 3ab7 6f3d
00000010: 6619 8dbd 6a63 093d 2af0 953d 986b 223d
00000020: e2ee 6cbd 3f89 ab3d 30ae 7fbc a9fb e03d
00000030: f06e 213c dd17 e2bd 7fc8 95bd 19b0 cbbd
00000040: 8476 d63d ae67 093d d05f 3abc 4693 b5bd
00000050: 9fc7 9abd 5eb7 00bd e851 0d3d 41cf e5bd
00000060: 4009 563d e7b4 a63c c745 9cbd e536 373c
00000070: 1cc3 7c3d 5fb7 95bd a0cc e0bb 3449 673d
00000080: a95a c13d fec5 f6bc 643b bdbd 8e9c 2abd
00000090: d833 37bd b392 65bd 345f 9f3d 2579 c9bd
000000a0: ac62 1fbd cf63 e63d 9c01 7a3d 3813 293d
000000b0: 3d4e 7c3d 678b 0cbd b8da 713d 873e 88bc
000000c0: d866 383d cf35 8e3d d4fc 89bc 228f b2bd
000000d0: 78c7 8ebc 8bd1 0abd 34a5 b63d 7098 60bd
000000e0: 24c0 8cbd 6e6e b53d 0052 983c 3a52 e7bd
000000f0: f6f9 f3bd 20cf a23c 29db f73d 3f1b 9dbd
00000100: 6a2f 863d 1d2d f2bc ba90 b13d 34cb 35bd
00000110: b763 a8bd 1b31 853d 943a 13bd 4e5a 30bd
00000120: 3641 a83d 67ff 66bd d176 de3d e4f3 bd3d
00000130: 6022 bfbd 8a3d d2bd 7252 b3bd 9c87 3b3d
00000140: 760d e1bd 2c8f 90bd 30f5 683d 7a10 b6bd
00000150: c6c8 c73d e324 b53c ed60 d1bc 0ec8 903d
00000160: c8f1 e2bd e5e5 2ebd da5d ec3d 4ad9 ecbd
00000170: b2e9 673a a317 4f3d d092 753c 34dd e3bd
00000180: c620 e9bd c859 9fbd a222 22bd b04e ffbc
00000190: 38e3 f5bc fee9 8abd b0d4 6ebc 0849 113d
000001a0: 20d8 e73d 68df ccbc 2834 d4bd e8b6 82bd
000001b0: 6c8e 01bd 3e32 96bd 0230 ce3d e0da f3bd
000001c0: 00c6 04bd 8834 bfbd a2b6 9a3d 7c8f 113d
000001d0: 0075 62bd 9440 acbd e8d7 fabc 3c70 1d3d
000001e0: 802f 763d cc4f f13d 9eeb bdbd 52fd abbd
000001f0: 40be 0abc d4c2 cd3d 605e a8bd d6c7 d23d
00000200: 1d64 7a3d fef8 c8bb be3b f4bd d442 aa3d
00000210: bcb1 dfbd f954 09bd 773b ef3d b58b 33bc
00000220: f403 abbd 5df7 9e3c 3032 093c 7862 e0bc
00000230: f5af c63d aafa 69bd 80f7 c93b 53da b23d
00000240: a066 843b 4544 8e3a cd7e 923d d456 6e3c
00000250: fe53 ae3d 37d1 10bd 14aa f33d bc70 2bbd
00000260: a252 cd3c 4160 093d 085b 72bd eb8b c83d
00000270: 5ec0 c0bd 22c9 7f3d cc71 91bb ecc3 2b3d
00000280: be0d 96bd 7fe4 8d3d 2485 373d e6db 85bd
00000290: d7c1 85bd 2159 25bd 64bf 97bd 6755 423d
000002a0: 2ccb 253d 6a79 f5bd 8987 073d 1708 35bd
000002b0: 201e d33c 3300 f33d a89b b53c 0ce0 f23d
000002c0: 0fa7 96bd 01ae b93d a062 0abc 078f 84bd
000002d0: 286d aabd d98c 013d b6c8 e73d df44 f4bd
000002e0: ec4e 77bd 0659 54bd d669 e03d 74a2 b8bd
000002f0: 029d 39bd 06c2 6cbd 7c1f a7bd 6df4 f5bd
00000300: 20b6 34bd cd6a 693c b8e5 13bd 1434 53bd
00000310: 50d0 a43d f482 47bd 58b3 81bd 00c1 003c
00000320: c67a f1bd 8880 853d 000b 6b3d befa d5bd
00000330: 62e0 873d fd07 82bd 8136 f9bd e995 ecbd
00000340: 60bc 9c3c 9dc7 243d c0ac 5fbd a80a 5ebd
00000350: 4bf8 4abd f3b8 29bd 66fe 8abd b544 043d
00000360: 32f8 b73d 8308 893c 7b53 de3c f074 a3bb
00000370: 4498 0cbd 670f c7bd a4d2 5e3d 9c5b 64bd
00000380: c973 cebd adea ef3d e040 973b 797e 983d
00000390: 507a e7bd 44b4 543c 5d1d 383d 177d e93d
000003a0: 1426 12bd ef44 ef3d a0d0 9bbd c2da a23d
000003b0: 0bc1 b83d bdcd 90bd 00fa e7bc 0bd1 e43c
000003c0: 2a14 c13d bb2b 08bd e940 a33d 5fc1 8dbd
000003d0: 2c54 d63d 1fd9 763d 5e70 c53d 64c5 5dbd
000003e0: 1df5 c2bd 9721 a9bd a064 263c 5da7 49bd
000003f0: 80f7 843b 90f8 65bd 62ba e93d 1c57 bf3d

rnn_layer.weight_hh_l0 f4 [64, 64]
-0.0071428246 -0.0049121217 0.09180716 -0.040414948 0.073553756 -0.089638226 0.103626065 0.037340276
0.09690579 -0.017009292 0.07655687 0.122863404 -0.029164733 -0.0028373592 0.03914942 -0.071206555
-0.02432317 -0.07286442 0.018739378 0.038102295 -0.016812446 0.11756762 -0.041472774 0.04850706
-0.015661169 0.028363856 0.018666333 0.010259044 0.017173085 -0.10520718 -0.035504144 0.11392308
-0.054155286 0.07826345 0.005820975 0.019729732 -0.099293634 0.017512579 -0.09054476 0.091328196
-0.008102301 0.06356285 -0.10085205 -0.034601822 0.061860893 -0.091841824 -0.059757106 -0.07762421
-0.080382586 -0.0039285338 -0.008031611 0.042693533 0.09058913 -0.051939964 -0.02902448 -0.08810931
-0.07972211 0.07512932 -0.045995094 -0.09561837 0.061392896 0.056836672 -0.050564583 0.05618575
0.09928468 0.122756325 0.09424196 -0.011652898 -0.07144582 0.04037311 -0.10872016 -0.12563734
-0.07894862 -0.08048114 -0.0051387963 -0.055323575 0.06991636 0.12570056 0.12188936 -0.08669273
-0.0867501 0.078110404 0.039707538 0.12196172 -0.12261042 -0.10532158 0.07303126 0.088445224
-0.09091946 -0.06533836 0.084269755 0.05908513 -0.058049873 -0.01670116 0.09911905 0.076495945
0.016628534 0.013722443 0.020935174 -0.0077681956 -0.08685486 0.050687548 -0.04356457 0.031005539
0.019400554 -0.032315105 0.014530439 0.0996451 0.1179132 0.11147406 -0.033391442 -0.0065086535
0.007975724 0.04800473 -0.003348188 -0.023256855 0.050117068 -0.067980856 -0.0001011158 0.014369646
-0.10691316 0.0253141 0.04733021 0.07265833 0.06828022 -0.0690933 0.010565239 -0.12011565
0.030901935 0.09662347 0.015862819 0.0052795405 -0.06359044 -0.0040106745 -0.014684197 0.08207236
0.11428073 -0.04927843 0.019072097 -0.018782828 -0.07145125 -0.020344937 -0.104984336 0.08393286
-0.093557306 -0.04291771 0.10398012 0.03327039 -0.10188235 -0.117159925 0.11664973 -0.0052510817
0.028881915 -0.06309515 -0.06137779 -0.022583324 0.06571327 0.050398342 0.06278319 -0.07222027
-0.009308612 -0.03092031 0.039731722 -0.048757892 0.084946066 -0.120528474 -0.055818282 0.078238435
-0.07780427 0.024788056 -0.053326268 0.07020057 -0.032256626 0.030004516 -0.011107684 -0.057073273
0.08509147 -0.015134908 0.08659296 -0.016965115 -0.053481147 0.01010711 -0.0677786 0.046720468
-0.035221808 -0.08750606 -0.035479136 -0.011194071 -0.09039958 -0.04683542 0.12258374 -0.08558221
0.08653599 -0.039580323 0.12060565 0.023431068 0.095062196 -0.07201783 0.07181499 -0.12317373
0.07010679 0.10177871 -0.055246554 0.11098345 0.015063807 -0.07580211 -0.08426538 0.09766648
0.0065586776 -0.10497247 0.0074204328 0.11504443 -0.010048957 -0.11487597 -0.050741997 -0.020377407
-0.04525442 -0.086465925 0.009316403 0.08447804 -0.0039913887 0.028345125 -0.054472353 0.10372263
0.054542214 -0.09583314 -0.12106592 -0.09311167 -0.08405616 0.047161285 0.12241371 0.12122822
-0.06844298 0.04826486 -0.053720504 0.010921458 0.03231186 -0.10072478 -0.10306113 -0.08110349
0.020924155 -0.060106385 -0.10248787 -0.11540237 -0.0015378576 -0.01208704 0.06700636 -0.05521673
-0.09763074 -0.060518086 -0.040521886 -0.020621236 -0.038666703 -0.10626449 -0.12616733 -0.03528624
00000000: 5b0e eabb ddf5 a0bb 6405 bc3d 258a 25bd
00000010: 5aa3 963d 3f94 b7bd e739 d43d 1ef2 183d
00000020: 8b76 c63d 1257 8bbc d9c9 9c3d cf9f fb3d
00000030: e1ea eebc fdf2 39bb 245b 203d bed4 91bd
00000040: 6241 c7bc f139 95bd 5383 993c 2711 1c3d
00000050: 41ba 89bc 4bc7 f03d 5bdf 29bd 57af 463d
00000060: da4b 80bc 515b e83c 23ea 983c 8d15 283c
00000070: 92ae 8c3c dd76 d7bd cb6c 11bd 8150 e93d
00000080: efd1 5dbd 9648 a03d e1bd be3b 3fa0 a13c
00000090: 765a cbbd 8a76 8f3c 886f b9bd 470a bb3d
000000a0: 83bf 04bc 3d2d 823d 858b cebd a4ba 0dbd
000000b0: d961 7d3d 9117 bcbd dec3 74bd 71f9 9ebd
000000c0: a09f a4bd eeba 80bb 0597 03bc 6adf 2e3d
000000d0: cb86 b93d 00bf 54bd bfc4 edbc a772 b4bd
000000e0: 5845 a3bd 67dd 993d 5a65 3cbd 90d3 c3bd
000000f0: 1e77 7b3d 92cd 683d cf1c 4fbd 0723 663d
00000100: c455 cb3d ab67 fb3d ee01 c13d cceb 3ebc
00000110: 3052 92bd 465e 253d ada8 debd 13a7 00be
00000120: d0af a1bd 4cd3 a4bd 5963 a8bb f99a 62bd
00000130: 4f30 8f3d a6b7 003e 21a1 f93d f58b b1bd
00000140: 09aa b1bd 59f8 9f3d 5fa4 223d 11c7 f93d
00000150: 2c1b fbbd d7b2 d7bd 6a91 953d c522 b53d
00000160: fb33 babd 1ed0 85bd 9f95 ac3d 4003 723d
00000170: b4c5 6dbd dfd0 88bc eefe ca3d e8a9 9c3d
00000180: 9038 883c 19d4 603c 3e80 ab3c 598c febb
00000190: f6e0 b1bd bf9d 4f3d c370 32bd 54ff fd3c
000001a0: e9ed 9e3c d85c 04bd 1411 6e3c bb12 cc3d
000001b0: 7a7c f13d 834c e43d 77c5 08bd 8b46 d5bb
000001c0: 9cac 023c 9ca0 443d 466d 5bbb 2985 bebc
000001d0: 8e47 4d3d 8c39 8bbd 220e d4b8 aa6e 6b3c
000001e0: 49f5 dabd 845f cf3c 53dd 413d e4cd 943d
000001f0: 80d6 8b3d ca80 8dbd d319 2d3c 32ff f5bd
00000200: 0e26 fd3c 87e2 c53d bef2 813c ffff ac3b
00000210: b43b 82bd fa6b 83bb fc95 70bc 8e15 a83d
00000220: 040c ea3d 2ed8 49bd 163d 9c3c 72de 99bc
00000230: 0855 92bd 6daa a6bc 0702 d7bd fee4 ab3d
00000240: f99a bfbd 7bca 2fbd 87f3 d43d 8846 083d
00000250: b2a7 d0bd 8bf1 efbd 0ee6 ee3d 4411 acbb
00000260: c499 ec3c 0838 81bd 4767 7bbd aa00 b9bc
00000270: ae94 863d 7e6e 4e3d 7994 803d 39e8 93bd
00000280: 2683 18bc 974c fdbc bbbd 223d 5bb6 47bd
00000290: 34f8 ad3d a2d7 f6bd b6a1 64bd 793b a03d
000002a0: d857 9fbd 5210 cb3c a56c 5abd 51c5 8f3d
000002b0: 861f 04bd 08cc f53c 01fd 35bc aac5 69bd
000002c0: 7044 ae3d 68f8 77bc a657 b13d 6dfa 8abc
000002d0: 0c0f 5bbd 4b98 253c 82cf 8abd f65d 3f3d
000002e0: be44 10bd 6136 b3bd 9252 11bd 5667 37bc
000002f0: 6a23 b9bd 7fd6 3fbd 2f0d fb3d ba45 afbd
00000300: c839 b13d fa1e 22bd 1800 f73d 83f2 bf3c
00000310: f8af c23d 167e 93bd bd13 933d 8242 fcbd
00000320: 2694 8f3d 5b71 d03d 364a 62bd 4b4b e33d
00000330: 30ce 763c 233e 9bbd 5493 acbd 5d05 c83d
00000340: 2dea d63b cefb d6bd 1a27 f33b 6a9c eb3d
00000350: 61a4 24bc 1844 ebbd d7d6 4fbd 85ee a6bc
00000360: b35c 39bd 0c15 b1bd d4a3 183c d302 ad3d
00000370: 32ca 82bb 0934 e83c 671e 5fbd 886c d43d
00000380: a867 5f3d 2a44 c4bd 69f1 f7bd 55b1 bebd
00000390: a325 acbd 312c 413d 0ab4 fa3d 8046 f83d
000003a0: d52b 8cbd 60b1 453d 080a 5cbd eaef 323c
000003b0: 7159 043d cb48 cebd b711 d3bd 9619 a6bd
000003c0: 2269 ab3c 1d32 76bd 29e5 d1bd 1458 ecbd
000003d0: f091 c9ba b808 46bc a13a 893d f02a 62bd
000003e0: a0f2 c7bd d0e1 77bd 47fa 25bd deed a8bc
000003f0: fa60 1ebd 32a1 d9bd 0232 01be 4e88 10bd

rnn_layer.bias_ih_l0 f4 [64]
-0.041950867 0.08375238 -0.07092231 -0.041741226 0.0347983 0.12207742 0.084798284 -0.079488955
-0.12006748 0.01292457 -0.11641636 -0.018555159 -0.06634651 0.08951443 -0.03053078 -0.018519782
-0.054007027 0.093535535 -0.08171421 0.0065988624 -0.028809324 -0.024529088 0.039772566 -0.036219563
0.06375707 -0.06340227 -0.0037183878 0.077746004 0.047467165 0.10857974 0.04342055 0.020506484
0.010266571 0.11716972 -0.03612455 -0.12106035 -0.017422613 -0.08103126 -0.03306984 -0.035851754
-0.07114436 -0.037095193 0.016072702 -0.09371228 0.047032792 -0.01065274 0.012566824 -0.058653064
-0.024677211 0.032743875 0.07837128 0.013978663 -0.025189377 -0.0019263913 -0.10635752 -0.057124123
0.11691166 -0.025647191 -0.061928462 0.07494231 -0.059196226 -0.027965715 -0.044570416 0.07779932
00000000: acd4 2bbd 5e86 ab3d b73f 91bd d9f8 2abd
00000010: aa88 0e3d ba03 fa3d b9aa ad3d 1bcb a2bd
00000020: f0e5 f5bd 93c1 533c b36b eebd fd00 98bc
00000030: aee0 87bd 5753 b73d b01b fabc ccb6 97bc
00000040: 7936 5dbd 8f8f bf3d c859 a7bd 453b d83b
00000050: 8801 ecbc 3af1 c8bc 8fe8 223d f75a 14bd
00000060: 1193 823d 0dd9 81bd 32b0 73bb 4c39 9f3d
00000070: ee6c 423d 0e5f de3d bfd9 313d 37fd a73c
00000080: 1f35 283c aef6 ef3d 56f7 13bd 7dee f7bd
00000090: deb9 8ebc b8f3 a5bd 3e74 07bd 4ad9 12bd
000000a0: 22b4 91bd 21f1 17bd e6aa 833c 39ec bfbd
000000b0: 75a5 403d d488 2ebc 15e5 4d3c 323e 70bd
000000c0: dd27 cabc 711e 063d 1f81 a03d c306 653c
000000d0: f459 cebc f77e fcba f9d1 d9bd fcfa 69bd
000000e0: 616f ef3d 0f1a d2bc b3a8 7dbd 5b7b 993d
000000f0: be77 72bd 5b18 e5bc 788f 36bd 4055 9f3d

rnn_layer.bias_hh_l0 f4 [64]
-0.022113578 0.120774925 -0.013407781 -0.07524295 -0.060814984 0.056783125 -0.101504765 0.01652663
-0.013678691 -0.059856057 -0.029612593 0.0039369827 0.059772722 -0.070697896 0.08221717 0.026894324
0.021610957 -0.00023511954 -0.0042498675 0.007514539 -0.06465928 0.03881868 0.068869844 0.08613976
0.06895927 0.019464467 -0.053171646 0.04001245 0.026840203 -0.0011391953 0.065505795 0.008124468
-0.08101743 0.099525824 -0.022988996 -0.10232852 0.035603765 0.03443522 0.042801626 0.12432609
0.09434737 -0.022791686 0.10529557 -0.118535735 0.120058745 -0.032982014 -0.028944012 0.009267007
0.028158387 -0.05873942 -0.06407828 0.009536537 -0.016206808 -0.0043647876 0.12156776 -0.09337306
-0.037004016 -0.03781593 -0.05821027 -0.010539719 -0.026990807 0.030831153 0.0007335827 0.07620256
00000000: 8927 b5bc d858 f73d 4fac 5bbc fa18 9abd
00000010: 2219 79bd 6c95 683d bbe1 cfbd db62 873c
00000020: 971c 60bc a02b 75bd 1c96 f2bc ce01 813b
00000030: 3ed4 743d 0fca 90bd 7a61 a83d 7c51 dc3c
00000040: 7609 b13c 6c8a 76b9 7942 8bbb 863c f63b
00000050: 166c 84bd 5600 1f3d a20b 8d3d 0b6a b03d
00000060: 853a 8d3d f273 9f3c 83ca 59bd 18e4 233d
00000070: fcdf db3c 0d51 95ba e727 863d 7d1c 053c
00000080: 77ec a5bd 32d4 cb3d 6b53 bcbc 9d91 d1bd
00000090: 41d5 113d f20b 0d3d c250 2f3d ad9e fe3d
000000a0: 3239 c13d a1b5 babc 34a5 d73d ddc2 f2bd
000000b0: 5ce1 f53d 2618 07bd fe1b edbc a5d4 173c
000000c0: 6bac e63c bf98 70bd 793b 83bd 233f 1c3c
000000d0: 24c4 84bc 7e06 8fbb 85f8 f83d 603a bfbd
000000e0: 8691 17bd e0e4 1abd e46d 6ebd c9ae 2cbc
000000f0: d31b ddbc 9d91 fc3c e74d 403a 1610 9c3d

fc.weight f4 [3, 64]
0.022774851 -0.07791653 -0.11249276 0.022257587 -0.106880546 -0.013454424 -0.024953138 0.009103859
0.04030751 0.095023416 -0.10920983 0.009364278 0.09240116 0.11053586 0.060390454 -0.06989954
0.09549336 -0.11677175 0.040606707 0.10133453 0.102841616 0.035658877 0.10625245 0.044314496
0.016475106 0.050873097 -0.059553187 -0.08085883 0.07621659 -0.053091884 0.10594786 0.043697283
0.10304672 -0.120499656 -0.09082336 -0.037445508 -0.034954023 -0.052573565 0.11556175 0.081597395
-0.11351947 0.057554923 -0.09071118 -0.0721927 0.030682677 0.10296978 -0.010140087 0.081991136
-0.026959142 0.003278176 0.07717352 0.010814073 -0.026803048 0.059834942 0.036860634 -0.07702102
0.09062774 0.12645541 -0.064462304 -0.015488093 -0.115180634 -0.053290576 0.0071081007 -0.044084694
-0.0663927 -0.07406051 -0.0006812486 0.11168067 -0.021897424 -0.1186599 -0.09520635 0.06168266
0.06630028 -0.060584612 -0.059185717 -0.002340401 -0.104418986 0.001125755 0.027160069 0.007878231
0.053412557 -0.11977183 -0.04159337 0.08469588 0.11990996 0.06901497 0.042196535 -0.09152692
-3.083472e-05 -0.039064262 0.107209034 0.029482 0.05268331 -0.10675506 -0.050124295 0.008853768
-0.09746269 0.11598499 0.12225019 -0.0025079336 0.0269351 -0.04196501 -0.10835537 0.068350814
0.11245317 0.06100088 0.03165654 -0.08013063 0.122303255 -0.023556732 -0.026960837 0.035626955
0.07297885 0.014651904 0.017353367 -0.017318469 -0.08614397 0.036295045 0.054483324 -0.07458793
0.109014735 0.08383667 0.117220566 0.08120304 -0.0047331518 0.051393073 -0.10217228 0.08470752
0.018131696 -0.01882133 -0.044925507 0.09636678 0.059591226 -0.08360073 0.09749472 0.031129016
0.07855011 0.120002046 -0.105444476 -0.0016600046 0.05087142 0.092209 -0.12094033 -0.035286397
-0.10756967 -0.1138663 -0.07429765 -0.026016012 0.05084335 0.07403072 0.09158185 -0.01738917
0.037159935 0.0071225544 0.07601331 0.016943565 0.098396964 0.011259409 -0.10241125 0.094150014
-0.01819558 -0.11523428 -0.04406255 -0.041377317 0.06876636 -0.026044725 -0.018893186 0.07033067
-0.103191674 0.09006105 0.0139558995 -0.027090922 -0.03669865 0.10711876 -0.082717545 -0.04635512
-0.029736714 -0.038681176 0.050427545 0.071342096 -0.015291003 0.052670725 -0.122574456 -0.032796774
-0.11014335 0.021862185 0.10732006 -0.034720335 0.035633016 0.09071606 -0.09219053 -0.031148667
00000000: 5392 ba3c b492 9fbd 9b62 e6bd 8b55 b63c
00000010: 30e4 dabd f26f 5cbc 866a ccbc 5a28 153c
00000020: 7d19 253d a39b c23d 67a9 dfbd a16c 193c
00000030: d23c bd3d a060 e23d fb5b 773d 7d27 8fbd
00000040: 0692 c33d 0726 efbd 3853 263d 7a88 cf3d
00000050: a09e d23d 0b0f 123d e29a d93d 1e83 353d
00000060: cdf6 863c 4f60 503d 0bee 73bd 5099 a5bd
00000070: 7217 9c3d e076 59bd 31fb d83d ecfb 323d
00000080: 290a d33d 86c8 f6bd 9901 babd 7660 19bd
00000090: f32b 0fbd 6157 57bd a4ab ec3d 891c a73d
000000a0: e57c e8bd b6be 6b3d c8c6 b9bd c4d9 93bd
000000b0: 3d5a fb3c d2e1 d23d 9c22 26bc f8ea a73d
000000c0: 6bd9 dcbc abd6 563b 270d 9e3d 822d 313c
000000d0: 1192 dbbc 7c15 753d 2dfb 163d 32bd 9dbd
000000e0: 099b b93d 877d 013e d004 84bd c5c1 7dbc
000000f0: d3e3 ebbd 3847 5abd 12eb e83b 2792 34bd
00000100: e5f8 87bd 09ad 97bd d295 32ba d6b8 e43d
00000110: 3a62 b3bc f603 f3bd 8cfb c2bd f5a6 7c3d
00000120: 71c8 873d 9227 78bd b96c 72bd 6a61 19bb
00000130: 9fd9 d5bd 128e 933a cb7e de3c b213 013c
00000140: 20c7 5a3d ef4a f5bd cf5d 2abd 0975 ad3d
00000150: 5a93 f53d b857 8d3d 46d6 2c3d 7772 bbbd
00000160: 8754 01b8 d901 20bd 6990 db3d 3c84 f13c
00000170: 74ca 573d 66a2 dabd 224f 4dbd 650f 113c
00000180: 859a c7bd 8a89 ed3d 4f5e fa3d 255c 24bb
00000190: 00a7 dc3c 81e3 2bbd 6ce9 ddbd 83fb 8b3d
000001a0: d94d e63d 0fdc 793d 4aaa 013d 871b a4bd
000001b0: 217a fa3d 0cfa c0bc f9dc dcbc 92ed 113d
000001c0: ef75 953d 8a0e 703c a628 8e3c 76df 8dbc
000001d0: 406c b0bd 1daa 143d e829 5f3d 8fc1 98bd
000001e0: 1e43 df3d 8fb2 ab3d 5611 f03d c84d a63d
000001f0: 8e18 9bbb 8b81 523d b33f d1bd 237b ad3d
00000200: ec88 943c 312f 9abc cf03 38bd f25b c53d
00000210: ee15 743d dc36 abbd 50ab c73d 4702 ff3c
00000220: e1de a03d a2c3 f53d 46f3 d7bd 8394 d9ba
00000230: 8d5e 503d 12d8 bc3d 90af f7bd 7888 10bd
00000240: 7d4d dcbd bc32 e9bd 5e29 98bd 881f d5bc
00000250: 1e41 503d 6b9d 973d 448f bb3d bc73 8ebc
00000260: 0435 183d 5164 e93b deac 9b3d 3bcd 8a3c
00000270: 5984 c93d 6279 383c fdbc d1bd b9d1 c03d
00000280: e60e 95bc f3ff ebbd ef7a 34bd 437b 29bd
00000290: 61d5 8c3d bf5b d5bc e2c5 9abc 8709 903d
000002a0: 2856 d3bd ee71 b83d 49a7 643c c8ed ddbc
000002b0: 5351 16bd 1561 db3d d167 a9bd dede 3dbd
000002c0: 699a f3bc 2770 1ebd 1d8d 4e3d ce1b 923d
000002d0: 1d87 7abc 42bd 573d 5108 fbbd e955 06bd
000002e0: d692 e1bd 5318 b33c 9fca db3d e936 0ebd
000002f0: edf3 113d 57c9 b93d 63ce bcbd 7d2b ffbc

fc.bias f4 [3]
0.111237586 -0.01224902 -0.09845093
00000000: 88d0 e33d 1db0 48bc a4a0 c9bd
