trainedModels/1620284921/rnn.pt (torch, 22538 bytes, 6 tensors)

rnn_layer.weight_ih_l0 f4 [64, 12]
0.06805405 -0.09784629 0.032193538 0.077180445 -0.08182324 0.019755915 0.11062037 -0.05468943
-0.039972916 -0.10846225 -0.007861345 -0.14136162 -0.03549215 0.004486982 -0.10981429 -0.022341663
-0.0021495984 -0.018416874 0.07199256 -0.0923491 0.048013452 0.0720521 0.009235223 -0.052277185
0.03763576 0.12091543 0.016094971 -0.046778616 0.09736495 0.15083836 -0.013444446 0.12836193
-0.0212551 0.0015302227 -0.02232455 -0.017798657 0.03658186 0.07655698 -0.085827015 -0.07068298
-0.041333973 0.09555991 -0.01547759 0.04556685 -0.041864082 0.073192954 -0.042291425 0.06771325
-0.038710907 0.011564064 -0.0737777 -0.032766182 -0.086569205 -0.0850024 -0.04984207 -0.012364703
0.062881626 -0.050551903 0.016075917 -0.02067693 -0.05820865 0.0799171 -0.063760765 -0.0128214825
0.09751797 0.10987943 -0.06785462 -0.06596448 0.06760435 -0.03240293 -0.07284328 -0.010443702
0.08231685 0.010714925 0.049874675 0.10098338 0.0009614049 0.05484715 -0.0052557318 -0.16026342
0.11877127 0.04055512 0.024700148 -0.07042361 0.06984039 0.06126267 0.0005830878 -0.043550644
-0.074371 0.011366919 -0.03632653 0.0024065252 0.0399778 -0.13970615 0.059168603 -0.04906041
-0.011529438 0.12310741 -0.09775411 0.026042633 -0.0030159669 -0.057094917 0.012922016 -0.049986843
0.0743957 -0.06436504 -0.011632038 0.03916678 -0.1321013 -0.051592093 -0.06049843 0.01039737
0.01326483 0.022555495 0.07218403 -0.035168685 0.10861538 0.079074375 0.009411024 -0.055701517
-0.03391005 0.0025722058 -0.019324096 0.050727643 0.0032572867 -0.022001272 0.021211568 0.008177032
0.07960879 -0.065652885 -0.01896951 0.044641953 0.08187315 -0.0421337 0.06440758 -0.0635939
0.009728773 0.001339561 -0.07931692 0.04316043 -0.040516146 0.032126617 0.104178496 0.08149126
-0.09019737 -0.012634385 0.09557799 0.054525323 0.04369763 0.07840979 0.0029553848 0.023153925
-0.08909882 0.03457369 0.0373835 -0.016493008 0.0136917345 -0.04642738 -0.06226907 0.026382538
-0.030171307 -0.044417992 0.00548763 0.060925476 -0.049760778 0.13628368 0.1125536 0.029110566
0.070547834 -0.013413213 -0.04392325 0.017832743 -0.06876296 0.08574524 -0.02022067 -0.12406065
-0.007251128 -0.009888131 -0.047170997 -0.09648424 -0.034228396 -0.013805954 -0.0154355345 0.023578705
0.07170575 0.10926448 0.05204323 0.027474357 0.044818297 0.11295305 -0.051996212 -0.09888695
0.06551591 0.12938473 -0.08436502 -0.07447549 0.019464858 0.09115885 -0.08605933 0.06553478
-0.019311748 0.0033217643 0.0242485 -0.044450484 -0.11596938 -0.06879559 -0.08167531 -0.018252134
0.04737698 -0.07489139 0.082397535 0.00794457 -0.0523664 -0.060683638 0.05950898 0.011796546
0.10617833 -0.028552389 0.11632089 -0.05862038 0.051954295 -0.016903074 0.081211135 0.0667249
0.08865625 -0.07553281 0.005998306 -0.045322333 0.058573417 0.04592845 -0.11054984 0.061884098
-0.08805769 -0.062401876 -0.0769641 -0.121445484 0.09028655 -0.07875205 0.07603309 0.06611516
-0.08230077 0.069562264 -0.03334301 0.091774054 0.067621775 -0.060942773 0.05724109 0.13595441
0.05277886 -0.03867291 0.08540302 0.0513092 -0.03285506 -0.08718714 0.13375802 0.009268541
00000000: ec5f 8b3d a363 c8bd 5fdd 033d c810 9e3d
00000010: f192 a7bd 28d7 a13c ef8c e23d 0602 60bd
00000020: a4ba 23bd 7521 debd dfcc 00bc 1ac1 10be
00000030: 3760 11bd 8807 933b 51e6 e0bd dd05 b7bc
00000040: 47e0 0cbb fcde 96bc d670 933d 8621 bdbd
00000050: c1a9 443d 0d90 933d 554f 173c 9a20 56bd
00000060: f427 1a3d 82a2 f73d 9ad9 833c ef9a 3fbd
00000070: 4667 c73d 5f75 1a3e 1846 5cbc 4f71 033e
00000080: 2d1f aebc c191 c83a fae1 b6bc 7dce 91bc
00000090: dcd6 153d e8c9 9c3d 13c6 afbd 3dc2 90bd
000000a0: d04d 29bd eab4 c33d b895 7dbc 4ea4 3a3d
000000b0: ac79 2bbd 30e6 953d c639 2dbd 3fad 8a3d
000000c0: 548f 1ebd 3377 3d3c c318 97bd d535 06bd
000000d0: 324b b1bd bd15 aebd 3327 4cbd 5395 4abc
000000e0: 15c8 803d 830f 4fbd a4b1 833c aa62 a9bc
000000f0: 326c 6ebd 94ab a33d 0195 82bd 3211 52bc
00000100: 80b7 c73d 7708 e13d 5df7 8abd 6318 87bd
00000110: 2674 8a3d efb8 04bd dc2e 95bd 101c 2bbc
00000120: bd95 a83d a78d 2f3c 6349 4c3d 60d0 ce3d
00000130: ca06 7c3a 68a7 603d 4638 acbb 181c 24be
00000140: 5a3e f33d 201d 263d f757 ca3c 413a 90bd
00000150: 7a08 8f3d 91ee 7a3d 5cda 183a 2962 32bd
00000160: d34f 98bd 503c 3a3c 21cb 14bd cbb6 1d3b
00000170: c3bf 233d 210f 0fbe c75a 723d 92f3 48bd
00000180: f8e5 3cbc bd1f fc3d 4f33 c8bd 5c57 d53c
00000190: 87a7 45bb 5cdc 69bd ddb6 533c 01bf 4cbd
000001a0: c65c 983d d1d1 83bd 4e94 3ebc 586d 203d
000001b0: 9045 07be 3b52 53bd 34cd 77bd bb59 2a3c
000001c0: bb54 593c 4dc6 b83c 39d5 933d 0a0d 10bd
000001d0: be71 de3d bff1 a13d b230 1a3c 4627 64bd
000001e0: 44e5 0abd 7492 283b 914d 9ebc cac7 4f3d
000001f0: 3478 553b 033c b4bc e2c3 ad3c f5f8 053c
00000200: ef09 a33d 0575 86bd f265 9bbc 7bda 363d
00000210: 1cad a73d 6394 2cbd 1fe8 833d 853d 82bd
00000220: 6e65 1f3c 3594 af3a e970 a2bd fec8 303d
00000230: 42f4 25bd 3397 033d 895b d53d e4e4 a63d
00000240: 66b9 b8bd 7400 4fbc 65be c33d f255 5f3d
00000250: 49fc 323d 5095 a03d 21af 413b 4dad bd3c
00000260: 7179 b6bd 249d 0d3d 711f 193d 581c 87bc
00000270: 4c53 603c a32a 3ebd da0d 7fbd 3120 d83c
00000280: d129 f7bc a4ef 35bd 94d1 b33b fe8c 793d
00000290: f5d1 4bbd f38d 0b3e 8082 e63d 4879 ee3c
000002a0: 627b 903d 18c3 5bbc dee8 33bd f915 923c
000002b0: 98d3 8cbd 339b af3d d2a5 a5bc 8313 febd
000002c0: df9a edbb d401 22bc 6036 41bd 8799 c5bd
000002d0: 1333 0cbd 5e32 62bc 53e5 7cbc 2128 c13c
000002e0: 77da 923d 0ec6 df3d 482b 553d e711 e13c
000002f0: 6493 373d ee53 e73d fbf9 54bd 3e85 cabd
00000300: 352d 863d 6e7d 043e 91c7 acbd 9b86 98bd
00000310: c474 9f3c 7eb1 ba3d e03f b0bd 1937 863d
00000320: ac33 9ebc f5b1 593b caa4 c63c b611 36bd
00000330: 5b81 edbd b4e4 8cbd 6345 a7bd 8085 95bc
00000340: 5d0e 423d a860 99bd 0ac0 a83d f129 023c
00000350: 267e 56bd 688f 78bd b0bf 733d 4d46 413c
00000360: 0674 d93d b3e6 e9bc a639 ee3d ec1b 70bd
00000370: 07ce 543d 5178 8abc 0652 a63d 10a7 883d
00000380: 6891 b53d f2b0 9abd 708d c43b e9a3 39bd
00000390: aeea 6f3d 781f 3c3d f467 e2bd 2e7a 7d3d
000003a0: 9757 b4bd 1c99 7fbd 5b9f 9dbd 69b8 f8bd
000003b0: 28e8 b83d c148 a1bd 3db7 9b3d 6367 873d
000003c0: 4e8d a8bd a976 8e3d ae92 08bd 09f4 bb3d
000003d0: 497d 8a3d 219f 79bd a275 6a3d a237 0b3e
000003e0: a52e 583d 7c67 1ebd c7e7 ae3d 9829 523d
000003f0: 0793 06bd 2c8f b2bd ddf7 083e 14db 173c

rnn_layer.weight_hh_l0 f4 [64, 64]
-0.109800845 0.050958343 0.06118598 -0.0002068705 0.015774505 -0.07587428 0.056079593 0.035618853
0.061621055 0.016598012 0.084941365 0.027898226 -0.06678967 0.009546881 -0.043151688 0.078561164
0.0035113767 0.04431864 -0.062201466 -0.07288443 0.07735153 -0.048693825 0.0046363445 -0.07716422
0.1127533 -0.12491495 -0.06733912 0.028464857 -0.11616861 0.084011406 -0.091409385 0.06301991
0.12044493 -0.02165547 0.10845529 0.024910502 -0.005345629 0.032665696 0.10117297 0.09051225
-0.12035977 0.088680245 0.09728725 0.019042652 -0.08405694 0.12140415 0.09023084 0.04984492
0.042618077 0.04282131 0.04727819 0.049495365 0.09718739 0.10970633 -0.10556044 -0.09378447
-0.065221645 -0.007168516 0.021261852 0.09121899 -0.061804853 0.04134438 0.069253236 -0.076531075
0.012007277 0.01873224 0.053467005 -0.04856959 -0.085664414 -0.09365587 -0.072896145 0.045844007
-0.084427945 -0.039423577 0.069512114 0.05971868 0.01894287 -0.1230076 -0.04829632 0.04631341
0.04849125 -0.11723954 0.019658003 0.12014595 -0.027505707 0.044187102 -0.07017047 -0.03346989
-0.096869715 -0.031102074 0.027495021 -0.04817471 -0.08897271 0.07813839 -0.09806301 -0.03495532
-0.041843925 -0.004076784 -0.053532295 0.03486424 0.07665818 -0.056756902 -0.07706595 -0.1022085
-0.10522662 -0.07380401 -0.016012361 0.068136185 -0.062558785 -0.0949302 -0.091076046 0.08873443
-0.11134805 0.0894382 0.09991661 -0.018252088 0.06336065 0.08736839 0.11980408 0.1357118
-0.060714606 0.10341895 0.116623476 0.0024866567 0.07516057 -0.04600871 -0.04811561 -0.07269446
-0.07848041 -0.11094694 -0.049602736 -0.094121926 0.08854792 -0.033227038 -0.015126152 0.06355833
-0.11880732 -0.07799455 0.008111535 -0.11697319 0.05107876 0.08489555 0.051669247 -0.02419578
-0.04334108 -0.06722174 -0.021696215 -0.06456572 0.12845622 0.06306104 0.014129395 0.051815584
-0.046049573 0.121719755 -0.030641122 -0.0676729 0.0023785096 0.10236363 -0.009910781 -0.09461814
0.041469876 -0.023454664 0.018783072 -0.07822449 0.07290856 -0.045622878 0.11922169 0.056554202
0.09878863 0.05798762 -0.07872092 0.109441765 -0.09433021 -0.036894888 -0.0947837 0.046777036
0.018437222 0.023704588 -0.0348251 0.10228451 0.04002921 0.04591866 -0.0871987 -0.10007596
0.02935131 -0.12345687 0.06858932 -0.09572821 0.056753516 0.04294226 0.110439815 0.0533231
0.021213138 -0.107597396 -0.0105645005 -0.041972034 0.07158719 0.071179956 0.06466577 0.011845109
0.042796202 -0.11040121 -0.046686336 0.049856056 0.046354305 0.04925795 0.13729477 -0.07499072
-0.021860287 -0.11414696 0.09929069 0.106503926 -0.097335175 0.10816586 0.06891754 0.056840308
-0.016271066 0.028874671 -0.028013846 0.117596455 0.0058437963 0.041174516 -0.096589535 0.027892249
-0.08491065 0.01852807 0.07508683 0.035888445 0.00044329895 -0.042284925 0.015418568 0.015128879
0.079102255 -0.11117625 0.09746097 0.041098773 -0.071776 -0.08489293 -0.11416682 -0.049030334
-0.01430264 0.09535689 -0.023755027 0.13407089 -0.016725501 0.011799695 -0.050427772 -0.13316779
-0.021832015 -0.11144906 0.09573085 -0.03759281 -0.12773123 -0.109084904 -0.06148864 -0.11832629
00000000: 44df e0bd b2b9 503d 269e 7a3d 61eb 58b9
00000010: 8939 813c f963 9bbd b7b3 653d 13e5 113d
00000020: 5c66 7c3d 8ef8 873c bdf5 ad3d d28a e43c
00000030: 06c9 88bd 856a 1c3c d3bf 30bd ade4 a03d
00000040: 201f 663b 7687 353d f7c6 7ebd 6f44 95bd
00000050: 7b6a 9e3d 2d73 47bd 7aec 973b 4608 9ebd
00000060: 34eb e63d 69d3 ffbd 18e9 89bd 222f e93c
00000070: cfe9 edbd 2c0e ac3d d834 bbbd 9510 813d
00000080: d5ab f63d d066 b1bc cf1d de3d 1c11 cc3c
00000090: 632a afbb 77cc 053d c633 cf3d 7d5e b93d
000000a0: 2f7f f6bd fd9d b53d 8a3e c73d 56ff 9b3c
000000b0: 0c26 acbd bda2 f83d f2ca b83d 302a 4c3d
000000c0: 4b90 2e3d 6665 2f3d c6a6 413d a7bb 4a3d
000000d0: 2f0a c73d b6ad e03d 1230 d8bd 1212 c0bd
000000e0: ed92 85bd dfe5 eabb 562d ae3c 06d1 ba3d
000000f0: 1627 7dbd b958 293d a4d4 8d3d 53bc 9cbd
00000100: 2cba 443c 5b74 993c 3800 5b3d e8f0 46bd
00000110: d370 afbd a6ce bfbd 934a 95bd edc6 3b3d
00000120: 8fe8 acbd 9e7a 21bd 5e5c 8e3d 939b 743d
00000130: 142e 9b3c 69eb fbbd 5dd2 45bd 21b3 3d3d
00000140: c39e 463d 491b f0bd d209 a13c 140f f63d
00000150: a653 e1bc 89fd 343d 89b5 8fbd b917 09bd
00000160: a163 c6bd c7c9 febc 3d3d e13c d852 45bd
00000170: 5337 b6bd 0507 a03d 42d5 c8bd 4f2d 0fbd
00000180: 8964 2bbd 8b96 85bb ae44 5bbd cecd 0e3d
00000190: f7fe 9c3d ed79 68bd c1d4 9dbd b152 d1bd
000001a0: 0e81 d7bd 8f26 97bd 5b2c 83bc fc8a 8b3d
000001b0: d21e 80bd c46a c2bd 1486 babd 66ba b53d
000001c0: 720a e4bd 602b b73d 14a1 cc3d 6785 95bc
000001d0: 3ac3 813d 33ee b23d d75b f53d 09f8 0a3e
000001e0: e1af 78bd 51cd d33d 4ad8 ee3d 2df7 223b
000001f0: c9ed 993d a173 3cbd e014 45bd d5e0 94bd
00000200: 56ba a0bd 2638 e3bd 3d2c 4bbd ffc2 c0bd
00000210: 9d58 b53d 1319 08bd aed3 77bc df2a 823d
00000220: 4151 f3bd 9bbb 9fbd 3ee6 043c a48f efbd
00000230: f637 513d b8dd ad3d 22a3 533d 3a36 c6bc
00000240: 6b86 31bd 8dab 89bd 43bc b1bc 083b 84bd
00000250: 078a 033e 2626 813d fa7e 673c 943c 543d
00000260: 7a9e 3cbd 3548 f93d 1703 fbbc 1798 8abd
00000270: c5e0 1b3b 06a4 d13d d460 22bc 28c7 c1bd
00000280: 51dc 293d ff23 c0bc f5de 993c 2934 a0bd
00000290: 1551 953d 0edf 3abd 802a f43d 61a5 673d
000002a0: b151 ca3d 6d84 6d3d 6f38 a1bd 0123 e03d
000002b0: 3230 c1bd 181f 17bd f51d c2bd 4799 3f3d
000002c0: a809 973c 2030 c23c c4a4 0ebd 8b7a d13d
000002d0: abf5 233d 3415 3c3d 3b95 b2bd a0f4 ccbd
000002e0: 2972 f03c f5d6 fcbd 8f78 8c3d 270d c4bd
000002f0: 6076 683d 39e4 2f3d 452e e23d 5369 5a3d
00000300: 2dc7 ad3c 065c dcbd ba16 2dbc deea 2bbd
00000310: 4e9c 923d ccc6 913d 7d6f 843d fd11 423c
00000320: 124b 2f3d 081a e2bd 2c3a 3fbd dd35 4c3d
00000330: 03de 3d3d b4c2 493d 0097 0c3e bc94 99bd
00000340: 5814 b3bc e2c5 e9bd eb58 cb3d bb1e da3d
00000350: aa57 c7bd 1086 dd3d a424 8d3d 62d1 683d
00000360: e64a 85bc 938a ec3c 4b7d e5bc 69d6 f03d
00000370: 517d bf3b 9ca6 283d bcd0 c5bd 497e e43c
00000380: a3e5 adbd 2ec8 973c 20c7 993d c3ff 123d
00000390: 946a e839 f532 2dbd 299e 7c3c 1edf 773c
000003a0: 5d00 a23d 60b0 e3bd 9e99 c73d 3057 283d
000003b0: 4cff 92bd 58dc adbd 4bd0 e9bd 08d4 48bd
000003c0: 9f55 6abc 794a c33d e799 c2bc e149 093e
000003d0: eb03 89bc 8253 413c 5a8d 4ebd 235d 08be
000003e0: 0ed9 b2bc 683f e4bd 890e c43d ebfa 19bd
000003f0: facb 02be e867 dfbd 83db 7bbd 0e55 f2bd

rnn_layer.bias_ih_l0 f4 [64]
0.08547886 0.060903672 -0.09027909 -0.045808397 0.059451263 0.079462804 -0.076991886 -0.05886501
0.0031163357 0.048683938 0.063201316 -0.032507468 0.0760118 0.00088874676 -0.027035812 -0.07787148
0.0694603 0.006206573 -0.070664905 0.02844668 0.018573813 0.07243863 -0.1361854 0.057654835
-0.0037835813 0.03092648 0.048566412 -0.0024882553 0.13020682 0.005559137 0.05091436 0.07309991
-0.0094984835 -0.056704234 0.04833753 0.004666194 0.034224667 -0.08138975 -0.010299785 -0.013818262
0.039938007 0.04397901 0.09978671 -0.05404698 0.032640282 -0.092998445 0.03769671 -0.05955824
-0.027979499 -0.0984111 7.286698e-06 0.08634921 0.09258519 -0.07607738 0.060452662 -0.04595301
0.08929339 -0.11015631 0.012055607 -0.09126609 -0.11267712 0.06866603 0.064151905 -0.03733506
00000000: 8a0f af3d 2176 793d 3ee4 b8bd 96a1 3bbd
00000010: 2b83 733d 65bd a23d ecad 9dbd 701c 71bd
00000020: 703b 4c3b cf68 473d b16f 813d 8d26 05bd
00000030: 13ac 9b3d c9fa 683a 357a ddbc 157b 9fbd
00000040: 3441 8e3d 8260 cb3b c3b8 90bd 0309 e93c
00000050: 1c28 983c b45a 943d 2f74 0bbe 7a27 6c3d
00000060: f6f5 77bb 8859 fd3c 93ed 463d ff11 23bb
00000070: f054 053e 6c29 b63b 938b 503d 68b5 953d
00000080: 879f 1bbc b342 68bd 93fd 453d dfe6 983b
00000090: 2a2f 0c3d abaf a6bd 6ec0 28bc fe65 62bc
000000a0: 0996 233d 5623 343d fa5c cc3d 5e60 5dbd
000000b0: d1b1 053d f875 bebd de67 1a3d 57f3 73bd
000000c0: 4335 e5bc c28b c9bd 4280 f436 dbd7 b03d
000000d0: 4e9d bd3d 75ce 9bbd 369d 773d 3939 3cbd
000000e0: 74df b63d a299 e1bd e184 453c b7e9 babd
000000f0: 43c3 e6bd c7a0 8c3d 1362 833d a6ec 18bd

rnn_layer.bias_hh_l0 f4 [64]
0.035365056 -0.021451388 -0.03878849 0.01920433 0.05641545 -0.108087726 0.012325971 0.064543076
0.022957189 -0.029817274 -0.095214576 -0.10261011 -0.09855994 -0.044604547 0.1062802 0.049153715
-0.083876684 -0.033044312 -0.026019676 0.06915521 -0.09971579 -0.07382732 0.061670173 0.024342392
-0.07149942 0.09539292 -0.0019159961 0.009377832 -0.0925255 0.058708727 0.08613481 0.09539384
0.03659023 0.044954244 -0.091276996 -0.05472467 0.008534926 0.07812495 0.09018857 0.04838267
0.022060115 0.05665173 -0.019877998 -0.069941096 -0.03938117 -0.10852392 0.076358974 0.08849237
0.06475625 0.03904817 0.052078232 0.02351527 -0.07213279 0.10212844 0.031544562 0.010752556
-0.012852259 0.1274959 -0.08885876 -0.07243159 0.036290508 0.07000715 0.029397735 -0.025479892
00000000: f3da 103d d2ba afbc aee0 1ebd 6652 9d3c
00000010: e313 673d 195d ddbd dff2 493c 292f 843d
00000020: b710 bc3c 5b43 f4bc dcff c2bd 4025 d2bd
00000030: cbd9 c9bd 42b3 36bd 6fa9 d93d 6855 493d
00000040: 8ac7 abbd 7959 07bd 3727 d5bc 3fa1 8d3d
00000050: cb37 ccbd c732 97bd dd99 7c3d b269 c73c
00000060: 4a6e 92bd 5d5d c33d 2922 fbba 7aa5 193c
00000070: 027e bdbd 9078 703d 7267 b03d d85d c33d
00000080: a3df 153d f121 383d 6fef babd fa26 60bd
00000090: 13d6 0b3c f9ff 9f3d c9b4 b83d e82c 463d
000000a0: 6ab7 b43c a50b 683d 2fd7 a2bc 473d 8fbd
000000b0: 264e 21bd ca41 debd 1862 9c3d 7d3b b53d
000000c0: ed9e 843d f9f0 1f3d fc4f 553d 18a3 c03c
000000d0: 5bba 93bd b728 d13d df34 013d 7d2b 303c
000000e0: 4892 52bc 498e 023e 95fb b5bd 0357 94bd
000000f0: 5ba5 143d e95f 8f3d 85d3 f03c 35bb d0bc

fc.weight f4 [3, 64]
0.009482725 -0.07343918 0.09247148 -0.041982636 -0.045149267 0.08667735 -0.06839991 -0.023851985
-0.02314519 -0.019316817 -0.08135538 -0.027454764 0.07758692 -0.09294832 -0.04158298 0.0149618015
0.05623982 -0.06847475 0.07378667 -0.041846465 0.022170437 -0.057992626 0.030390669 -0.099113144
-0.0034363102 -0.002914925 0.032217123 -0.02490307 -0.021912055 0.06502792 -0.03474498 -0.087420605
0.011714244 -0.049636573 -0.05789579 -0.05470015 -0.033897433 -0.06386089 -0.0481005 -0.00746482
0.045455344 0.0082106795 -0.061064783 0.0037295546 -0.04360188 0.039714955 0.09631924 0.027412163
-0.0068725036 0.1121581 -0.03888123 0.039262354 -0.011048521 -0.012904834 0.072696514 0.096479855
0.024819855 -0.014960684 -0.014034715 0.06072051 0.055816676 -0.05273984 -0.07951978 -0.018381622
-0.021072734 -0.046149157 0.079594225 -0.047743652 -0.06359541 0.08668848 -0.0405056 -0.03004416
0.022591578 -0.033549074 -0.09385612 0.07299571 0.052464508 -0.08224087 -0.032729268 0.006403007
0.043815326 -0.03938709 0.05479001 0.053997368 -0.02608125 0.049370985 0.02837005 -0.099045
0.012095402 -0.018627297 -0.008361664 -0.05732468 0.01566114 0.07664149 0.04902975 -0.07491472
0.01583418 -0.065896094 -0.09043045 -0.060735073 -0.037771124 0.046144806 -0.053579558 -0.04304202
-0.0733256 0.056086868 -0.06460579 -0.008084066 0.027611587 -0.014506995 0.030711437 0.05349015
0.0021132794 -0.11072107 0.05638275 0.064387396 -0.0046698134 0.0054929974 0.013464995 0.09569525
-0.008964865 -0.00905102 -0.0039867447 -0.09727104 -0.0003752248 -0.011335474 -0.011175279 -0.017148346
0.012038866 -0.026897307 0.081287354 -0.036195695 -0.05392361 0.07569851 -0.037169985 -0.027572475
0.0053665233 -0.014903459 -0.094914645 0.054668576 0.07897995 -0.08504565 -0.01535459 0.0062733176
0.05648008 0.060286876 0.03485335 0.04312386 -0.023745216 -0.04329421 0.008671724 -0.08290386
-0.038554978 -0.022941938 0.019116456 -0.03979968 0.033593025 0.07118043 -0.0216186 -0.07823663
0.026033819 -0.052954014 -0.07046469 -0.0593243 -0.045328833 0.028170427 -0.005662367 -0.013152321
-0.052382007 -0.0037467985 -0.065488614 0.017230853 -0.017688587 0.075312205 0.057386488 -0.028899778
0.05939657 -0.026786057 0.036001634 0.021946633 -0.0053686076 0.013163242 -0.0006625013 0.06729125
0.006897766 -0.009799815 -0.026583249 -0.01081147 0.035537086 -0.0650196 -0.02528468 -0.014786198
00000000: 6e5d 1b3c 4867 96bd b061 bd3d fcf5 2bbd
00000010: 70ee 38bd e583 b13d 4115 8cbd 3d65 c3bc
00000020: fb9a bdbc 4d3e 9ebc a69d a6bd d0e8 e0bc
00000030: e4e5 9e3d b05b bebd ea52 2abd 5822 753c
00000040: ba5b 663d 7d3c 8cbd 771d 973d 3367 2bbd
00000050: c79e b53c ad89 6dbd daf5 f83c d5fb cabd
00000060: b833 61bb 5408 3fbb 1af6 033d 8601 ccbc
00000070: e980 b3bc 5c2d 853d c150 0ebd 9309 b3bd
00000080: 1aed 3f3c b84f 4bbd 2324 6dbd 440d 60bd
00000090: 09d8 0abd 80c9 82bd 0805 45bd 739b f4bb
000000a0: 622f 3a3d 1686 063c 111f 7abd 8b6b 743b
000000b0: e397 32bd 26ac 223d 0643 c53d 798f e03c
000000c0: bd32 e1bb 25b3 e53d ed41 1fbd 90d1 203d
000000d0: db04 35bc cc6e 53bc e9e1 943d 3b97 c53d
000000e0: 0253 cb3c a81d 75bc dcf1 65bc 12b6 783d
000000f0: 07a0 643d bb05 58bd 44db a2bd 0e95 96bc
00000100: baa0 acbc e606 3dbd 4c02 a33d d98e 43bd
00000110: 4f3e 82bd bb89 b13d 33e9 25bd 2c1f f6bc
00000120: f911 b93c c16a 09bd a337 c0bd c67e 953d
00000130: 06e5 563d e76d a8bd 200f 06bd 51d0 d13b
00000140: b377 333d 5b54 21bd 7d6b 603d 582c 5d3d
00000150: 58a8 d5bc 3b39 4a3d 4f68 e83c 1bd8 cabd
00000160: cb2b 463c 4698 98bc 5cff 08bc 49cd 6abd
00000170: cb4b 803c 37f6 9c3d 6bd3 483d e46c 99bd
00000180: afb6 813c 88f4 86bd 9a33 b9bd 57c5 78bd
00000190: e5b5 1abd 5602 3d3d 3d76 5bbd d44c 30bd
000001a0: bb2b 96bd 58bb 653d 0a50 84bd 0873 04bc
000001b0: b231 e23c bfae 6dbc 8d96 fb3c 7d18 5b3d
000001c0: f27e 0a3b bac1 e2bd 99f1 663d 8add 833d
000001d0: 3c05 99bb 9afe b33b 489c 5c3c dffb c33d
000001e0: 5ee1 12bc bb4a 14bc 3da3 82bb 0a36 c7bd
000001f0: d2b9 c4b9 6db8 39bc 8418 37bc b07a 8cbc
00000200: aa3e 453c be57 dcbc fc79 a63d f041 14bd
00000210: 01df 5cbd d207 9b3d 8e3f 18bd acdf e1bc
00000220: a9d9 af3b a32d 74bc 9c62 c2bd 28ec 5f3d
00000230: 3dc0 a13d 6a2c aebd d191 7bbc 6790 cd3b
00000240: a857 673d 5fef 763d 63c2 0e3d a5a2 303d
00000250: 5485 c2bc 4555 31bd d913 0e3c 80c9 a9bd
00000260: d3eb 1dbd bbf0 bbbc 1d9a 9c3c fd04 23bd
00000270: d798 093d 0cc7 913d 7d19 b1bc 873a a0bd
00000280: e044 d53c 4fe6 58bd cb4f 90bd 0afe 72bd
00000290: baaa 39bd abc5 e63c 618b b9bb d57c 57bc
000002a0: 848e 56bd d98c 75bb e51e 86bd b827 8d3c
000002b0: a8e7 90bc 493d 9a3d 180e 6b3d 3abf ecbc
000002c0: d149 733d 6f6e dbbc 7376 133d 6dc9 b33c
000002d0: 25eb afbb a3aa 573c b6ab 2dba ffcf 893d
000002e0: a806 e23b 678f 20bc 1dc5 d9bc 9822 31bc
000002f0: 568f 113d ff28 85bd d121 cfbc cf41 72bc

fc.bias f4 [3]
0.031292576 -0.041367162 0.019381145
00000000: a52c 003d 9d70 29bd 35c5 9e3c
