trainedModels/1620284921/rnn.pt (torch, 22538 bytes, 6 tensors)

rnn_layer.weight_ih_l0 f4 [64, 12]
00000000: 5902 953d 5376 f2bd c2e9 7e3c 60f8 453d
00000010: 44c4 84bd 5c3d bd3c 32c8 8f3c 8625 ccbd
00000020: 9347 89bd ea9a 0cbe b5a6 153c 9154 0dbe
00000030: f163 16bd c94b 373c bc0b d4bd 5371 84bc
00000040: 8e09 82ba 6598 69bc c377 713a cedd bfbd
00000050: d94d 4c3d 1335 a03d 1846 2a3c 3c17 45bd
00000060: 4bdc ec3c ee53 163e dc02 173d fa31 b1bc
00000070: 7144 a33d af62 193e 6d36 533b f059 f03d
00000080: 1233 a0bb 9b8c da3c b3b6 23bd e963 9abc
00000090: 0359 213d c3ab ad3d e00a a2bd 2768 7fbd
000000a0: 0554 1abd f3ad c13d 8225 d4bc fd61 643d
000000b0: 0389 2abd 61f4 a63d fb3f 1ebd 48a6 883d
000000c0: 92e0 21bd 4758 ab3a e522 bcbd 1f59 7abd
000000d0: fc0f 91bd 8805 a5bd 72b6 d7bb 8f60 9bbd
000000e0: 628a 0c3d 3599 a1bd 1e4f 023d aa23 85bc
000000f0: 45f5 43bd 7ed4 983d af0e 8fbd 05c2 103b
00000100: 97c8 b73d ac38 d03d 2a7d 913a 6288 b53c
00000110: e5b1 b63d 1951 8ebc c51d a5bd 06cd 98bc
00000120: dbf7 9e3d ae37 553c 440f 5c3d 8414 eb3d
00000130: f355 36bc d268 5a3d 371f e4bc d779 0ebe
00000140: b96c 083e 0aa5 5e3d 6c99 4e3c 8559 93bd
00000150: 1ab6 5f3d 5479 943d 2f61 253c d802 ebbc
00000160: 7268 bbbd 194d ce3b 53f8 c3bc c1a6 ca3a
00000170: 0860 4b3d abad ffbd bb29 2c3d 15b9 5dbd
00000180: b6e7 18ba 33ca ca3d eb7f e5bd 79a9 fb3b
00000190: 6784 853b e826 59bd 0680 1f3c 3e59 3fbd
000001a0: 3f3c 9c3d c66c a9bd 78d0 94bb cd22 313d
000001b0: 844e 02be ec7a 38bd 3a38 74bd e25f 883b
000001c0: d6e7 c03c 3ce2 cd3c d8cc 4a3c b958 52bd
000001d0: dcf1 c23d 422c 953d c455 a13c 4699 59bd
000001e0: 844a 35bd a9f0 873c f0e3 9bbb 24d1 833d
000001f0: 63f1 08bb c91c adbc 0e96 44bb 234e 1fbd
00000200: 25d4 a83d d80e 55bd 1633 c7bc fd69 3a3d
00000210: 0ff9 583d c9eb b23c 6327 e33d d3d3 dd3b
00000220: 7624 c6bc d8b3 bfbb dc21 d8bd fcbf af3d
00000230: 1d9c 6fbc 71e6 d13d d6e5 8f3d 632b 983d
00000240: 53e9 a5bd e300 d5bc 04b7 a33d e8b3 853d
00000250: 1994 0a3d a251 893d 15d4 343c 70d1 f33d
00000260: d4de 8abd f7ae 393d fd6e e13c ce2b e4bc
00000270: 0338 adbb 0465 12bc 2177 f6bc c422 5c3d
00000280: 4fe3 27bd 5897 26bd cb01 54bc f426 753c
00000290: 423c 30bd 8f92 273e 425b d03d 0595 063d
000002a0: af8f a13d 8c53 05bd 5122 70bd 3da9 493b
000002b0: f70f 7abd 7237 b03d c8b2 8139 e13e bfbd
000002c0: 9a37 4bbc cfe1 c9bc 469f 21bd 49fd c4bd
000002d0: aed4 ecbc 85c6 0eb9 1a4d 58bc ffb2 943c
000002e0: 841f b03d 3199 e53d 1783 b93c 47fe c7bc
000002f0: fc96 f03c 8236 dc3d dc6f 1abd 1ab2 c4bd
00000300: c132 7d3d 2cfd 043e b7b8 acbd 2e14 8abd
00000310: 0ac7 1f3c 0bec af3d b652 09bc 2672 bc3d
00000320: d682 41bc d6fe 293c 2d27 6e3c 139c 4bbd
00000330: 2518 e9bd c17d 8dbc 8b3a 20bd 9a51 253d
00000340: 93ab 323d b830 81bd 7124 3ebd c8a7 bd3d
00000350: 427f 95bc 56b1 07bb e65c 643d 1a63 c13c
00000360: 83f2 db3d 5882 8c3a 1e03 0a3e b19f 43bd
00000370: ab10 773d 2a3d 47bc 99de 573d 1276 ec3c
00000380: 9c00 aa3d cf72 84bd 8550 6b3c 1037 26bd
00000390: 9750 243d 8620 133d 9f83 04be c675 523d
000003a0: e4e6 dabd 1687 a9bd cb29 d8bd 2e67 06be
000003b0: 047d 8e3d d7ca b6bd de4f 6a3d e659 3b3d
000003c0: 82c8 c2bd 18bb c73d 4e74 70bc c433 e73d
000003d0: 50f7 7f3d d748 7abd c32d 13bc dbcd c93d
000003e0: a81a 4e3d 43d1 8fbc 7366 a43d da7f 513d
000003f0: 139d 7fbd 66bb 59bd 8a43 1d3e e6cc 1a3d
0.072758384 -0.11838975 0.015558662 0.048332572 -0.06482747 0.023100547 0.017551515 -0.099680945
-0.06703105 -0.1373097 0.009133984 -0.13801791 -0.036716405 0.011187502 -0.10353801 -0.016167318
-0.000992106 -0.014257525 0.00092112663 -0.09368478 0.04987893 0.07822623 0.010392688 -0.04811786
0.028913638 0.14680454 0.03686796 -0.021630276 0.079720385 0.14979051 0.0032228485 0.11735904
-0.0048889006 0.026678374 -0.039969157 -0.018846469 0.03939153 0.084800266 -0.079122305 -0.062355187
-0.037677784 0.09457006 -0.025896791 0.05575751 -0.04163457 0.0815208 -0.038635235 0.06672341
-0.039520808 0.0013072573 -0.09186343 -0.06112015 -0.07083127 -0.080576956 -0.0065830285 -0.075867765
0.03431166 -0.0789055 0.031813733 -0.016252358 -0.04784133 0.07462405 -0.069852225 0.00220883
0.08973806 0.10167059 0.0011099924 0.022159759 0.089206494 -0.017372655 -0.08062319 -0.01865245
0.077621184 0.013013763 0.053725496 0.114785224 -0.01112889 0.05332262 -0.027846916 -0.13913666
0.13322724 0.054356612 0.012609821 -0.07194809 0.054617025 0.07249704 0.010093971 -0.02868788
-0.09150781 0.006295812 -0.023922121 0.0015461073 0.04965213 -0.124842964 0.042031985 -0.054131586
-0.00058328675 0.09901848 -0.11206039 0.007680115 0.0040746215 -0.05301562 0.009735113 -0.046715967
0.076286785 -0.082727 -0.004541453 0.04324608 -0.12725264 -0.045039102 -0.059623934 0.0041618207
0.023548048 0.025132291 0.01237794 -0.051354144 0.09518787 0.07283832 0.019694217 -0.05312469
-0.044260517 0.016594248 -0.004757397 0.06436375 -0.002089583 -0.02113189 -0.0029996666 -0.038892876
0.08243588 -0.05201611 -0.024316352 0.045511235 0.052971896 0.021840947 0.11091497 0.006769636
-0.024187308 -0.0058502965 -0.10553333 0.0858154 -0.014624623 0.10249031 0.070262596 0.0743015
-0.08101144 -0.0260014 0.07993892 0.06528455 0.033832643 0.06705023 0.011036892 0.119051814
-0.06780782 0.045332875 0.027518744 -0.027852919 -0.005286218 -0.008935217 -0.030086102 0.053744093
-0.040988263 -0.040671676 -0.012939881 0.0149629 -0.043026216 0.16364501 0.10173656 0.03285696
0.078887336 -0.03255038 -0.058626477 0.003077104 -0.06105038 0.08604325 0.00024738 -0.09338165
-0.012403393 -0.024643807 -0.039458536 -0.09618623 -0.028910007 -0.0001361613 -0.013201976 0.018151758
0.08599761 0.112108596 0.022645516 -0.024413241 0.02936887 0.10752584 -0.037704334 -0.09604283
0.06181598 0.12987202 -0.08433669 -0.0674213 0.009752044 0.085899435 -0.008381536 0.092014596
-0.011810979 0.010375699 0.014535707 -0.04970939 -0.11381558 -0.017271878 -0.03911833 0.040361024
0.043620657 -0.063081205 -0.046421472 0.09260517 -0.018249158 -0.0020705066 0.055752657 0.023606826
0.10739615 0.0010719998 0.13477752 -0.047759715 0.06031863 -0.012160579 0.05270252 0.028864894
0.083008975 -0.064672105 0.014362459 -0.040579855 0.04011592 0.03591969 -0.12940834 0.05138185
-0.1068857 -0.08277719 -0.105548464 -0.13125297 0.069574386 -0.089254074 0.057205074 0.04574003
-0.095109 0.09752482 -0.014676167 0.112891704 0.062491715 -0.06110462 -0.008983078 0.09853717
0.05031839 -0.017555838 0.08027353 0.05114732 -0.062405657 -0.053157233 0.15357795 0.037793063

rnn_layer.weight_hh_l0 f4 [64, 64]
00000000: e493 22be 7641 de3c cad4 2c3d 38a0 aabc
00000010: 3a26 c83c e9bf 5c3c bbb9 ae3c 3afb 8f3d
00000020: 7e3f b73d e710 963d 184e ad3d 936b e23b
00000030: 0c87 42bd 3883 4e3d e820 9fbd ff0f 513d
00000040: a923 f5bc 10c3 3d3d 8453 1bbd 8524 d1bd
00000050: 1449 2c3d 5cb3 3dbd 8dd0 033d 69bd afbd
00000060: c239 103e e80f c0bc e03c c1bc d90b 423d
00000070: 691c 90bd 9d23 7c3d 8830 08be 2d4c 5e3d
00000080: 5162 ec3d 9953 68bd 392e fb3d ad7d 173d
00000090: 7508 01bd 9fe6 443d 0d92 a53d 8899 673d
000000a0: 8b9e 26be c344 d63d 0cdd 623d bd94 203c
000000b0: 4c0c e3bd b17e 8e3d 8059 e73d 9597 843d
000000c0: 2fd3 833d 9bf4 86b9 ee0c 043d 6e7a c43d
000000d0: 2cd6 5b3d e8b7 b83d fa86 2dbe be0d dcbd
000000e0: 6547 adbc f0b9 50bc 8e02 8cbc 61ae 0c3d
000000f0: ae0f ccbc 6b4a 3e3d b60a 513d c6d6 20bd
00000100: dde2 233b 3767 22bd 0ba6 7c3d 4e67 1abd
00000110: 1b4c a2bd 4322 bebd 6e9f c1bd 74c2 7a3d
00000120: 8417 91bd c5a0 8cbc cc59 4c3d 9785 933c
00000130: ddf4 b23c 90bc b8bd fadd 8cbd 27c4 2f3d
00000140: 8039 643d 79ae 07be 8701 c73c 5d6f b83d
00000150: ab0e 1cbd 31e7 823d 0cb1 53bd 2ecc cabc
00000160: 59c4 b3bd 32f6 8b3c 0907 233d e6df 39bd
00000170: f5fc 94bd 57f4 dc3d c2c5 f0bd b3fc 3dbd
00000180: 6cd1 343c ee12 1ebd 128c 56bd 33ad 0f3d
00000190: aa02 d33d 2e63 e0bc 29cc 6dbd 3d72 17be
000001a0: d77d bebd 77f2 51bd 5fd7 923c 8fcb ed3c
000001b0: affa 8fbd a302 97bd 6ac5 8abd 47fa 923d
000001c0: defd 95bd 7197 be3d de84 cd3d 887e 0fbd
000001d0: 3e07 873c 62bf 0d3d 8949 903d dd61 dc3d
000001e0: b477 c0bc cdbf a43d 67e2 f53d 92b7 083c
000001f0: c55d 7f3d 21d4 1bbd 36e3 b6bd 8c6e ffbb
00000200: f06c efbd 6154 d7bd 8e25 1abe 8058 d3bc
00000210: 1391 703d 2167 43bc c5d4 31bc 2b83 4d3d
00000220: ea91 cebd 4c7e 96bc fba4 023d 9696 f3bd
00000230: a13a 393d b489 8a3d aa46 1e3d fe3c 40bd
00000240: 31cf 21bb 9020 0fbd d2e6 b03c 946c febc
00000250: 395c 5b3d 4257 f33c bb36 263d 2dab 463d
00000260: 18b1 51bd fa7b d93d adf2 aa3c 85a2 f9bd
00000270: 525e c83c 6219 e23d 9984 cdbc 429e 44bd
00000280: 589c 9e3c 5808 67bd 3848 f33b fbe0 b4bd
00000290: d77a 4e3d ced0 71bd a28c a93d d166 4d3d
000002a0: 3230 d03d 8927 143d 2437 e0bd f057 c73d
000002b0: f175 81bd 58e5 03bd 574d bfbd 5273 c83c
000002c0: a29e 05bd e9a6 283d a28d 42bc 7479 163e
000002d0: 42ea 4d3d 56e1 5c3d 1b29 36bd 38a5 96bd
000002e0: 0d34 ebbc beef f8bd 73e4 823d c841 6ebd
000002f0: 7969 833d 1b50 843d 652a 8f3d 190d 2439
00000300: 7836 223d 9776 d0bd cf59 91bb 299d 33be
00000310: c548 853d d7f3 353d 5855 7b3d 2d48 723d
00000320: db36 f73c 56d1 dbbd b2d0 86bd 85f8 5c3c
00000330: de9d cd3b 9a35 5e3d c7f6 bc3d a6d7 f3bd
00000340: 7379 85bc 6414 ddbd b56f c53d 9f8d 953d
00000350: c7fb aabd ab3c bf3d 1916 4a3d 9e92 e2bb
00000360: 1fa5 c23c a838 4c3d 2229 91bc dd9d b53d
00000370: d3e0 623c 41ad 8e3c b791 e0bd 2a3e 2cbc
00000380: b2b1 37bd 342d 313d cb3b 803d 06ab 863d
00000390: 37cf de3a 99ae 40bd 25d6 b83b 30b5 8ebb
000003a0: 943b 5c3d f9dc afbd b470 b23d 148f 0e3d
000003b0: 527b efbd e75d 9dbd 465f f6bd b6a4 23bd
000003c0: 50d7 743b 7249 c03d 4170 d13c acdf 003e
000003d0: c275 2bbd a106 e5ba 1610 97bd 55b7 1ebe
000003e0: 6b0e 55bb 2347 02be 61e4 333d 1b4f 0bbd
000003f0: e870 babd 97b3 cdbd 2501 5bbd d0df 84bd
-0.15876728 0.027130824 0.04219512 -0.020828351 0.02443229 0.013473489 0.021328798 0.070303395
0.08947657 0.073274426 0.08462161 0.0069097965 -0.047492072 0.05041811 -0.07769948 0.051040646
-0.02992423 0.046328604 -0.037921444 -0.10212044 0.04206188 -0.04631363 0.03218131 -0.08581049
0.14084533 -0.023445085 -0.023588598 0.04737458 -0.07036669 0.0615574 -0.13299763 0.054271866
0.1154219 -0.05672035 0.12264676 0.03698509 -0.031502206 0.0480715 0.080844976 0.056542903
-0.16271417 0.10462334 0.055386588 0.009801087 -0.1108633 0.06957758 0.11296368 0.064742245
0.064367644 -0.00025740717 0.032238893 0.09593664 0.053671047 0.09019452 -0.1694602 -0.107448086
-0.021152208 -0.012739643 -0.017091062 0.03434599 -0.02490982 0.04645769 0.051035605 -0.039267324
0.0025007047 -0.039649215 0.06168179 -0.037696175 -0.07924672 -0.09283879 -0.09454237 0.0612206
-0.070845634 -0.017166505 0.049890324 0.018008037 0.021845276 -0.090203404 -0.06878276 0.042911675
0.0557189 -0.1325015 0.02429272 0.09005616 -0.038099926 0.063917525 -0.051682517 -0.024755564
-0.08777685 0.017085169 0.03980163 -0.04537954 -0.0727481 0.107887916 -0.11756469 -0.04638357
0.011036258 -0.03859227 -0.052379675 0.035077285 0.103032425 -0.027391043 -0.05805603 -0.14789672
-0.09301346 -0.051256623 0.017924963 0.029027728 -0.07030236 -0.0737355 -0.06775935 0.07176643
-0.07323812 0.09306229 0.10035108 -0.03503278 0.016482946 0.034606345 0.07045276 0.107608534
-0.023494579 0.080443956 0.120060734 0.008344548 0.062345285 -0.0380441 -0.08930056 -0.0077951606
-0.116907 -0.10514141 -0.15053388 -0.025799036 0.058732104 -0.011926443 -0.010853951 0.05017392
-0.10086425 -0.01837077 0.03189562 -0.11893956 0.04522193 0.06764546 0.03864161 -0.046933167
-0.0024690146 -0.034943163 0.021594439 -0.031057633 0.053554747 0.029704694 0.04057954 0.04850309
-0.05119428 0.1061935 0.02086767 -0.12189201 0.024459038 0.11039998 -0.025087642 -0.04800249
0.01936166 -0.05640444 0.0074243806 -0.08831974 0.050410118 -0.059037022 0.08278777 0.05014688
0.101654425 0.036170516 -0.10948017 0.097335696 -0.06321324 -0.03220114 -0.09340923 0.024469052
-0.032621987 0.041174803 -0.011874588 0.14694768 0.050272234 0.053925835 -0.044472795 -0.07355732
-0.028711343 -0.12155102 0.063912295 -0.058168203 0.06416602 0.064605914 0.06990508 0.00015645138
0.039602727 -0.10178869 -0.004435755 -0.1754042 0.0650802 0.044421997 0.061360687 0.059150863
0.030177524 -0.10733287 -0.06582774 0.013486986 0.0062749228 0.054250337 0.092267565 -0.11906366
-0.016293263 -0.10794905 0.09640447 0.07302403 -0.08348804 0.09337743 0.04933748 -0.006914451
0.023760376 0.04985872 -0.017719809 0.08868001 0.013847548 0.017416598 -0.10965293 -0.010512868
-0.044847198 0.043256 0.062614046 0.06575589 0.0016999011 -0.04704151 0.0056407624 -0.0043550953
0.053767756 -0.08587069 0.08712903 0.03480442 -0.11693443 -0.07683926 -0.12029891 -0.039952002
0.0037359782 0.093890086 0.025566222 0.12585324 -0.04186035 -0.0017473289 -0.07376115 -0.15499623
-0.0032509814 -0.12722449 0.04391897 -0.034010988 -0.091035664 -0.1004402 -0.05346789 -0.06488001

rnn_layer.bias_ih_l0 f4 [64]
00000000: 69ed 953d a884 873d d8f2 9ebd cbd4 38bd
00000010: a862 403d 3a59 9e3d 49d0 91bd b142 5abd
00000020: de75 8b3a 3878 383d 769e 913d 51dc 39bc
00000030: e324 893d cd6c 8f3c ee93 0bbd f49c a8bd
00000040: 7fcc 8d3d 75a8 0d3d fe68 84bd faaa ea3b
00000050: 52d3 c83c ceb8 993d ed3f 0dbe 5493 633d
00000060: d5e2 f23b 71d1 8c3c 55b1 333d 528d 86ba
00000070: 4d48 083e c919 74bb 7ed6 2e3d e410 763d
00000080: 9f7f 86bc f6ae 58bd 5c38 343d a8e4 363c
00000090: 008f 173d c35f 99bd 071c 8abc 6c32 a4bc
000000a0: 51f2 cb3c 1984 fb3c 56dc c43d 2e5d 0bbd
000000b0: f6ad 063d 316a 95bd 088c 203d 8ff1 a6bd
000000c0: f62f 33bd 39f9 c6bd 482f 02bc eedd 9d3d
000000d0: 82a6 ad3d d0cf 91bd 6347 353d 954d 0ebd
000000e0: 7bbc 9e3d a4e4 e8bd 88af 9d3c eab8 aebd
000000f0: edf0 dbbd 719e 293d 0893 693d 124b 3ebd
0.07320673 0.06617099 -0.077611625 -0.04512481 0.046969086 0.07731862 -0.07119805 -0.053286258
0.0010639986 0.045036525 0.07110302 -0.011344031 0.06696489 0.017507935 -0.034076624 -0.082330614
0.0692377 0.03458448 -0.06465338 0.0071614953 0.024514828 0.07505952 -0.13793917 0.055560425
0.0074122944 0.017189713 0.04387029 -0.0010265505 0.1330883 -0.0037246814 0.042685024 0.060074702
-0.016418276 -0.05290123 0.04399906 0.011162914 0.03700161 -0.07488968 -0.016859068 -0.020043574
0.024895819 0.030702638 0.09612338 -0.03402441 0.032880746 -0.07295645 0.039196044 -0.081515424
-0.04374691 -0.09715504 -0.007945843 0.07708345 0.084790245 -0.07119715 0.044257533 -0.034741957
0.077507935 -0.11371735 0.019248739 -0.08531363 -0.10739312 0.041410867 0.057024986 -0.04645831

rnn_layer.bias_hh_l0 f4 [64]
00000000: 492c bd3c bd93 84bc 69fa d5bc c5ec a23c
00000010: 60f3 333d 44c1 e1bd ba6f 943c d09b 8f3d
00000020: be40 ab3c 3412 09bd 09d1 b2bd d1cd a6bd
00000030: fb60 dcbd 5f41 e5bc dc3d cb3d 4212 373d
00000040: 403c acbd c0e8 98bb 3be8 a3bc 5313 443d
00000050: e60c c0bd add4 91bd 8f6a 753d 6941 b63c
00000060: 7c00 77bd 123b a73d 68aa d8bb 7f98 313c
00000070: 0f97 b7bd 9771 4a3d 058d 9f3d edb0 a83d
00000080: 1f0f f33c aeb5 473d cfd1 c3bd a78a 45bd
00000090: 7555 393c e14f ad3d f445 ab3d 55ad 2c3d
000000a0: 6bf6 e53b 6baa 313d 6ed9 c0bc 7077 4cbd
000000b0: 0252 20bd 0336 b5bd a274 9f3d 9643 883d
000000c0: 7aa8 483d 6715 253d 97bc 343d e077 693c
000000d0: 27b1 a3bd 5c27 db3d 297b 7b3c 2fed b33c
000000e0: 39d5 c9bc 3ad1 fd3d 6440 a7bd 3626 88bd
000000f0: 424a 2a3d b91c 2f3d 1971 b63c c2bb 0dbd
0.023092406 -0.016183728 -0.026120381 0.019888291 0.043933272 -0.110231906 0.018119682 0.07012141
0.020904895 -0.033464625 -0.087312765 -0.08144725 -0.10760685 -0.027985273 0.09923908 0.044695146
-0.08409929 -0.004666418 -0.020008197 0.04786999 -0.0937746 -0.07120643 0.059916075 0.022247987
-0.060303196 0.08165564 -0.006612111 0.010839581 -0.08964359 0.049424734 0.07790569 0.08236871
0.029670296 0.048757248 -0.09561502 -0.048227932 0.011311878 0.08462501 0.08362952 0.04215749
0.0070179007 0.043375414 -0.023541179 -0.049918592 -0.03914071 -0.088481925 0.07785918 0.06653516
0.048988797 0.040303614 0.044125166 0.014249772 -0.079927735 0.107008666 0.015349188 0.021963684
-0.024637805 0.123934224 -0.081665784 -0.06647913 0.041574724 0.042752 0.022270726 -0.034602888

fc.weight f4 [3, 64]
00000000: a00b 0cbb 4eeb 57bd cbf4 af3d 5793 31bd
00000010: 4b92 53bd 5513 a93d 5777 60bd 0b33 1abd
00000020: e956 1eb9 f5b2 c6bc 6437 b5bd 541c bc3c
00000030: 2394 8a3d 5ec3 bdbd 222f 00bd 72d1 2e3c
00000040: 1aa8 603d 3cc7 11bd c86b 843d 2b83 383c
00000050: 8bfd 07bc b1de 9abc 0149 d23c 18da c3bd
00000060: e1d9 ddbb 0943 99bc ce4e 5c3c 51fa 29bd
00000070: 034a 84bb 87c2 a13d 7ba3 643b 7eae aebd
00000080: 4957 be3c e2b9 78bd 4c93 93bd ea36 71bd
00000090: f6bc 1dbd 4b82 8d3a fbca 22bd 2d03 c4bc
000000a0: f9ea 55bc d734 a63c 860c 75bd 0dbf 9338
000000b0: 6f22 543a 73a3 213d 07db 7d3d 221f b23c
000000c0: 702f 433c a935 aa3d 7cc7 823c 047b 2f3d
000000d0: 005f 17bb 5689 e436 1d4c 0b3d c3f2 b03d
000000e0: 588d a73b 046c 5cbc 5679 54bc 1d5a e73c
000000f0: f32a f13c dee6 03bd 69f2 1ebd 22fc 2dbc
00000100: 3968 76bb 092d 4dbd f7a0 ae3d 7e01 3cbd
00000110: eb7d 62bd f1cd ab3d e59f 2abd d3e6 b0bc
00000120: d5d6 cb3b 1a42 ecbc 08c4 a0bd a48e 243d
00000130: c078 8a3d 7a76 b1bd 4b43 f3bc 5532 0e3c
00000140: 9d89 563d 47c8 b5bc 7986 583d 54f8 983c
00000150: 366f 1abc 93f0 e6bb 1cf7 f43c ac36 bbbd
00000160: 4b8b dabb d666 76bc c6f7 443c 629c 2ebd
00000170: ae89 6d3c 8623 863d 3c23 8c3a c794 a1bd
00000180: 7b42 923c a8ea 5cbd c1f2 a2bd fedf 68bd
00000190: 1326 09bd fa53 c43b 9ce1 3cbd c649 aebc
000001a0: c387 1fbd 2154 ba3c e194 83bd e178 2a3b
000001b0: b002 82bc da36 4339 b3e5 943d 4150 793c
000001c0: 7f52 3d3c ac5b c6bd 460c 983c e787 3e3d
000001d0: 8670 02bc 731d 9b39 e257 eb3c bab9 b63d
000001e0: 3f63 b53b b0e5 2bbc 0eb8 5dbc 6c89 8fbd
000001f0: 15fb 013d aead 4ebd e170 1ebd 061c 8bbc
00000200: 5fc0 093b 4521 4fbd 5d04 ad3d 6f45 24bd
00000210: a1a6 64bd 2389 aa3d 9af1 4cbd 2a50 19bd
00000220: 8398 6338 84a2 c3bc 5c8b c2bd 4de2 0b3d
00000230: e6f9 8a3d e27d b8bd 2c9d ebbc 6ebe 4c3c
00000240: 6de3 643d b446 ebbb 9442 693d d725 a63c
00000250: 294a 43bc 6316 a2bc 641d bf3c ce40 bebd
00000260: fa7b f3bb 958d 82bc 0c0e 3e3c c00f 2ebd
00000270: 98d6 8d39 12f3 9f3d 4329 6a3b 22d0 a5bd
00000280: 70ca b93c b9f3 67bd 680e 93bd a61a 76bd
00000290: 5412 22bd 4f06 85ba 28d6 17bd 8b52 b9bc
000002a0: fb95 cbbc 4fd7 c53c 9066 7bbd 02b3 db3a
000002b0: e24c 83b9 08b3 623d 8157 7a3d c79f c03c
000002c0: 220a 6f3c 9365 15bc 0f14 793c 38be 263d
000002d0: e48a 67bb 59c6 cb3a cfc8 153d 330f b33d
000002e0: 1833 fd3b 8fe8 66bc f15a 62bc 5cc8 b7bb
000002f0: 7d10 f53c ea76 1fbd f571 13bd 443c 8ebc
-0.0021369234 -0.05271464 0.085916124 -0.043353405 -0.051653188 0.082556404 -0.05480131 -0.037646335
-0.00015100431 -0.024255255 -0.088484555 0.022962727 0.06766536 -0.09265779 -0.03129495 0.010670053
0.054847814 -0.035590395 0.0646587 0.011261742 -0.008300195 -0.018905016 0.025669577 -0.095630825
-0.006770358 -0.018708723 0.013446523 -0.041498486 -0.004037143 0.07898431 0.003488748 -0.085293755
0.02323498 -0.060724147 -0.07205829 -0.05889026 -0.038510285 0.0010796277 -0.03974436 -0.023927296
-0.01305651 0.020288868 -0.059826396 7.045092e-05 0.0008092289 0.039462518 0.06197646 0.02174336
0.011913165 0.08311016 0.015964262 0.042841926 -0.0023097396 6.8109175e-06 0.034008134 0.08640053
0.005113285 -0.013453487 -0.012968382 0.028241212 0.029439425 -0.032202594 -0.0388054 -0.010619195
-0.0037598743 -0.050091777 0.08526795 -0.04589986 -0.055295866 0.083888896 -0.041656394 -0.02159444
0.0062206783 -0.028840113 -0.0784989 0.040175095 0.067613125 -0.08665176 -0.029695174 0.008678992
0.052377332 -0.022190226 0.052862618 0.0186731 -0.009425929 -0.0070477217 0.029902987 -0.09141287
-0.006669437 -0.015039166 0.012021964 -0.042629607 0.014498157 0.06549744 0.0010691653 -0.07889705
0.017853966 -0.053934723 -0.07956458 -0.05685424 -0.033483576 0.005991456 -0.046113595 -0.021275412
-0.03894783 0.022745194 -0.06424881 0.002601199 -0.015870422 0.00018617083 0.07270374 0.015216888
0.011555313 -0.09685454 0.01856054 0.046516325 -0.007961398 0.00029585845 0.02872843 0.08922143
0.0055355127 -0.0104917735 -0.013532652 -0.07008633 0.03173359 -0.050458603 -0.03868187 -0.016981136
0.0021019203 -0.050568838 0.08448098 -0.04010528 -0.055822972 0.08326938 -0.050035097 -0.037429966
5.4263055e-05 -0.023881204 -0.09499237 0.034151364 0.067859456 -0.09008385 -0.028761469 0.012496574
0.055880953 -0.0071800593 0.05694826 0.020281715 -0.011919537 -0.019786065 0.023329444 -0.09289704
-0.0074305506 -0.015936652 0.011600029 -0.04249549 0.000270535 0.07810034 0.003573016 -0.08096339
0.022679538 -0.056628916 -0.07180482 -0.060084008 -0.03956826 -0.0010148975 -0.03706947 -0.022622367
-0.02485179 0.024150519 -0.061377108 0.0016761723 -0.0002504355 0.05534652 0.061118606 0.023513688
0.014589818 -0.009118455 0.015202536 0.04070875 -0.0035330588 0.0015546783 0.03656846 0.087431334
0.007727038 -0.014093532 -0.013815627 -0.0056086015 0.029915089 -0.038931765 -0.03599735 -0.017362721

fc.bias f4 [3]
00000000: 4b1a b93c 87f7 b8bc fa52 b13b
0.022595545 -0.022578968 0.005411503
