trainedModels/1620284921/rnn.pt (torch, 22538 bytes, 6 tensors)

rnn_layer.weight_ih_l0 f4 [64, 12]
0.08517887 -0.10633403 0.011073613 0.07554319 -0.073583625 0.019680407 -0.00926832 -0.059249118
-0.066650406 -0.11009622 0.0003809329 -0.14143369 -0.062956214 -0.024520013 -0.08924409 -0.032399684
-0.0070908554 -0.023154348 0.023164006 -0.20072119 0.029078053 0.061993636 0.0042941133 -0.05701682
0.027742231 0.09657362 0.0035526187 0.021572558 0.06468922 0.1692342 -0.027664056 0.16652988
0.026359178 0.069880575 -0.055000655 0.00059769157 0.045005415 0.11455497 -0.043074664 -0.052786507
-0.014518594 0.0809325 0.004258656 0.04804809 -0.06708639 0.091087855 -0.01547611 0.05308511
-0.055030424 -0.03088314 -0.053923596 -0.03742002 -0.05372462 -0.09752632 0.0045748837 -0.019573784
-0.0033074664 -0.05520511 0.04892018 -0.033199657 -0.024367753 0.111146525 -0.052330628 0.017864147
0.116665006 0.10957097 0.012550452 0.05908005 0.07384312 -0.0017171947 -0.05369652 -0.010753933
0.09656234 -0.012514049 0.028756175 0.10173148 0.0015635606 0.061770607 0.008377032 -0.14320853
0.13074833 0.041302964 0.025302887 -0.06349964 0.07178571 0.07657297 -0.008283097 -0.028639555
-0.07092941 0.016639631 -0.009056767 0.037084136 0.039734628 -0.12479154 0.062609784 -0.043788224
-0.028197816 0.03064618 -0.10213361 -0.013852638 -0.02861668 -0.06484504 -0.0037934682 -0.11735781
0.09569424 -0.10426095 -0.037232842 0.03141856 -0.10627004 0.017672341 -0.07352466 0.035854805
0.03768422 0.03868702 -0.0007836435 -0.09757927 0.0832111 0.10452869 0.033830237 -0.03956948
-0.018659944 0.05475875 -0.023697995 0.086365335 0.017948268 0.009375316 -0.021852035 0.07080577
0.072838716 -0.03001311 -0.0042785383 0.07601693 0.06589839 0.06692986 0.10420817 -0.0024341072
-0.017970808 0.010081154 -0.018551474 0.09507274 -0.018658107 0.093286864 0.076480746 0.09023355
-0.0696442 -0.024816688 0.09512382 0.050956372 0.03733723 0.056263134 0.03903318 0.061485417
-0.067428686 0.031004809 0.031024164 -0.038642123 -0.04845189 -0.08126211 -0.0065883584 0.053496666
-0.053492445 -0.05394263 0.0033387642 -0.0042497125 -0.0689234 0.16339527 0.0892327 0.019584637
0.0759006 -0.042223874 -0.046186965 0.023475075 -0.05481136 0.09263353 -0.013037834 -0.062303655
-0.049927928 -0.004245569 -0.03321819 -0.089595936 -0.04597294 0.019288626 -0.029189428 0.061403476
0.08223243 0.1362297 -0.017081771 -0.02053293 0.021602225 0.1507777 -0.041469466 -0.07192048
0.058395635 0.15358026 -0.081224486 -0.080533855 0.008891443 0.077057324 0.007161507 0.04788513
-0.014463154 -0.002738435 0.01367497 -0.058549527 -0.13646787 -0.0030582612 -0.0449811 0.04742076
0.027792014 -0.076406576 -0.008557968 0.037425328 -0.012654869 0.00498928 0.03992365 0.0102800615
0.08592499 -0.017884543 0.1269766 0.0074849445 0.04775433 0.0052869986 0.013827957 -0.024267271
0.091351055 -0.009427273 0.0017967498 -0.023133084 0.024521666 -0.022408804 -0.1250844 0.043156877
-0.12932108 -0.09411893 0.00080198713 -0.1727505 0.094410874 -0.097477086 0.03476545 0.034397822
-0.14431979 0.055573173 0.0242123 0.10190189 0.053679474 -0.066233486 -0.009039243 0.07315481
0.021391151 -0.028546836 0.0714595 0.046017855 -0.05395955 -0.0839727 0.15678917 0.051628143
00000000: 4272 ae3d a8c5 d9bd 196e 353c 63b6 9a3d
00000010: 03b3 96bd ce38 a13c 27da 17bc 34af 72bd
00000020: 0280 88bd 217a e1bd f3b7 c739 fed3 10be
00000030: 30ef 80bd 32de c8bc 9bc5 b6bd 88b5 04bd
00000040: 685a e8bb 30ae bdbc 71c2 bd3c db89 4dbe
00000050: 1935 ee3c 0aed 7d3d a2b5 8c3b 788a 69bd
00000060: ad43 e33c 64c8 c53d 0dd3 683b efb8 b03c
00000070: c87b 843d bb4b 2d3e bb9f e2bc cf86 2a3e
00000080: 34ef d73c 8c1d 8f3d 5e48 61bd 67ae 1c3a
00000090: 9957 383d cc9b ea3d 0f6f 30bd aa36 58bd
000000a0: 66df 6dbc f0bf a53d 328c 8b3b 13ce 443d
000000b0: 9764 89bd 458c ba3d 838f 7dbc c66f 593d
000000c0: 9567 61bd a4fe fcbc fdde 5cbd bc45 19bd
000000d0: 590e 5cbd e1bb c7bd e8e8 953b 3359 a0bc
000000e0: 14c2 58bb c11e 62bd 8760 483d 5dfc 07bd
000000f0: e29e c7bc caa0 e33d a458 56bd d557 923c
00000100: 10ee ee3d bf66 e03d 69a0 4d3c ecfd 713d
00000110: 103b 973d 7e13 e1ba e2f0 5bbd 4431 30bc
00000120: 7ac2 c53d ba07 4dbc 1292 eb3c 9858 d03d
00000130: 63f0 cc3a 2d03 7d3d d23f 093c 42a5 12be
00000140: e4e2 053e 4c2d 293d 0048 cf3c 190c 82bd
00000150: 6304 933d 4ad2 9c3d d4b5 07bc 809d eabc
00000160: 7043 91bd d64f 883c d662 14bc 89e5 173d
00000170: c7c0 223d b592 ffbd 8f39 803d 485b 33bd
00000180: 1bff e6bc b30d fb3c 6d2b d1bd 2df6 62bc
00000190: 876d eabc 7acd 84bd d69b 78bb 4b59 f0bd
000001a0: 57fb c33d c486 d5bd 7781 18bd bfb0 003d
000001b0: 1ba4 d9bd 96c5 903c 1994 96bd 7ddc 123d
000001c0: c55a 1a3d 4876 1e3d 6d6d 4dba a4d7 c7bd
000001d0: 956a aa3d 2313 d63d 9391 0a3d 9b13 22bd
000001e0: bddc 98bc b64a 603d 4c22 c2bc 4fe0 b03d
000001f0: 3f08 933c ed9a 193c 0a03 b3bc 9e02 913d
00000200: 772c 953d 0ede f5bc fb32 8cbb c4ae 9b3d
00000210: bcf5 863d 8612 893d 186b d53d 8b85 1fbb
00000220: 8437 93bc 6d2b 253c 43f9 97bc 7fb5 c23d
00000230: e3d8 98bc 2f0d bf3d f0a1 9c3d 5ecc b83d
00000240: 9ea1 8ebd 5e4c cbbc 47d0 c23d a1b7 503d
00000250: ecee 183d 2c74 663d 41e1 1f3d 22d8 7b3d
00000260: 0d18 8abd ccfd fd3c 6326 fe3c 3447 1ebd
00000270: 7d75 46bd c06c a6bd 28e3 d7bb 521f 5b3d
00000280: e51a 5bbd f2f2 5cbd 2bcf 5a3b 2c41 8bbb
00000290: b627 8dbd 1751 273e a2bf b63d f66f a03c
000002a0: c671 9b3d f1f2 2cbd 8b2e 3dbd cd4e c03c
000002b0: e081 60bd a6b6 bd3d a49c 55bc 1e32 7fbd
000002c0: 3a81 4cbd 6a1e 8bbb cc0f 08bd 137e b7bd
000002d0: 1f4e 3cbd 2e03 9e3c ab1e efbc 3682 7b3d
000002e0: 7a69 a83d cc7f 0b3e 12ef 8bbc ad34 a8bc
000002f0: 26f7 b03c 7865 1a3e e3db 29bd 0b4b 93bd
00000300: 4330 6f3d 2544 1d3e 0659 a6bd efee a4bd
00000310: 6aad 113c 3bd0 9d3d 13ab ea3b 3323 443d
00000320: ddf6 6cbc 5177 33bb fb0c 603c a1d1 6fbd
00000330: 3cbe 0bbe 1c6d 48bb 1a3e 38bd 453c 423d
00000340: 14ac e33c 0d7b 9cbd b836 0cbc 4d4b 193d
00000350: 5e56 4fbc 1d7d a33b fb86 233d b46d 283c
00000360: 71f9 af3d 9b82 92bc 2706 023e 4444 f53b
00000370: 0b9a 433d 8f3e ad3b a88e 623c 28cc c6bc
00000380: 4316 bb3d d974 1abc eb80 eb3a 9881 bdbc
00000390: a9e1 c83c ab92 b7bc 2016 00be 44c5 303d
000003a0: bf6c 04be 6dc1 c0bd 723c 523a 82e5 30be
000003b0: 7d5a c13d 11a2 c7bd 3766 0e3d bbe4 0c3d
000003c0: 91c8 13be b2a0 633d e058 c63c f0b1 d03d
000003d0: 02df 5b3d 6ca5 87bd 5519 14bc 30d2 953d
000003e0: 7f3c af3c 0edb e9bc 5c59 923d 387d 3c3d
000003f0: b004 5dbd e1f9 abbd 578d 203e 0878 533d

rnn_layer.weight_hh_l0 f4 [64, 64]
-0.518078 -0.015934229 -0.031917866 -0.1604596 0.056277864 -0.04707854 0.12226466 9.671736e-05
0.016752193 0.011024268 -0.03283172 -0.0016637048 -0.009839009 -0.021045119 0.002951286 0.009795586
0.053824473 -0.018302018 0.04565123 -0.07651515 0.034792587 0.059080236 -0.07777002 -0.036144022
-0.043213002 -0.08494685 0.074697405 -0.025367893 -0.052870777 0.066381134 -0.17608587 0.013060195
0.1294099 -0.03458666 0.057668384 -0.040843677 0.029797317 -0.05014701 0.03326538 -0.0969149
-0.08382905 -0.033991486 0.047649033 0.025973761 -0.14016315 -0.04534171 0.034203585 0.086733855
0.07911978 0.08633269 -0.025133327 0.006318122 0.017759796 -0.01171659 -0.09695184 0.03793862
0.075157404 0.042551164 -0.017812721 0.06752479 -0.06955347 0.08934855 -0.024013622 -0.10431123
-0.0059293713 -0.43052602 0.0746405 -0.008246875 -0.096802115 -0.25696027 -0.04559378 0.07818765
-0.05962143 -0.12387255 0.1096943 -0.116159156 -0.008399423 -0.16464067 -0.14227948 -0.020340642
0.019907802 -0.106217496 -0.046084635 -0.13993807 0.11976958 0.14157613 -0.0873323 -0.052527845
-0.1087642 0.079244345 0.03675792 -0.06803236 0.0037317115 0.15687114 0.011562529 0.10615357
0.036282625 0.10057095 -0.026237102 0.05490734 0.03417401 0.031378407 -0.049703423 -0.14557335
0.020958057 -0.0012130653 -0.056980807 -0.05888781 -0.08614251 0.03222394 -0.03152567 0.04033106
0.029360516 -0.044685636 0.11653829 -0.10303566 -0.012075319 0.016180404 0.17427614 0.005537219
0.030616688 0.067437984 0.1090463 0.05073407 0.116277695 -0.07014187 -0.06939699 0.1048608
0.046480294 -0.061117865 -0.49295154 0.07152526 0.015807444 0.022470064 0.064456515 0.036669523
-0.015877536 -0.012573068 0.09278089 -0.046321876 -0.015663546 0.117461205 0.024339318 -0.08728093
0.052874308 0.01610673 0.0838256 0.024654867 0.0547502 0.037743576 0.14984106 -0.058619313
0.034597374 0.11874009 -0.06344372 -0.029628323 -0.12867264 0.075312674 0.055441137 0.05126792
-0.10858039 -0.06778511 0.0042696893 -0.09095831 -0.038527958 0.04306398 0.04591543 -0.062004905
-0.0029995523 0.04334679 -0.109760344 0.22958954 0.051034734 0.018132208 -0.10824343 -0.057884395
-0.14012617 0.069697246 -0.07615115 -0.033538 0.036721252 0.04263455 -0.080018416 0.05263637
0.08007403 -0.11982162 0.048964895 -0.033190563 -0.032646593 0.002110447 -0.013956709 0.040111974
-0.028155223 -0.028479801 -0.008712167 -0.69853866 0.055623412 -0.051568914 -0.050032753 -0.032983046
0.09751823 -0.036045827 -0.07213814 -0.029094119 0.08737819 0.0022099165 -0.055680636 -0.047028195
0.11811329 0.07731257 -0.032849915 0.05443087 0.042646352 0.17541786 0.021430008 0.07171643
0.076407366 0.01042542 0.03229888 0.056329027 0.040487226 -0.12484913 -0.19151191 -0.057970166
-0.014005547 0.0059352685 0.0049208472 0.02330688 -0.048932858 -0.017114 -0.011457176 -0.007832267
0.06480046 -0.05434334 0.11660076 0.030164517 -0.01786718 -0.0932145 0.04663029 -0.035527177
-0.037368793 -0.02555224 0.0845411 0.03488013 -0.0071094986 -0.04671211 -0.07331119 0.07499447
0.059055056 -0.065753885 0.12437941 -0.099093325 0.0062459484 -0.05163639 0.0070160595 -0.0655896
00000000: c3a0 04bf 8088 82bc 4fbc 02bd 854f 24be
00000010: 9e83 663d 6dd5 40bd e565 fa3d bdd4 ca38
00000020: e53b 893c 229f 343c 8e7a 06bd ab10 daba
00000030: cb33 21bc d066 acbc 5d6a 413b aa7d 203c
00000040: 0d77 5c3d 1dee 95bc c9fc 3a3d fab3 9cbd
00000050: ac82 0e3d 1efe 713d e345 9fbd c10b 14bd
00000060: 1e00 31bd 9df8 adbd f4fa 983d 54d0 cfbc
00000070: 078f 58bd d5f2 873d db4f 34be 6efa 553c
00000080: 0784 043e beaa 0dbd af35 6c3d b34b 27bd
00000090: 8119 f43c f366 4dbd 4741 083d 527b c6bd
000000a0: 91ae abbd a83a 0bbd a22b 433d edc6 d43c
000000b0: ee86 0fbe 3bb8 39bd 0f19 0c3d 85a1 b13d
000000c0: 8d09 a23d 32cf b03d 68e4 cdbc 4008 cf3b
000000d0: fe7c 913c f1f6 3fbc b08e c6bd 8765 1b3d
000000e0: 20ec 993d 214a 2e3d fceb 91bc 704a 8a3d
000000f0: 0d72 8ebd 5ffc b63d 37b8 c4bc 20a1 d5bd
00000100: 2c4b c2bb e86d dcbe 1edd 983d e71d 07bc
00000110: 3040 c6bd 4c90 83be 8bc0 3abd d920 a03d
00000120: 9a35 74bd e4b0 fdbd 68a7 e03d dae4 edbd
00000130: bc9d 09bc 9097 28be b6b1 11be 6ba1 a6bc
00000140: b015 a33c 8f88 d9bd 3ec3 3cbd ed4b 0fbe
00000150: c149 f53d 55f9 103e 47db b2bd 7027 57bd
00000160: c4bf debd dc4a a23d 798f 163d 8d54 8bbd
00000170: bb8f 743b d4a2 203e c370 3d3c 0b67 d93d
00000180: 179d 143d 24f8 cd3d 31ef d6bc 85e6 603d
00000190: 0cfa 0b3d a586 003d d195 4bbd 2e11 15be
000001a0: 3bb0 ab3c b8ff 9eba b564 69bd 5834 71bd
000001b0: 7c6b b0bd 40fd 033d 1021 01bd 2e32 253d
000001c0: 7785 f03c 4908 37bd a1ab ee3d 5c04 d3bd
000001d0: 8fd7 45bc c48c 843c 7275 323e 8f71 b53b
000001e0: d9cf fa3c ed1c 8a3d ab53 df3d 87ce 4f3d
000001f0: 0023 ee3d 8aa6 8fbd 0220 8ebd 42c1 d63d
00000200: 1f62 3e3d ba56 7abd 2564 fcbe d67b 923d
00000210: 9d7e 813c 2413 b83c c701 843d c832 163d
00000220: 9b11 82bc 45ff 4dbc e803 be3d 02bc 3dbd
00000230: d650 80bc 808f f03d 4063 c73c 58c0 b2bd
00000240: bb92 583d 43f2 833c c2ac ab3d 01f9 c93c
00000250: bf41 603d 0299 1a3d ef6f 193e ce1a 70bd
00000260: fab5 0d3d 012e f33d c8ee 81bd 19b7 f2bc
00000270: c3c2 03be 883d 9a3d 3f16 633d 4ffe 513d
00000280: 655f debd ebd2 8abd c0e8 8b3b 5a48 babd
00000290: 7ecf 1dbd db63 303d d111 3c3d dbf8 7dbd
000002a0: 2394 44bb 678c 313d 08ca e0bd 8519 6b3e
000002b0: cc09 513d ff89 943c bbae ddbd 3018 6dbd
000002c0: 3c7d 0fbe 6ebd 8e3d 22f5 9bbd 245f 09bd
000002d0: 0669 163d 91a1 2e3d b2e0 a3bd 3c99 573d
000002e0: dafd a33d 0a65 f5bd 6a8f 483d d4f2 07bd
000002f0: 6fb8 05bd 6d4f 0a3b aeaa 64bc 744c 243d
00000300: c8a5 e6bc 794e e9bc 7abd 0ebc 6ed3 32bf
00000310: 60d5 633d ed39 53bd 25ef 4cbd 3b19 07bd
00000320: a3b7 c73d caa4 13bd 29bd 93bd ca56 eebc
00000330: 56f3 b23d 3fd4 103b 6111 64bd a3a0 40bd
00000340: 61e5 f13d 0d56 9e3d a28d 06bd e7f2 5e3d
00000350: f1ad 2e3d bda0 333e fc8d af3c 10e0 923d
00000360: 777b 9c3d 61cf 2a3c d54b 043d 44b9 663d
00000370: efd5 253d e7b0 ffbd b31b 44be 2072 6dbd
00000380: 8677 65bc a47c c23b 0f3f a13b 12ee be3c
00000390: d26d 48bd a932 8cbc e1b6 3bbc e952 00bc
000003a0: 1bb6 843d 1f97 5ebd 61cc ee3d 941b f73c
000003b0: 315e 92bc 3ee7 bebd 67ff 3e3d f284 11bd
000003c0: 0510 19bd ee52 d1bc e223 ad3d 78de 0e3d
000003d0: ccf6 e8bb 3355 3fbd 2d24 96bd b396 993d
000003e0: b7e3 713d f9a9 86bd a2ba fe3d 71f1 cabd
000003f0: d0aa cc3b ae80 53bd f9e6 e53b d753 86bd

rnn_layer.bias_ih_l0 f4 [64]
0.06746539 0.069284596 -0.06879351 -0.05177273 0.045527555 0.051919907 -0.077308916 -0.057930406
0.020563439 0.024729948 0.051520005 -0.015952967 0.06049809 0.03323055 -0.032793112 -0.0810102
0.06526453 0.044273973 -0.06693155 0.025450816 0.04268655 0.07369238 -0.14118752 0.052503522
0.0038477548 0.011776358 0.0381431 -0.0078685125 0.116315305 -0.012881796 0.039867222 0.05599722
-0.013979476 -0.04625093 0.022750702 0.019321885 0.025973734 -0.08069174 -0.016335413 -0.043890305
0.039507005 0.031137709 0.08210312 -0.06615058 0.017911993 -0.06509821 0.04463342 -0.07269729
-0.02899655 -0.058040574 -0.0070084413 0.117198646 0.09323241 -0.0632115 0.046153095 -0.038136628
0.07890976 -0.10625246 0.03933845 -0.057141807 -0.08498528 0.06378427 0.069423825 -0.048156492
00000000: 4b2b 8a3d 15e5 8d3d 9de3 8cbd a40f 54bd
00000010: 1a7b 3a3d f8a9 543d 2354 9ebd 6f48 6dbd
00000020: a874 a83c 7696 ca3c a406 533d ccaf 82bc
00000030: d8cc 773d c21c 083d 1252 06bd ade8 a5bd
00000040: 69a9 853d a058 353d 6913 89bd 3b7e d03c
00000050: 18d8 2e3d 08ec 963d 7693 10be ef0d 573d
00000060: 9d2a 7c3b a0f1 403c f03b 1c3d efea 00bc
00000070: b836 ee3d 2b0e 53bc d04b 233d 575d 653d
00000080: 2c0a 65bc 9d71 3dbd ae5f ba3c ee48 9e3c
00000090: dec6 d43c b641 a5bd d8d1 85bc 52c6 33bd
000000a0: 19d2 213d 8214 ff3c ae25 a83d f579 87bd
000000b0: 2cbc 923c 3652 85bd 88d1 363d 51e2 94bd
000000c0: 2c8a edbc f4bb 6dbd 11a7 e5bb d805 f03d
000000d0: a2f0 be3d 0875 81bd 070b 3d3d 2735 1cbd
000000e0: 719b a13d e49a d9bd 5b21 213d 870d 6abd
000000f0: c30c aebd 54a1 823d 142e 8e3d be3f 45bd

rnn_layer.bias_hh_l0 f4 [64]
0.017351463 -0.01307253 -0.017302867 0.013241089 0.042491663 -0.13563195 0.012008216 0.06547785
0.040404264 -0.053770665 -0.10689639 -0.086057134 -0.1140737 -0.012262146 0.10052338 0.046017207
-0.088072956 0.005023323 -0.022285484 0.06616047 -0.07560514 -0.0725736 0.05666858 0.019190254
-0.06386876 0.076245494 -0.012339551 0.0039974926 -0.1064167 0.04026789 0.07508831 0.078286745
0.032109074 0.055407267 -0.116863295 -0.040069122 0.00028401925 0.078822955 0.08415667 0.018310316
0.021629695 0.04381081 -0.03756086 -0.08204403 -0.054109152 -0.08062251 0.08329574 0.0753533
0.06373883 0.07941759 0.04506416 0.054365233 -0.07148564 0.11499416 0.01724496 0.018567227
-0.023234898 0.13140184 -0.061572794 -0.038307052 0.0639818 0.0651254 0.034669 -0.036301587
00000000: a824 8e3c 2a2e 56bc bebe 8dbc 27f1 583c
00000010: bd0b 2e3d 1ae3 0abe 1cbe 443c 4019 863d
00000020: f17e 253d a13e 5cbd 7fec dabd b93e b0bd
00000030: 799f e9bd 2be7 48bc 34df cd3d 8a7c 3c3d
00000040: 985f b4bd b09a a43b 0c90 b6bc 247f 873d
00000050: ded6 9abd 78a1 94bd 501d 683d e134 9d3c
00000060: a0cd 82bd 9926 9c3d d42b 4abc 66fd 823b
00000070: 00f1 d9bd f1ef 243d e6c7 993d cd54 a03d
00000080: ce84 033d bbf2 623d 0656 efbd 851f 24bd
00000090: 6be8 9439 ee6d a13d 555a ac3d 84ff 953c
000000a0: c230 b13c f772 333d 6bd9 19bd b306 a8bd
000000b0: 8fa1 5dbd 6a1d a5bd f596 aa3d d552 9a3d
000000c0: 8189 823d b0a5 a23d 3295 383d 14ae 5e3d
000000d0: 1067 92bd 0f82 eb3d 4d45 8d3c 4c1a 983c
000000e0: 1d57 bebc 348e 063e c133 7cbd dbe7 1cbd
000000f0: e408 833d 7760 853d 1501 0e3d f9b0 14bd

fc.weight f4 [3, 64]
-0.0019822363 -0.049840473 0.089669324 -0.042260975 -0.047450688 0.080695085 -0.0431249 -0.016400376
0.009121625 -0.020752652 -0.080149 0.020820845 0.047358215 -0.107018396 -0.041393787 0.033462312
0.055120837 -0.02495796 0.037784137 0.027675811 0.0107117 -0.0137935 0.022358663 -0.09248244
-0.0015669746 -0.010897617 0.023741925 -0.03992222 0.006430627 0.082431704 0.002847265 -0.07995265
0.02699099 -0.0454147 -0.075237505 -0.054241996 -0.04119578 0.0064603966 -0.043578893 -0.049896453
-0.02225722 0.022849714 -0.066650674 -0.019185865 -0.009091614 0.041733984 0.055035137 0.012568498
-0.00073527475 -0.032749332 0.0145183485 0.048955128 -0.0151850935 0.002857821 0.036820874 0.08894589
0.019906815 -0.010843366 -0.009534821 -0.020372119 0.044566356 -0.05102641 -0.03229125 -0.0469182
-0.0033689998 -0.051392205 0.08689443 -0.046356414 -0.04990561 0.07455931 -0.037857838 -0.019829186
0.008526786 -0.023156703 -0.08023544 0.01756982 0.04759399 -0.1085549 -0.038392134 0.033114396
0.052548446 -0.023232214 0.037284654 0.02909483 0.017161762 -0.018722078 0.02115772 -0.08507942
-0.0028076954 -0.008042575 0.027375184 -0.040528554 0.005478396 0.0805362 0.007978501 -0.07633035
0.029107122 -0.04311813 -0.0740413 -0.050242156 -0.03811088 -0.00097596715 -0.045359354 -0.042813696
-0.018599154 0.028799176 -0.065058395 -0.009816699 -0.0069482457 0.038915265 0.049809005 0.011786299
0.0013705321 -0.029587215 0.015256291 0.04927161 -0.020526368 0.0071947896 0.036313355 0.08829891
0.02660933 -0.010708092 -0.011509432 -0.021277236 0.04629787 -0.057318393 -0.034437463 -0.042601533
-0.0012976092 -0.049674347 0.08913215 -0.04592486 -0.050458163 0.078682534 -0.03837412 -0.01654068
0.010703486 -0.02130604 -0.08164221 0.020530991 0.045472972 -0.10654469 -0.038864058 0.032491237
0.057348017 -0.024919705 0.037933495 0.029227203 0.014543803 -0.01622846 0.02145163 -0.08877603
-0.0025597943 -0.011106824 0.02461039 -0.041746657 0.0051157903 0.082793176 0.0051320847 -0.07711161
0.025813637 -0.044836283 -0.07451006 -0.05227053 -0.041138187 0.0027773487 -0.044977956 -0.04492003
-0.019680833 0.024609612 -0.066744365 -0.014264735 -0.006537598 0.041032586 0.054303113 0.013472784
-0.00030474828 -0.030913532 0.0127167385 0.050361793 -0.018369641 0.0056555346 0.033740573 0.08913934
0.022079688 -0.00987827 -0.0090130335 -0.019172912 0.045054853 -0.055040173 -0.030929832 -0.046196252
00000000: 68e8 01bb 8625 4cbd 8da4 b73d d819 2dbd
00000010: a75b 42bd 7743 a53d bca3 30bd 155a 86bc
00000020: de72 153c 7701 aabc 2925 a4bd 7a90 aa3c
00000030: b0fa 413d 762c dbbd 888c 29bd c70f 093d
00000040: 63c6 613d a374 ccbc 8ac3 1a3d 62b8 e23c
00000050: 2080 2f3c 22fe 61bc 8429 b73c 6f67 bdbd
00000060: f162 cdba eb8b 32bc 6d7e c23c 7b85 23bd
00000070: 02b8 d23b f4d1 a83d 2e99 3a3b 37be a3bd
00000080: 351c dd3c c404 3abd 1f16 9abd db2c 5ebd
00000090: e8bc 28bd bcb1 d33b c87f 32bd 3960 4cbd
000000a0: c654 b6bc 532f bb3c 2680 88bd ad2b 9dbc
000000b0: fef4 14bc 41f1 2a3d 866c 613d 1aec 4d3c
000000c0: 74bf 40ba 2a24 06bd 5ede 6d3c 2c85 483d
000000d0: e6ca 78bc 484a 3b3b 7cd1 163d 4329 b63d
000000e0: 9e13 a33c 60a8 31bc f037 1cbc 6ee3 a6bc
000000f0: 368b 363d 1201 51bd d443 04bd 4c2d 40bd
00000100: 70ca 5cbb a280 52bd b5f5 b13d 39e0 3dbd
00000110: d369 4cbd 8db2 983d d210 1bbd d170 a2bc
00000120: efb3 0b3c 20b3 bdbc 7a52 a4bd 95ee 8f3c
00000130: eaf1 423d 0852 debd 1241 1dbd f6a2 073d
00000140: 0a3d 573d 7c51 bebc cbb7 183d 4858 ee3c
00000150: d396 8c3c 0b5f 99bc f452 ad3c 1e3e aebd
00000160: 5001 38bb 01c5 03bc ec41 e03c 4501 26bd
00000170: 1e84 b33b 2af0 a43d 42b8 023c 1653 9cbd
00000180: 0f72 ee3c a39c 30bd f7a2 97bd b8ca 4dbd
00000190: 271a 1cbd 0cd8 7fba bbca 39bd 6a5d 2fbd
000001a0: 415d 98bc 40ec eb3c 563d 85bd 38d6 20bc
000001b0: 1cae e3bb 9d65 1f3d 8704 4c3d 521b 413c
000001c0: 6da3 b33a e360 f2bc 86f5 793c 07d1 493d
000001d0: ea26 a8bc 45c2 eb3b 50bd 143d 0fd6 b43d
000001e0: cffb d93c fe70 2fbc 0f92 3cbc 994d aebc
000001f0: d6a2 3d3d b1c6 6abd 4c0e 0dbd f27e 2ebd
00000200: 8a14 aaba 5477 4bbd eb8a b63d b51b 3cbd
00000210: 38ad 4ebd 4f24 a13d 2e2e 1dbd 5280 87bc
00000220: ad5d 2f3c 018a aebc 0834 a7bd 9c30 a83c
00000230: de41 3a3d 1a34 dabd eb2f 1fbd 8815 053d
00000240: c1e5 6a3d 6924 ccbc 2760 1b3d e36d ef3c
00000250: 2249 6e3c 8cf1 84bc 54bb af3c 35d0 b5bd
00000260: 39c2 27bb 65f9 35bc bb9b c93c 8bfe 2abd
00000270: 5ca2 a73b 788f a93d 0c2b a83b b1ec 9dbd
00000280: 1f77 d33c 40a6 37bd bb98 98bd a019 56bd
00000290: 8480 28bd 2e04 363b ce3a 38bd 11fe 37bd
000002a0: b339 a1bc 199a c93c 45b1 88bd a3b6 69bc
000002b0: 5939 d6bb c911 283d f16c 5e3d f4bc 5c3c
000002c0: 9fc6 9fb9 603e fdbc de59 503c 2b48 4e3d
000002d0: ee7b 96bc 1052 b93b 8e33 0a3d b08e b63d
000002e0: 76e0 b43c 78d8 21bc 67ab 13bc 8310 9dbc
000002f0: 708b 383d ce71 61bd 8f60 fdbc 4838 3dbd

fc.bias f4 [3]
-0.0015385302 -0.0014420091 -0.0014649945
00000000: 82a8 c9ba cc01 bdba 0f05 c0ba
